checkpoint_actor_local_0.pth (torch_old, 531488 bytes, 10 tensors)

fc1.weight f4 [400, 24]
0	0xbd2b0ca6	-0.04176011
1	0x3f00b3e7	0.5027451
2	0xbdabbc9c	-0.08385584
3	0x3dcb2f76	0.09921162
4	0xbe1933f1	-0.1496122
5	0xbed8229a	-0.422139
6	0xbd85b67a	-0.06528945
7	0x3dcd44e0	0.100229025
8	0x3d694875	0.056953866
9	0x3f2007ce	0.6251191
10	0xbddc2286	-0.10748772
11	0x3cb8bbcf	0.022550492
12	0x3dfc372a	0.12315209
13	0xbef790d6	-0.4835269
14	0xbdaa5554	-0.08317056
15	0x3bc6f04a	0.006071125
16	0x3dc432db	0.095800124
17	0x3f0bf6b1	0.54673296
18	0xbd94a10e	-0.07257281
19	0xbdd07cc0	-0.10180044
20	0x3eb6bbdb	0.35690197
21	0xbdeebbde	-0.116569266
22	0xbdde8b49	-0.1086641
23	0xbc5392fa	-0.01291346
24	0x3d2292fd	0.03969096
25	0xbdf52d71	-0.11971558
26	0x3ce4ac7d	0.02791428
27	0x3e03fb0e	0.12888739
28	0x3f21ef32	0.6325561
29	0x3e7c4c17	0.24638401
30	0xbc97b16f	-0.018517224
31	0x3df0ad92	0.11751856
32	0x3da353eb	0.079749905
33	0xbcb6fce4	-0.022337385
34	0xbe181869	-0.14853062
35	0x3e697a49	0.22800554
36	0x3d91c373	0.07117357
37	0xbcccbc8c	-0.02499225
38	0xbdb72fc9	-0.08944661
39	0x3e5b4ff5	0.2141722
40	0x3ddf0b3e	0.10890816
41	0x3c41ea71	0.01183568
42	0x3cbb67f5	0.022876719
43	0x3d2923c7	0.041293886
44	0xbe72cea8	-0.23711646
45	0x3dacc423	0.084358476
46	0x3cb16fd8	0.021659777
47	0x3d295b67	0.041346934
48	0x3f1ed598	0.6204467
49	0x3cc63747	0.02419628
50	0xbdd0cb92	-0.10195078
51	0xbd6bab44	-0.05753638
52	0x3d3dba63	0.04632033
53	0xbeba01a7	-0.36329386
54	0xbd6d6c03	-0.057964336
55	0xbd3dadf5	-0.046308476
56	0x3ebdec42	0.37094313
57	0xbcfee7e7	-0.031116439
58	0xbe408f99	-0.18804778
59	0xbe844e59	-0.25841025
60	0x3d8ad556	0.06778972
61	0xbe92c08f	-0.28662536
62	0xbe462c2d	-0.19352789
63	0xbe5835f2	-0.21114329
64	0x3ec71755	0.38884988
65	0xbc891645	-0.016734252
66	0x3d91d727	0.07121115
67	0xbe193ecd	-0.14965363
68	0x3e061dd2	0.13097313
69	0xbe7c2c31	-0.24626233
70	0x3d6e5080	0.05818224
71	0xbe3c88a9	-0.18411507
72	0x3ca6e872	0.02037451
73	0x3e779920	0.24179506
74	0x3c8c5d75	0.017134408
75	0xbc132684	-0.008981351
76	0xbea89e00	-0.32933044
77	0x3eb37e6e	0.35057396
78	0x3d99e4e6	0.07514362
79	0x3ba443ef	0.005012981
80	0xbc2356b7	-0.009969405
81	0x3e5e71d0	0.21723104
82	0xbc453304	-0.012036089
83	0xbd1ac5a2	-0.037786134
84	0xbe058f25	-0.13042887
85	0x3e399d2c	0.18126363
86	0xbc8f28ec	-0.017475568
87	0xbd1b5a93	-0.037928175
88	0xbcb1969d	-0.021678263
89	0x3e0c6133	0.13708954
90	0xbc90f7ae	-0.017696228
91	0xbe3399c3	-0.17539124
92	0x3e22df6b	0.1590554
93	0xb9359adc	-0.00017319195
94	0x3b4f200b	0.0031604792
95	0xbe50a3cb	-0.20374982
96	0x3dd857e3	0.10563638
97	0xbe1aa353	-0.15101366
98	0x3c85cb06	0.01633216
99	0xbe9fc033	-0.31201324
100	0xbe919546	-0.284342
101	0xbf43df08	-0.76512194
102	0xbd99cbc7	-0.075095706
103	0xbeaac4c1	-0.33353236
104	0x3e054897	0.13015972
105	0xbdf5bb8c	-0.11998662
106	0xbd84553a	-0.06461568
107	0x3d3842bd	0.04498552
108	0xbe856c92	-0.26059395
109	0xbf90088d	-1.125261
110	0xbd5e0240	-0.054201365
111	0x3d00b3bb	0.031421404
112	0x3e4b5375	0.19856055
113	0xbd6cb7e3	-0.057792556
114	0xbded2abe	-0.11580418
115	0xbd6b8995	-0.057504255
116	0xbded30ca	-0.115815714
117	0xbf829ab3	-1.020346
118	0xbd2aeffb	-0.04173277
119	0xbd3e4fdb	-0.046462875
120	0x3e5e2d7e	0.21697041
121	0x3c8e13b2	0.017343376
122	0x3d33caf1	0.043894712
123	0xbdca52c7	-0.0987907
124	0x3e7fd040	0.24981785
125	0xbf0622da	-0.5239693
126	0x3c7d28ee	0.015451653
127	0xbda086ad	-0.07838187
128	0x3e20e1ec	0.15711182
129	0xbad8e4c2	-0.0016547667
130	0xbdf9efc3	-0.12203934
131	0x3de50287	0.11182123
132	0x3df34615	0.118786015
133	0xbe72026a	-0.23633733
134	0xbe0d13f1	-0.13777138
135	0x3d99b3a9	0.075049706
136	0x3e52d062	0.20587304
137	0xbda51c88	-0.080620825
138	0x3da4814f	0.08032476
139	0x3d60d277	0.054888215
140	0xbc1951d4	-0.009357888
141	0x3e0a79c3	0.13523011
142	0x3d1436bf	0.036185022
143	0x3c87e6f0	0.016589612
144	0x3f14fb9a	0.58196414
145	0xbe858d29	-0.2608426
146	0xbdcdeffe	-0.100555405
147	0xbdeda661	-0.11604
148	0xbe98bf57	-0.2983348
149	0xbd979572	-0.07401551
150	0xbd6b6bcd	-0.057475854
151	0xbdead99e	-0.114672884
152	0x3f0fa9e4	0.5611861
153	0xbdc23298	-0.09482306
154	0xbd9e2cbb	-0.077233754
155	0x3e871404	0.26382458
156	0xbd1ca6f6	-0.038245164
157	0xbe3272da	-0.17426625
158	0xbde0f7db	-0.10984775
159	0x3e67b8aa	0.22629037
160	0x3ec24e47	0.37950346
161	0xbdfdf570	-0.12400329
162	0xbe2ed967	-0.1707512
163	0xbc59f680	-0.013303399
164	0xbd458d81	-0.04823065
165	0xbcca1040	-0.024665952
166	0xbe23a69f	-0.1598153
167	0x3d3d6d24	0.046246663
168	0x3e5b8877	0.21438776
169	0x3ec17a3a	0.37788564
170	0xbdbef302	-0.09323694
171	0x3c9669c6	0.018360984
172	0xbe36ad16	-0.17839465
173	0x3e8205ec	0.25395143
174	0xbdbfa644	-0.093578845
175	0xbcce3698	-0.025172517
176	0x3de1a6cf	0.11018144
177	0x3e9d8877	0.30768177
178	0xbbef24aa	-0.007298072
179	0x3c9e617d	0.019333595
180	0xbda0bc27	-0.07848387
181	0x3ed1ed6e	0.41001457
182	0xbda75846	-0.08171134
183	0xbd2334a9	-0.039845143
184	0x3da3f717	0.08006113
185	0x3e948737	0.2900941
186	0xbd9c248c	-0.07624158
187	0xbe73b012	-0.23797634
188	0x3c803b20	0.015653193
189	0x3f093f37	0.53612083
190	0xbdbc8952	-0.09205879
191	0xbe916cec	-0.28403413
192	0x3ea2658c	0.317181
193	0x3ebdb21b	0.37049946
194	0x3c6c297c	0.0144141875
195	0x3e97d8ec	0.29657686
196	0x3e5a4dcd	0.21318741
197	0x3d622eb6	0.05522033
198	0xbcebb08f	-0.028770713
199	0x3e9e329a	0.3089798
200	0x3efd87df	0.49517724
201	0x3eff345d	0.49844638
202	0xbcf85f0a	-0.030318756
203	0x3bf087ab	0.0073403916
204	0x3e32b2de	0.17451045
205	0xbd94afbb	-0.072600804
206	0x3d414a0d	0.04718976
207	0x3da74a5b	0.08168479
208	0x3eaff26b	0.34364638
209	0x3f0243a7	0.5088448
210	0xbe0cc91e	-0.13748595
211	0xbd2b1e98	-0.041777223
212	0xbc878560	-0.01654309
213	0xbce6fd91	-0.028197082
214	0xbe233838	-0.15939415
215	0xbc849927	-0.01618631
216	0x3e09a40b	0.13441484
217	0x3f0116ff	0.50425714
218	0xbd2810a1	-0.041031484
219	0x3aedf764	0.0018155393
220	0x3ea1a476	0.31570786
221	0x3e4e59bd	0.2015142
222	0x3c514c22	0.012774499
223	0xbd0bbcce	-0.034115605
224	0x3da5f4bc	0.0810332
225	0x3ef80149	0.4843848
226	0xbd2e84d6	-0.04260715
227	0xbd924be4	-0.07143381
228	0x3d9b8752	0.0759417
229	0x3e21eb43	0.15812401
230	0xbd944e53	-0.07241502
231	0xbd5fe7b4	-0.05466433
232	0x3d3afa2b	0.045648735
233	0x3ed5d7f3	0.4176632
234	0x3db67398	0.089087665
235	0xbeb979e7	-0.36225817
236	0xbe201c9e	-0.15635917
237	0x3d40a990	0.047036707
238	0x3cfefea3	0.03112728
239	0xbeb70737	-0.35747692
240	0xbd74e71f	-0.059790727
241	0xbda4ede0	-0.080531836
242	0xbe157471	-0.145952
243	0x3dd811a4	0.1055024
244	0xbe45b788	-0.19308293
245	0x3dd50ce3	0.104028486
246	0xbdab163e	-0.08353852
247	0x3dc11d60	0.09429431
248	0x3b5b0cbc	0.0033424338
249	0xbdeddcd0	-0.11614382
250	0x3d3aad31	0.045575324
251	0xbdb2a629	-0.08723099
252	0x3e8196b1	0.2531028
253	0x3d358fcf	0.0443266
254	0x3d1f5485	0.038898963
255	0xbde3ff6b	-0.111327015

fc1.bias f4 [400]
0	0xbe469e00	-0.1939621
1	0xbe8ebde3	-0.27879247
2	0xbda6fb3c	-0.08153388
3	0xbde12489	-0.10993297
4	0xbc0c0ceb	-0.008548002
5	0xbdab55a8	-0.08365947
6	0xbcca436d	-0.024690354
7	0xbe632651	-0.22182585
8	0x3ddb85b4	0.10718861
9	0xbe52989b	-0.20566027
10	0xbe13b8e0	-0.14425993
11	0x3e571303	0.21003346
12	0xbe51ac40	-0.20475864
13	0xbeaeb6b5	-0.3412377
14	0xbf0ac6d6	-0.5420965
15	0x3d9be208	0.076114714
16	0xbe10cdd1	-0.14141013
17	0x3d093af1	0.033503477
18	0xbe3783d4	-0.17921382
19	0x3dce49f0	0.10072696
20	0xbe787f32	-0.24267271
21	0xbe2f8d3e	-0.17143723
22	0xbefbbd0b	-0.49167666
23	0xbea949e0	-0.33064175
24	0x3d2c2c74	0.04203458
25	0x3de799b9	0.11308617
26	0xbdf6370d	-0.12022219
27	0xbd76d468	-0.06026116
28	0xbdaccf56	-0.08437984
29	0x3d8b496f	0.06801116
30	0x3d8a39db	0.06749316
31	0xbe1952e6	-0.1497303
32	0xbd8827fb	-0.06648251
33	0xbda82a82	-0.08211233
34	0xbed6ac54	-0.4192835
35	0x3dbe4cf8	0.092920244
36	0x3e8e6427	0.27810785
37	0xbf09a2f9	-0.537643
38	0xbe44f94c	-0.19235724
39	0xbde047d6	-0.109512016
40	0xbd155e99	-0.03646717
41	0xbf04ba17	-0.5184645
42	0xbe8d54c5	-0.27603737
43	0xbe99d808	-0.3004763
44	0x3c05a526	0.00815705
45	0xbddd839a	-0.10816117
46	0xbe912708	-0.2835009
47	0xbedb6934	-0.428537
48	0xbdca902b	-0.09890779
49	0xbda2ed51	-0.07955421
50	0xbdef80b0	-0.11694467
51	0x3d62c82a	0.055366673
52	0x3e003da6	0.12523517
53	0xbd4c35a5	-0.049855847
54	0x3e046030	0.12927318
55	0xbd850885	-0.064957656
56	0xbb9fbda9	-0.004874904
57	0xbe40c6e0	-0.18825865
58	0x3e0d52fd	0.13801189
59	0x3cb7bdd5	0.022429386
60	0xbe42b056	-0.1901258
61	0xbd595a19	-0.05306444
62	0xbdf39c6b	-0.11895069
63	0x3e036122	0.12830022
64	0xbe06a49b	-0.1314873
65	0xbe9491a9	-0.2901738
66	0x3e485771	0.19564606
67	0x3e2dc58f	0.16969894
68	0xbc8c73b8	-0.017145023
69	0x3dd46941	0.10371638
70	0x3d9a047a	0.07520385
71	0xbec3bd9a	-0.38230592
72	0xbe1c3102	-0.1525307
73	0x3e09f36f	0.13471769
74	0x3dbc34c0	0.09189749
75	0x3e5c19c5	0.21494205
76	0xbc4ced87	-0.012507803
77	0x3d580dbc	0.052747473
78	0x3e45c6e1	0.19314148
79	0xbe9086c8	-0.2822783
80	0xbe296ed6	-0.16546187
81	0xbdf6f072	-0.1205758
82	0xbe34be16	-0.17650637
83	0xbe93fa2f	-0.28901812
84	0xbe2da392	-0.16956928
85	0x3cda28c7	0.026630772
86	0xbc61ea20	-0.01378873
87	0x3d8e90cb	0.06961211
88	0x3e8614a8	0.26187634
89	0x3de0fc2a	0.109855965
90	0xbed99b88	-0.42501473
91	0xbe3693c8	-0.17829812
92	0x3e6a3aa8	0.22873938
93	0xbec30934	-0.3809296
94	0x3ce494e6	0.027903032
95	0xbec20316	-0.3789298
96	0xbe41804a	-0.18896595
97	0xbe0c38a2	-0.13693479
98	0x3e7865f7	0.24257647
99	0xbe6c1efc	-0.23058695
100	0x3eae391c	0.34027946
101	0xbeb709e3	-0.3574973
102	0x3d36889c	0.044563875
103	0xbdd4deeb	-0.10394081
104	0xbe0e16e3	-0.13875918
105	0xbecda779	-0.40166834
106	0xbea12d88	-0.3148005
107	0xbe7e49ec	-0.24832886
108	0x3e1bb355	0.15205128
109	0xbcc44870	-0.023960322
110	0xbf0f046c	-0.5586612
111	0xbdee5515	-0.11637322
112	0xbe8572fe	-0.26064295
113	0xbf1fbbeb	-0.62396115
114	0xbe6b9983	-0.23007779
115	0xbe570491	-0.20997836
116	0xbe297059	-0.16546763
117	0xbd68d480	-0.05684328
118	0xbe059f85	-0.13049133
119	0x3e4b0d76	0.19829354
120	0x3d21055f	0.039311763
121	0xbe511a89	-0.20420279
122	0xbcef1c85	-0.029188404
123	0xbdbe773a	-0.093000844
124	0x3c797488	0.015225537
125	0xbd93e3aa	-0.07221158
126	0xbd71d42e	-0.05904024
127	0xbe42ea80	-0.19034767
128	0xbec09792	-0.3761564
129	0xbccfcdb4	-0.025366642
130	0xbe17b649	-0.1481563
131	0xbed3fdf9	-0.41404703
132	0xbe9f13d7	-0.31069824
133	0xbd9db4b7	-0.07700484
134	0xbe2c6851	-0.16836669
135	0x3a8313fd	0.0010000464
136	0xbe8587ac	-0.26080072
137	0xbcb42be6	-0.021993589
138	0xbe89837f	-0.26858136
139	0x3d7641ce	0.06012135
140	0xbe0e16d3	-0.13875894
141	0x3e18edbb	0.14934437
142	0x3e8b8dc0	0.27256584
143	0xbe888638	-0.266649
144	0xbe736d1f	-0.23772095
145	0x3dc42b6d	0.09578595
146	0xbe2e2eea	-0.17010084
147	0xbe6be509	-0.23036589
148	0xbdc8985b	-0.097946845
149	0xbd61ba29	-0.055109177
150	0xbe21f09c	-0.15814441
151	0xbe3b3a18	-0.1828388
152	0xbe963cff	-0.2934341
153	0x3e7693c2	0.24079803
154	0x3e0f9126	0.14020213
155	0x3e315f86	0.17321596
156	0x3e8828d2	0.26593643
157	0xbe5b1d93	-0.21398
158	0x3d8ac35f	0.06775545
159	0x3e131d0a	0.14366546
160	0x3d3b0eae	0.045668297
161	0x3cd147da	0.025546957
162	0xbc29df31	-0.010368154
163	0x3cab274d	0.020892764
164	0xbe4e6cbe	-0.2015867
165	0xbf2a0f12	-0.66429245
166	0xbdbf83dd	-0.09351323
167	0xbe5bdf37	-0.21471868
168	0xbe4e43a8	-0.20142996
169	0xbe85e3a9	-0.26150253
170	0xbe127222	-0.1430135
171	0xbf0861bd	-0.53274137
172	0xbec0f388	-0.376858
173	0xbe63e50f	-0.22255348
174	0x3bacd86d	0.0052748234
175	0xbe58def2	-0.21178797
176	0xbe8870b3	-0.26648483
177	0xbdeec50b	-0.11658677
178	0xbeb62c13	-0.355805
179	0xbebcdfec	-0.3688959
180	0xbea8ba25	-0.32954517
181	0xbf0e8ff2	-0.55688393
182	0xbd8dcc45	-0.06923727
183	0xbea0f4e6	-0.31436843
184	0xbebfd7fb	-0.37469468
185	0x3e372f2e	0.17889091
186	0xbcf7169e	-0.030162152
187	0x3e5bf168	0.21478808
188	0xbe8d7720	-0.27629948
189	0x3d20230a	0.039095916
190	0xbe64cfce	-0.22344896
191	0xbd890cfe	-0.06691931
192	0xbe608a34	-0.2192772
193	0xbdce5cf5	-0.10076324
194	0x3e0d74ee	0.13814136
195	0xbc21b750	-0.009870365
196	0x3e498b22	0.19681981
197	0x3e95c330	0.2925048
198	0x3e224508	0.15846646
199	0xbdaa553a	-0.08317037
200	0xbda0576c	-0.078291744
201	0x3c423d3e	0.011855422
202	0x3d57f5a7	0.052724507
203	0x3e8ddb93	0.27706584
204	0xbe96e3f5	-0.29470792
205	0xbf081ba0	-0.5316715
206	0xbe4b56d9	-0.19857349
207	0x37e093f2	2.6771773e-05
208	0xbd8f61f5	-0.07001106
209	0xbe58cc4f	-0.21171688
210	0xbdf77836	-0.12083475
211	0xbc82fdfd	-0.015990252
212	0xbd8bbb3a	-0.0682282
213	0xbe2e1a1b	-0.17002146
214	0xbe268543	-0.16261773
215	0xbe1e9809	-0.15487684
216	0x3e9040c9	0.28174427
217	0xbd2373bf	-0.039905306
218	0x3da04bdb	0.07826968
219	0x3e76a56f	0.24086545
220	0xbdb5a203	-0.08868792
221	0xbddc0d30	-0.10744703
222	0xbe453045	-0.19256695
223	0xbe688e5f	-0.2271056
224	0xbe57b99e	-0.21066901
225	0xbd4684da	-0.04846654
226	0xbdebd526	-0.11515264
227	0xbda4064a	-0.08009012
228	0xbe2d74b3	-0.16939048
229	0x3d0ebe6c	0.03484957
230	0x3b76e878	0.0037675183
231	0xbece86ef	-0.4033732
232	0xbebcbcc4	-0.36862767
233	0x3c8c4a72	0.017125342
234	0x3d5d041e	0.053959005
235	0x3c7e8c22	0.01553634
236	0xbe3452f4	-0.17609769
237	0xbdf91c82	-0.121636406
238	0xbd213be7	-0.039363768
239	0xbee887ac	-0.4541601
240	0xbda198ef	-0.07890498
241	0x3e37139a	0.17878571
242	0x3c8d6013	0.017257726
243	0x3d288de7	0.041150954
244	0xbe261d94	-0.1622222
245	0xbf1ef2e8	-0.62089396
246	0xbeea0e8c	-0.45714223
247	0xbd1bbac7	-0.03801992
248	0xbda537c3	-0.08067276
249	0x3d9bb37f	0.076025955
250	0x3be02290	0.0068400577
251	0xbd0a5303	-0.033770572
252	0xbd1a9a38	-0.03774473
253	0xbeb69092	-0.35657173
254	0xbde32756	-0.11091487
255	0xbebdc1e7	-0.37061998

bn1.weight f4 [400]
0	0x3f11c61d	0.5694292
1	0x3f0462be	0.5171317
2	0x3ea437f4	0.3207394
3	0x3e981680	0.29704666
4	0x3f169159	0.5881553
5	0x3dae79f8	0.085193574
6	0x3cc65900	0.02421236
7	0x3f0bcfe7	0.5461411
8	0x3f61a6ed	0.88145334
9	0x3da1eec8	0.07906872
10	0x3f37114f	0.71510786
11	0x3f7de696	0.9917997
12	0x3ef5311e	0.47889036
13	0x3e4ec9d8	0.20194185
14	0x3e752088	0.23938191
15	0x3f3f6d18	0.7477584
16	0x3d9a6ea8	0.07540637
17	0x3ed2be3c	0.41160762
18	0x3cc60f20	0.024177134
19	0x3f2d714c	0.67751
20	0x3f7bb255	0.9831899
21	0x3f521546	0.8206371
22	0x3f1eb4fa	0.619949
23	0x3ddcfa10	0.10789883
24	0x3ebd721a	0.37001115
25	0x3f3b0304	0.73051476
26	0x3edaf52c	0.42765176
27	0x3e8c7ea4	0.2744037
28	0x3e17ea98	0.14835584
29	0x3e548660	0.20754385
30	0x3f57916a	0.8420626
31	0x3f4cf035	0.80054027
32	0x3f731a4b	0.94961995
33	0x3f38ea0e	0.7223214
34	0x3e0f465c	0.13991684
35	0x3cc8c700	0.024508953
36	0x3f0e443b	0.5557286
37	0x3e375660	0.17904043
38	0x3f5e9db9	0.86959416
39	0x3d78a5f0	0.060705125
40	0x3f222715	0.63340884
41	0x3e14ca10	0.14530206
42	0x3f1edc43	0.6205484
43	0x3f2234c8	0.6336179
44	0x3db3afa0	0.08773732
45	0x3f0f94db	0.5608651
46	0x3f1f0092	0.62110245
47	0x3f754aea	0.95817435
48	0x3f3b9955	0.7328084
49	0x3e7ab90c	0.24484652
50	0x3f18b1aa	0.59646094
51	0x3f2f0ac5	0.6837581
52	0x3e32c0b4	0.17456323
53	0x3f25e469	0.6480165
54	0x3e8d57fe	0.27606195
55	0x3e9eb6d0	0.3099885
56	0x3e022224	0.12708336
57	0x3f7cde07	0.98776287
58	0x3f08f96d	0.53505594
59	0x3ec8cf66	0.39220732
60	0x3f09cead	0.5383099
61	0x3f659c16	0.89691293
62	0x3f131168	0.57448435
63	0x3f746d25	0.9547904
64	0x3f21557b	0.6302106
65	0x3f4f038f	0.80864805
66	0x3f1b0538	0.6055484
67	0x3f687043	0.907963
68	0x3e4d0198	0.20020139
69	0x3f239f7c	0.6391523
70	0x3f0b52c3	0.5442316
71	0x3f7aa4c6	0.97907674
72	0x3f788853	0.97083014
73	0x3e642164	0.22278363
74	0x3f4a34f5	0.78987056
75	0x3e5b28cc	0.21402282
76	0x3f17bc01	0.59271246
77	0x3f2d7ba5	0.6776679
78	0x3d967670	0.07346809
79	0x3f608b91	0.8771296
80	0x3db57668	0.08860475
81	0x3d09c2f0	0.033633173
82	0x3df42bd8	0.11922425
83	0x3f5606cb	0.83604115
84	0x3e720318	0.23633993
85	0x3f4a3698	0.78989553
86	0x3f162240	0.5864601
87	0x3da40a00	0.0800972
88	0x3efb66ea	0.49101955
89	0x3f1cf261	0.6130734
90	0x3ec82654	0.39091742
91	0x3f14e8f1	0.5816794
92	0x3e9731fe	0.2953033
93	0x3e376b28	0.1791197
94	0x3f4c7c8f	0.7987756
95	0x3f4a7798	0.79088736
96	0x3f0f5677	0.5599131
97	0x3ec64278	0.38722587
98	0x3f5f32ba	0.8718678
99	0x3f0d1025	0.5510276
100	0x3e761e88	0.24035084
101	0x3f1b7631	0.6072722
102	0x3d92f6f8	0.07176012
103	0x3f22e73c	0.63634086
104	0x3f6aadaf	0.9167127
105	0x3d8310d8	0.06399697
106	0x3ee45b8c	0.44601095
107	0x3f483d19	0.7821823
108	0x3d479bc0	0.04873252
109	0x3ebc0558	0.36722827
110	0x3eb8acf4	0.36069453
111	0x3e9858cc	0.29755247
112	0x3e40fa58	0.18845499
113	0x3eba2d0e	0.363625
114	0x3ea76e18	0.32701182
115	0x3f684c77	0.90741676
116	0x3f2f2bf8	0.68426466
117	0x3f6e14e0	0.930006
118	0x3f15db2d	0.5853756
119	0x3cf68be0	0.030095994
120	0x3f45167b	0.7698743
121	0x3f0ae6fd	0.5425871
122	0x3f3f486a	0.7471987
123	0x3f23d4d5	0.6399663
124	0x3f7fa801	0.9986573
125	0x3e8aa88c	0.27081716
126	0x3f755d3b	0.95845383
127	0x3e9e03b4	0.308622
128	0x3e54bd68	0.20775378
129	0x3f11c249	0.5693708
130	0x3f5918e2	0.84803593
131	0x3f24ca74	0.6437142
132	0x3ebfacea	0.3743661
133	0x3f31ab4f	0.6940202
134	0x3ef4027c	0.47658145
135	0x3f0d7640	0.5525856
136	0x3f1d1969	0.613669
137	0x3efadb9e	0.4899568
138	0x3f6907f5	0.91027766
139	0x3f786fc9	0.9704557
140	0x3e16aa74	0.1471346
141	0x3f78debe	0.9721488
142	0x3c153c00	0.009108543
143	0x3f09bf09	0.5380712
144	0x3def2fe8	0.11679059
145	0x3f039e22	0.51413167
146	0x3f049ae4	0.51798844
147	0x3f1aa877	0.60413307
148	0x3f5c4801	0.8604737
149	0x3f495edf	0.78660387
150	0x3f0afe33	0.5429413
151	0x3f0d0f11	0.55101115
152	0x3eab8cce	0.33505863
153	0x3f6d30fa	0.9265286
154	0x3ebd724c	0.37001264
155	0x3dec3548	0.115336
156	0x3f649e85	0.8930438
157	0x3f073117	0.5280928
158	0x3f466774	0.77501607
159	0x3e912272	0.28346592
160	0x3c9df860	0.019283473
161	0x3e362bfc	0.17790216
162	0x3e667610	0.22505975
163	0x3ef60df6	0.48057526
164	0x3dd00140	0.101564884
165	0x3f18328a	0.59452116
166	0x3f6d3c3e	0.9267005
167	0x3f26098c	0.6485832
168	0x3e29834c	0.16553992
169	0x3f0b982f	0.5452909
170	0x3e93986c	0.28827226
171	0x3e64dcc0	0.22349834
172	0x3f5f7b1f	0.8729724
173	0x3eec9196	0.46204823
174	0x3f693634	0.9109833
175	0x3e0e5e70	0.13903213
176	0x3f142895	0.57874423
177	0x3e7dbbdc	0.24778694
178	0x3de1ea40	0.11031008
179	0x3db5a2e0	0.088689566
180	0x3f317273	0.6931526
181	0x3f777a0d	0.9667061
182	0x3f55bc6a	0.8349062
183	0x3df69498	0.12040061
184	0x3dae0040	0.084961414
185	0x3eed1f70	0.46313047
186	0x3ea77cbc	0.32712352
187	0x3d610da0	0.054944634
188	0x3e91b526	0.28458518
189	0x3e96fbf0	0.29489088
190	0x3e0d4c88	0.13798726
191	0x3f5d4ddf	0.86446947
192	0x3ece008a	0.40234786
193	0x3b4ce900	0.0031266809
194	0x3e66c2e0	0.22535276
195	0x3ed5b4c4	0.41739476
196	0x3e97aab8	0.29622436
197	0x3f1c8287	0.6113667
198	0x3f5cfc6f	0.86322683
199	0x3f11e754	0.56993604
200	0x3f710dc4	0.9416163
201	0x3f50ee1f	0.81613344
202	0x3f1bc702	0.60850537
203	0x3e9e550c	0.3092426
204	0x3d42fa40	0.04760194
205	0x3f2ee44a	0.6831709
206	0x3e62c514	0.22145492
207	0x3f1d8c11	0.6154185
208	0x3eb64a14	0.35603392
209	0x3eaaf2dc	0.33388412
210	0x3f467f11	0.7753764
211	0x3f277eb5	0.65427715
212	0x3f4b5134	0.7942078
213	0x3f5bab1b	0.8580796
214	0x3eea5414	0.45767272
215	0x3f2ac3d8	0.66705084
216	0x3f21a292	0.6313869
217	0x3f586e90	0.84543705
218	0x3f281629	0.65658814
219	0x3f386c76	0.720405
220	0x3f57417f	0.84084314
221	0x3cc7ddc0	0.02439773
222	0x3e81186e	0.2521395
223	0x3f382341	0.71928793
224	0x3f088153	0.53322333
225	0x3e38c8e4	0.18045384
226	0x3c902460	0.01759547
227	0x3f704146	0.938496
228	0x3e162d8c	0.14665812
229	0x3f509640	0.81479263
230	0x3f0c9bf1	0.5492545
231	0x3f6bd9c5	0.92129165
232	0x3f1ecc4c	0.6203048
233	0x3e69525c	0.22785324
234	0x3f0a54d4	0.5403569
235	0x3f46a1a8	0.7759042
236	0x3f04c84d	0.51868135
237	0x3eaace32	0.3336044
238	0x3daaa340	0.08331919
239	0x3f5501b4	0.83205724
240	0x3ec52008	0.38501
241	0x3f78cb6d	0.97185403
242	0x3e10cac4	0.14139849
243	0x3f351c79	0.7074657
244	0x3f73beca	0.95212996
245	0x3f7de5b3	0.9917862
246	0x3f14f3db	0.58184594
247	0x3f51e41d	0.819887
248	0x3f366827	0.71252674
249	0x3e4db864	0.2008987
250	0x3f0ecae8	0.5577836
251	0x3ee7ad92	0.4524961
252	0x3f2b052d	0.6680477
253	0x3eaa2a6c	0.3323549
254	0x3ed743fe	0.4204406
255	0x3f055580	0.5208359

bn1.bias f4 [400]
0	0x00000000	0.0
1	0x00000000	0.0
2	0x00000000	0.0
3	0x00000000	0.0
4	0x00000000	0.0
5	0x00000000	0.0
6	0x00000000	0.0
7	0x00000000	0.0
8	0x00000000	0.0
9	0x00000000	0.0
10	0x00000000	0.0
11	0x00000000	0.0
12	0x00000000	0.0
13	0x00000000	0.0
14	0x00000000	0.0
15	0x00000000	0.0
16	0x00000000	0.0
17	0x00000000	0.0
18	0x00000000	0.0
19	0x00000000	0.0
20	0x00000000	0.0
21	0x00000000	0.0
22	0x00000000	0.0
23	0x00000000	0.0
24	0x00000000	0.0
25	0x00000000	0.0
26	0x00000000	0.0
27	0x00000000	0.0
28	0x00000000	0.0
29	0x00000000	0.0
30	0x00000000	0.0
31	0x00000000	0.0
32	0x00000000	0.0
33	0x00000000	0.0
34	0x00000000	0.0
35	0x00000000	0.0
36	0x00000000	0.0
37	0x00000000	0.0
38	0x00000000	0.0
39	0x00000000	0.0
40	0x00000000	0.0
41	0x00000000	0.0
42	0x00000000	0.0
43	0x00000000	0.0
44	0x00000000	0.0
45	0x00000000	0.0
46	0x00000000	0.0
47	0x00000000	0.0
48	0x00000000	0.0
49	0x00000000	0.0
50	0x00000000	0.0
51	0x00000000	0.0
52	0x00000000	0.0
53	0x00000000	0.0
54	0x00000000	0.0
55	0x00000000	0.0
56	0x00000000	0.0
57	0x00000000	0.0
58	0x00000000	0.0
59	0x00000000	0.0
60	0x00000000	0.0
61	0x00000000	0.0
62	0x00000000	0.0
63	0x00000000	0.0
64	0x00000000	0.0
65	0x00000000	0.0
66	0x00000000	0.0
67	0x00000000	0.0
68	0x00000000	0.0
69	0x00000000	0.0
70	0x00000000	0.0
71	0x00000000	0.0
72	0x00000000	0.0
73	0x00000000	0.0
74	0x00000000	0.0
75	0x00000000	0.0
76	0x00000000	0.0
77	0x00000000	0.0
78	0x00000000	0.0
79	0x00000000	0.0
80	0x00000000	0.0
81	0x00000000	0.0
82	0x00000000	0.0
83	0x00000000	0.0
84	0x00000000	0.0
85	0x00000000	0.0
86	0x00000000	0.0
87	0x00000000	0.0
88	0x00000000	0.0
89	0x00000000	0.0
90	0x00000000	0.0
91	0x00000000	0.0
92	0x00000000	0.0
93	0x00000000	0.0
94	0x00000000	0.0
95	0x00000000	0.0
96	0x00000000	0.0
97	0x00000000	0.0
98	0x00000000	0.0
99	0x00000000	0.0
100	0x00000000	0.0
101	0x00000000	0.0
102	0x00000000	0.0
103	0x00000000	0.0
104	0x00000000	0.0
105	0x00000000	0.0
106	0x00000000	0.0
107	0x00000000	0.0
108	0x00000000	0.0
109	0x00000000	0.0
110	0x00000000	0.0
111	0x00000000	0.0
112	0x00000000	0.0
113	0x00000000	0.0
114	0x00000000	0.0
115	0x00000000	0.0
116	0x00000000	0.0
117	0x00000000	0.0
118	0x00000000	0.0
119	0x00000000	0.0
120	0x00000000	0.0
121	0x00000000	0.0
122	0x00000000	0.0
123	0x00000000	0.0
124	0x00000000	0.0
125	0x00000000	0.0
126	0x00000000	0.0
127	0x00000000	0.0
128	0x00000000	0.0
129	0x00000000	0.0
130	0x00000000	0.0
131	0x00000000	0.0
132	0x00000000	0.0
133	0x00000000	0.0
134	0x00000000	0.0
135	0x00000000	0.0
136	0x00000000	0.0
137	0x00000000	0.0
138	0x00000000	0.0
139	0x00000000	0.0
140	0x00000000	0.0
141	0x00000000	0.0
142	0x00000000	0.0
143	0x00000000	0.0
144	0x00000000	0.0
145	0x00000000	0.0
146	0x00000000	0.0
147	0x00000000	0.0
148	0x00000000	0.0
149	0x00000000	0.0
150	0x00000000	0.0
151	0x00000000	0.0
152	0x00000000	0.0
153	0x00000000	0.0
154	0x00000000	0.0
155	0x00000000	0.0
156	0x00000000	0.0
157	0x00000000	0.0
158	0x00000000	0.0
159	0x00000000	0.0
160	0x00000000	0.0
161	0x00000000	0.0
162	0x00000000	0.0
163	0x00000000	0.0
164	0x00000000	0.0
165	0x00000000	0.0
166	0x00000000	0.0
167	0x00000000	0.0
168	0x00000000	0.0
169	0x00000000	0.0
170	0x00000000	0.0
171	0x00000000	0.0
172	0x00000000	0.0
173	0x00000000	0.0
174	0x00000000	0.0
175	0x00000000	0.0
176	0x00000000	0.0
177	0x00000000	0.0
178	0x00000000	0.0
179	0x00000000	0.0
180	0x00000000	0.0
181	0x00000000	0.0
182	0x00000000	0.0
183	0x00000000	0.0
184	0x00000000	0.0
185	0x00000000	0.0
186	0x00000000	0.0
187	0x00000000	0.0
188	0x00000000	0.0
189	0x00000000	0.0
190	0x00000000	0.0
191	0x00000000	0.0
192	0x00000000	0.0
193	0x00000000	0.0
194	0x00000000	0.0
195	0x00000000	0.0
196	0x00000000	0.0
197	0x00000000	0.0
198	0x00000000	0.0
199	0x00000000	0.0
200	0x00000000	0.0
201	0x00000000	0.0
202	0x00000000	0.0
203	0x00000000	0.0
204	0x00000000	0.0
205	0x00000000	0.0
206	0x00000000	0.0
207	0x00000000	0.0
208	0x00000000	0.0
209	0x00000000	0.0
210	0x00000000	0.0
211	0x00000000	0.0
212	0x00000000	0.0
213	0x00000000	0.0
214	0x00000000	0.0
215	0x00000000	0.0
216	0x00000000	0.0
217	0x00000000	0.0
218	0x00000000	0.0
219	0x00000000	0.0
220	0x00000000	0.0
221	0x00000000	0.0
222	0x00000000	0.0
223	0x00000000	0.0
224	0x00000000	0.0
225	0x00000000	0.0
226	0x00000000	0.0
227	0x00000000	0.0
228	0x00000000	0.0
229	0x00000000	0.0
230	0x00000000	0.0
231	0x00000000	0.0
232	0x00000000	0.0
233	0x00000000	0.0
234	0x00000000	0.0
235	0x00000000	0.0
236	0x00000000	0.0
237	0x00000000	0.0
238	0x00000000	0.0
239	0x00000000	0.0
240	0x00000000	0.0
241	0x00000000	0.0
242	0x00000000	0.0
243	0x00000000	0.0
244	0x00000000	0.0
245	0x00000000	0.0
246	0x00000000	0.0
247	0x00000000	0.0
248	0x00000000	0.0
249	0x00000000	0.0
250	0x00000000	0.0
251	0x00000000	0.0
252	0x00000000	0.0
253	0x00000000	0.0
254	0x00000000	0.0
255	0x00000000	0.0

bn1.running_mean f4 [400]
0	0x00000000	0.0
1	0x00000000	0.0
2	0x00000000	0.0
3	0x00000000	0.0
4	0x00000000	0.0
5	0x00000000	0.0
6	0x00000000	0.0
7	0x00000000	0.0
8	0x00000000	0.0
9	0x00000000	0.0
10	0x00000000	0.0
11	0x00000000	0.0
12	0x00000000	0.0
13	0x00000000	0.0
14	0x00000000	0.0
15	0x00000000	0.0
16	0x00000000	0.0
17	0x00000000	0.0
18	0x00000000	0.0
19	0x00000000	0.0
20	0x00000000	0.0
21	0x00000000	0.0
22	0x00000000	0.0
23	0x00000000	0.0
24	0x00000000	0.0
25	0x00000000	0.0
26	0x00000000	0.0
27	0x00000000	0.0
28	0x00000000	0.0
29	0x00000000	0.0
30	0x00000000	0.0
31	0x00000000	0.0
32	0x00000000	0.0
33	0x00000000	0.0
34	0x00000000	0.0
35	0x00000000	0.0
36	0x00000000	0.0
37	0x00000000	0.0
38	0x00000000	0.0
39	0x00000000	0.0
40	0x00000000	0.0
41	0x00000000	0.0
42	0x00000000	0.0
43	0x00000000	0.0
44	0x00000000	0.0
45	0x00000000	0.0
46	0x00000000	0.0
47	0x00000000	0.0
48	0x00000000	0.0
49	0x00000000	0.0
50	0x00000000	0.0
51	0x00000000	0.0
52	0x00000000	0.0
53	0x00000000	0.0
54	0x00000000	0.0
55	0x00000000	0.0
56	0x00000000	0.0
57	0x00000000	0.0
58	0x00000000	0.0
59	0x00000000	0.0
60	0x00000000	0.0
61	0x00000000	0.0
62	0x00000000	0.0
63	0x00000000	0.0
64	0x00000000	0.0
65	0x00000000	0.0
66	0x00000000	0.0
67	0x00000000	0.0
68	0x00000000	0.0
69	0x00000000	0.0
70	0x00000000	0.0
71	0x00000000	0.0
72	0x00000000	0.0
73	0x00000000	0.0
74	0x00000000	0.0
75	0x00000000	0.0
76	0x00000000	0.0
77	0x00000000	0.0
78	0x00000000	0.0
79	0x00000000	0.0
80	0x00000000	0.0
81	0x00000000	0.0
82	0x00000000	0.0
83	0x00000000	0.0
84	0x00000000	0.0
85	0x00000000	0.0
86	0x00000000	0.0
87	0x00000000	0.0
88	0x00000000	0.0
89	0x00000000	0.0
90	0x00000000	0.0
91	0x00000000	0.0
92	0x00000000	0.0
93	0x00000000	0.0
94	0x00000000	0.0
95	0x00000000	0.0
96	0x00000000	0.0
97	0x00000000	0.0
98	0x00000000	0.0
99	0x00000000	0.0
100	0x00000000	0.0
101	0x00000000	0.0
102	0x00000000	0.0
103	0x00000000	0.0
104	0x00000000	0.0
105	0x00000000	0.0
106	0x00000000	0.0
107	0x00000000	0.0
108	0x00000000	0.0
109	0x00000000	0.0
110	0x00000000	0.0
111	0x00000000	0.0
112	0x00000000	0.0
113	0x00000000	0.0
114	0x00000000	0.0
115	0x00000000	0.0
116	0x00000000	0.0
117	0x00000000	0.0
118	0x00000000	0.0
119	0x00000000	0.0
120	0x00000000	0.0
121	0x00000000	0.0
122	0x00000000	0.0
123	0x00000000	0.0
124	0x00000000	0.0
125	0x00000000	0.0
126	0x00000000	0.0
127	0x00000000	0.0
128	0x00000000	0.0
129	0x00000000	0.0
130	0x00000000	0.0
131	0x00000000	0.0
132	0x00000000	0.0
133	0x00000000	0.0
134	0x00000000	0.0
135	0x00000000	0.0
136	0x00000000	0.0
137	0x00000000	0.0
138	0x00000000	0.0
139	0x00000000	0.0
140	0x00000000	0.0
141	0x00000000	0.0
142	0x00000000	0.0
143	0x00000000	0.0
144	0x00000000	0.0
145	0x00000000	0.0
146	0x00000000	0.0
147	0x00000000	0.0
148	0x00000000	0.0
149	0x00000000	0.0
150	0x00000000	0.0
151	0x00000000	0.0
152	0x00000000	0.0
153	0x00000000	0.0
154	0x00000000	0.0
155	0x00000000	0.0
156	0x00000000	0.0
157	0x00000000	0.0
158	0x00000000	0.0
159	0x00000000	0.0
160	0x00000000	0.0
161	0x00000000	0.0
162	0x00000000	0.0
163	0x00000000	0.0
164	0x00000000	0.0
165	0x00000000	0.0
166	0x00000000	0.0
167	0x00000000	0.0
168	0x00000000	0.0
169	0x00000000	0.0
170	0x00000000	0.0
171	0x00000000	0.0
172	0x00000000	0.0
173	0x00000000	0.0
174	0x00000000	0.0
175	0x00000000	0.0
176	0x00000000	0.0
177	0x00000000	0.0
178	0x00000000	0.0
179	0x00000000	0.0
180	0x00000000	0.0
181	0x00000000	0.0
182	0x00000000	0.0
183	0x00000000	0.0
184	0x00000000	0.0
185	0x00000000	0.0
186	0x00000000	0.0
187	0x00000000	0.0
188	0x00000000	0.0
189	0x00000000	0.0
190	0x00000000	0.0
191	0x00000000	0.0
192	0x00000000	0.0
193	0x00000000	0.0
194	0x00000000	0.0
195	0x00000000	0.0
196	0x00000000	0.0
197	0x00000000	0.0
198	0x00000000	0.0
199	0x00000000	0.0
200	0x00000000	0.0
201	0x00000000	0.0
202	0x00000000	0.0
203	0x00000000	0.0
204	0x00000000	0.0
205	0x00000000	0.0
206	0x00000000	0.0
207	0x00000000	0.0
208	0x00000000	0.0
209	0x00000000	0.0
210	0x00000000	0.0
211	0x00000000	0.0
212	0x00000000	0.0
213	0x00000000	0.0
214	0x00000000	0.0
215	0x00000000	0.0
216	0x00000000	0.0
217	0x00000000	0.0
218	0x00000000	0.0
219	0x00000000	0.0
220	0x00000000	0.0
221	0x00000000	0.0
222	0x00000000	0.0
223	0x00000000	0.0
224	0x00000000	0.0
225	0x00000000	0.0
226	0x00000000	0.0
227	0x00000000	0.0
228	0x00000000	0.0
229	0x00000000	0.0
230	0x00000000	0.0
231	0x00000000	0.0
232	0x00000000	0.0
233	0x00000000	0.0
234	0x00000000	0.0
235	0x00000000	0.0
236	0x00000000	0.0
237	0x00000000	0.0
238	0x00000000	0.0
239	0x00000000	0.0
240	0x00000000	0.0
241	0x00000000	0.0
242	0x00000000	0.0
243	0x00000000	0.0
244	0x00000000	0.0
245	0x00000000	0.0
246	0x00000000	0.0
247	0x00000000	0.0
248	0x00000000	0.0
249	0x00000000	0.0
250	0x00000000	0.0
251	0x00000000	0.0
252	0x00000000	0.0
253	0x00000000	0.0
254	0x00000000	0.0
255	0x00000000	0.0

bn1.running_var f4 [400]
0	0x3f800000	1.0
1	0x3f800000	1.0
2	0x3f800000	1.0
3	0x3f800000	1.0
4	0x3f800000	1.0
5	0x3f800000	1.0
6	0x3f800000	1.0
7	0x3f800000	1.0
8	0x3f800000	1.0
9	0x3f800000	1.0
10	0x3f800000	1.0
11	0x3f800000	1.0
12	0x3f800000	1.0
13	0x3f800000	1.0
14	0x3f800000	1.0
15	0x3f800000	1.0
16	0x3f800000	1.0
17	0x3f800000	1.0
18	0x3f800000	1.0
19	0x3f800000	1.0
20	0x3f800000	1.0
21	0x3f800000	1.0
22	0x3f800000	1.0
23	0x3f800000	1.0
24	0x3f800000	1.0
25	0x3f800000	1.0
26	0x3f800000	1.0
27	0x3f800000	1.0
28	0x3f800000	1.0
29	0x3f800000	1.0
30	0x3f800000	1.0
31	0x3f800000	1.0
32	0x3f800000	1.0
33	0x3f800000	1.0
34	0x3f800000	1.0
35	0x3f800000	1.0
36	0x3f800000	1.0
37	0x3f800000	1.0
38	0x3f800000	1.0
39	0x3f800000	1.0
40	0x3f800000	1.0
41	0x3f800000	1.0
42	0x3f800000	1.0
43	0x3f800000	1.0
44	0x3f800000	1.0
45	0x3f800000	1.0
46	0x3f800000	1.0
47	0x3f800000	1.0
48	0x3f800000	1.0
49	0x3f800000	1.0
50	0x3f800000	1.0
51	0x3f800000	1.0
52	0x3f800000	1.0
53	0x3f800000	1.0
54	0x3f800000	1.0
55	0x3f800000	1.0
56	0x3f800000	1.0
57	0x3f800000	1.0
58	0x3f800000	1.0
59	0x3f800000	1.0
60	0x3f800000	1.0
61	0x3f800000	1.0
62	0x3f800000	1.0
63	0x3f800000	1.0
64	0x3f800000	1.0
65	0x3f800000	1.0
66	0x3f800000	1.0
67	0x3f800000	1.0
68	0x3f800000	1.0
69	0x3f800000	1.0
70	0x3f800000	1.0
71	0x3f800000	1.0
72	0x3f800000	1.0
73	0x3f800000	1.0
74	0x3f800000	1.0
75	0x3f800000	1.0
76	0x3f800000	1.0
77	0x3f800000	1.0
78	0x3f800000	1.0
79	0x3f800000	1.0
80	0x3f800000	1.0
81	0x3f800000	1.0
82	0x3f800000	1.0
83	0x3f800000	1.0
84	0x3f800000	1.0
85	0x3f800000	1.0
86	0x3f800000	1.0
87	0x3f800000	1.0
88	0x3f800000	1.0
89	0x3f800000	1.0
90	0x3f800000	1.0
91	0x3f800000	1.0
92	0x3f800000	1.0
93	0x3f800000	1.0
94	0x3f800000	1.0
95	0x3f800000	1.0
96	0x3f800000	1.0
97	0x3f800000	1.0
98	0x3f800000	1.0
99	0x3f800000	1.0
100	0x3f800000	1.0
101	0x3f800000	1.0
102	0x3f800000	1.0
103	0x3f800000	1.0
104	0x3f800000	1.0
105	0x3f800000	1.0
106	0x3f800000	1.0
107	0x3f800000	1.0
108	0x3f800000	1.0
109	0x3f800000	1.0
110	0x3f800000	1.0
111	0x3f800000	1.0
112	0x3f800000	1.0
113	0x3f800000	1.0
114	0x3f800000	1.0
115	0x3f800000	1.0
116	0x3f800000	1.0
117	0x3f800000	1.0
118	0x3f800000	1.0
119	0x3f800000	1.0
120	0x3f800000	1.0
121	0x3f800000	1.0
122	0x3f800000	1.0
123	0x3f800000	1.0
124	0x3f800000	1.0
125	0x3f800000	1.0
126	0x3f800000	1.0
127	0x3f800000	1.0
128	0x3f800000	1.0
129	0x3f800000	1.0
130	0x3f800000	1.0
131	0x3f800000	1.0
132	0x3f800000	1.0
133	0x3f800000	1.0
134	0x3f800000	1.0
135	0x3f800000	1.0
136	0x3f800000	1.0
137	0x3f800000	1.0
138	0x3f800000	1.0
139	0x3f800000	1.0
140	0x3f800000	1.0
141	0x3f800000	1.0
142	0x3f800000	1.0
143	0x3f800000	1.0
144	0x3f800000	1.0
145	0x3f800000	1.0
146	0x3f800000	1.0
147	0x3f800000	1.0
148	0x3f800000	1.0
149	0x3f800000	1.0
150	0x3f800000	1.0
151	0x3f800000	1.0
152	0x3f800000	1.0
153	0x3f800000	1.0
154	0x3f800000	1.0
155	0x3f800000	1.0
156	0x3f800000	1.0
157	0x3f800000	1.0
158	0x3f800000	1.0
159	0x3f800000	1.0
160	0x3f800000	1.0
161	0x3f800000	1.0
162	0x3f800000	1.0
163	0x3f800000	1.0
164	0x3f800000	1.0
165	0x3f800000	1.0
166	0x3f800000	1.0
167	0x3f800000	1.0
168	0x3f800000	1.0
169	0x3f800000	1.0
170	0x3f800000	1.0
171	0x3f800000	1.0
172	0x3f800000	1.0
173	0x3f800000	1.0
174	0x3f800000	1.0
175	0x3f800000	1.0
176	0x3f800000	1.0
177	0x3f800000	1.0
178	0x3f800000	1.0
179	0x3f800000	1.0
180	0x3f800000	1.0
181	0x3f800000	1.0
182	0x3f800000	1.0
183	0x3f800000	1.0
184	0x3f800000	1.0
185	0x3f800000	1.0
186	0x3f800000	1.0
187	0x3f800000	1.0
188	0x3f800000	1.0
189	0x3f800000	1.0
190	0x3f800000	1.0
191	0x3f800000	1.0
192	0x3f800000	1.0
193	0x3f800000	1.0
194	0x3f800000	1.0
195	0x3f800000	1.0
196	0x3f800000	1.0
197	0x3f800000	1.0
198	0x3f800000	1.0
199	0x3f800000	1.0
200	0x3f800000	1.0
201	0x3f800000	1.0
202	0x3f800000	1.0
203	0x3f800000	1.0
204	0x3f800000	1.0
205	0x3f800000	1.0
206	0x3f800000	1.0
207	0x3f800000	1.0
208	0x3f800000	1.0
209	0x3f800000	1.0
210	0x3f800000	1.0
211	0x3f800000	1.0
212	0x3f800000	1.0
213	0x3f800000	1.0
214	0x3f800000	1.0
215	0x3f800000	1.0
216	0x3f800000	1.0
217	0x3f800000	1.0
218	0x3f800000	1.0
219	0x3f800000	1.0
220	0x3f800000	1.0
221	0x3f800000	1.0
222	0x3f800000	1.0
223	0x3f800000	1.0
224	0x3f800000	1.0
225	0x3f800000	1.0
226	0x3f800000	1.0
227	0x3f800000	1.0
228	0x3f800000	1.0
229	0x3f800000	1.0
230	0x3f800000	1.0
231	0x3f800000	1.0
232	0x3f800000	1.0
233	0x3f800000	1.0
234	0x3f800000	1.0
235	0x3f800000	1.0
236	0x3f800000	1.0
237	0x3f800000	1.0
238	0x3f800000	1.0
239	0x3f800000	1.0
240	0x3f800000	1.0
241	0x3f800000	1.0
242	0x3f800000	1.0
243	0x3f800000	1.0
244	0x3f800000	1.0
245	0x3f800000	1.0
246	0x3f800000	1.0
247	0x3f800000	1.0
248	0x3f800000	1.0
249	0x3f800000	1.0
250	0x3f800000	1.0
251	0x3f800000	1.0
252	0x3f800000	1.0
253	0x3f800000	1.0
254	0x3f800000	1.0
255	0x3f800000	1.0

fc2.weight f4 [300, 400]
0	0xbd6a7bd4	-0.057246998
1	0xbeb5840e	-0.35452312
2	0xbce2f1e5	-0.027703235
3	0xbd899251	-0.06717361
4	0x3c2658d0	0.0101530105
5	0x3d1f95b0	0.038961112
6	0xbcb3d416	-0.021951716
7	0x3e1e2edb	0.15447561
8	0xbe5c83fb	-0.21534722
9	0x3cc95c78	0.024580225
10	0xbc5a26a3	-0.013314876
11	0xbe1bcc31	-0.15214612
12	0xbe8dff3d	-0.27733794
13	0xbe195809	-0.14974989
14	0xbe95fea0	-0.29295826
15	0xbd95416f	-0.07287871
16	0x3e34dfa4	0.17663437
17	0x3deeeb36	0.11665957
18	0xbe708f1c	-0.23492092
19	0x3d72a747	0.05924156
20	0xbdbe1d03	-0.09282877
21	0xbd535440	-0.05159402
22	0x3e246db1	0.16057469
23	0xbe2d92f9	-0.16950597
24	0x3db75349	0.08951432
25	0x3deda632	0.11603965
26	0xbc83bf95	-0.016082564
27	0xbe10d8bd	-0.14145179
28	0xbeac29ee	-0.3362574
29	0xbe3137bd	-0.17306419
30	0x3e083c9c	0.1330437
31	0x3e3525da	0.1769022
32	0xbd16c455	-0.03680833
33	0xbb786b31	-0.0037905688
34	0x3c345001	0.011005403
35	0x3e573825	0.21017511
36	0x3d68f207	0.05687144
37	0xb9a19818	-0.00030821632
38	0x3e256fe8	0.1615597
39	0xbdd4f4ec	-0.10398278
40	0xbe8e06dc	-0.27739608
41	0xbd5e165b	-0.05422054
42	0x3b869950	0.0041076317
43	0x3dadbd7c	0.08483407
44	0x3e03f033	0.12884597
45	0xbea108e1	-0.31452087
46	0xbd82a781	-0.06379605
47	0x3d8a713e	0.067598805
48	0xbd5c2d4d	-0.05375414
49	0xbe06cc8b	-0.13163964
50	0xbf0099fb	-0.50234956
51	0x3c7b63a4	0.01534358
52	0xbd1ef293	-0.038805556
53	0xbe5bd669	-0.2146851
54	0x3d6012f8	0.05470559
55	0xbd98e2ed	-0.07465158
56	0xbdf824cf	-0.12116396
57	0xbd8b45a7	-0.068003945
58	0xbe2b4ded	-0.16728945
59	0xbdf4c676	-0.11951916
60	0xbe5fa511	-0.21840312
61	0xbd992ac1	-0.07478858
62	0x3d9f7ac1	0.07787085
63	0xbc99909e	-0.018745717
64	0xbbea516e	-0.0071508205
65	0xbe33a905	-0.17544945
66	0xbcb95ada	-0.02262633
67	0x3d1ebd57	0.038754787
68	0xbdc7d419	-0.09757251
69	0x3e4ae5e3	0.19814257
70	0x3c5580a6	0.01303116
71	0xbc892277	-0.016740067
72	0xbe5d0c34	-0.21586686
73	0xbe2b0318	-0.16700399
74	0x3e3d541a	0.18489113
75	0xbe5db9f2	-0.21652964
76	0xbdcb79fb	-0.09935375
77	0xbe5ca013	-0.21545438
78	0xbdb63366	-0.08896522
79	0xbe3213e1	-0.17390396
80	0x3df18dd7	0.11794632
81	0x3cbb36a2	0.0228532
82	0xbc4fa8f9	-0.012674564
83	0x3d0b1d0c	0.033963248
84	0x3d1d0fab	0.03834502
85	0xbd07344b	-0.033008855
86	0xbe15351e	-0.14571044
87	0xbe98c28d	-0.2983593
88	0xbdd0c1c1	-0.101932056
89	0xbdb2d7d7	-0.087325744
90	0xbdec4842	-0.115372196
91	0x3cdbbb32	0.02682266
92	0xbf4ac299	-0.7920318
93	0x3cf90851	0.030399473
94	0x3e49cade	0.19706294
95	0xbe4a547f	-0.19758795
96	0xbd3232f8	-0.04350564
97	0x3dbffea1	0.093747385
98	0xbe8e3d76	-0.27781266
99	0xbdad6fab	-0.084685646
100	0xbda6bc50	-0.081413865
101	0xbcc9b2c4	-0.024621375
102	0xbd1acba6	-0.03779187
103	0xbcb346a0	-0.021884263
104	0xbc2de52e	-0.010613723
105	0x3c4e281e	0.012582807
106	0x3dc8b8be	0.09800862
107	0x3e405801	0.18783571
108	0xbe8cae5a	-0.2747677
109	0xbdae7ad2	-0.0851952
110	0xbd80d116	-0.0628988
111	0xbde19770	-0.110152125
112	0x3d925ffe	0.07147215
113	0xbdd5c9d0	-0.10438883
114	0xbe5ee79d	-0.21768041
115	0xbed02bbf	-0.40658376
116	0x3de160d1	0.110047944
117	0xbc68233d	-0.014168558
118	0xbd32e02d	-0.043670822
119	0xbd54ef82	-0.051986225
120	0xbda679b0	-0.08128679
121	0x3de08135	0.10962144
122	0xbc1a82f9	-0.00943064
123	0xbe04f311	-0.12983347
124	0xbce49d3f	-0.027907012
125	0xbe86266d	-0.26201192
126	0xbe4f21ed	-0.20227785
127	0xbf0005f5	-0.5000909
128	0x3e04984b	0.1294872
129	0xbd28cc22	-0.0412103
130	0xbe2e3e1b	-0.17015879
131	0x3e044582	0.1291714
132	0xbe0bc460	-0.1364913
133	0xbe244de4	-0.16045338
134	0x3e018712	0.12649181
135	0xbe15dd11	-0.14635111
136	0xbd730c8c	-0.059338138
137	0xbea131e6	-0.31483382
138	0xbcb7ca12	-0.022435222
139	0xbe11924c	-0.14215964
140	0x3d6233cb	0.055225175
141	0xbd9ccd70	-0.076563716
142	0xbe276010	-0.16345239
143	0x3e101312	0.14069775
144	0xbde76925	-0.112993516
145	0xbe815352	-0.2525888
146	0xbd73bf8f	-0.059508856
147	0xbd6c3fac	-0.05767791
148	0xbbd8dbf6	-0.0066180183
149	0xbe5f3134	-0.21796113
150	0xbe5cc20a	-0.21558395
151	0x3e44193d	0.19150253
152	0xbed82d5b	-0.42222103
153	0xbe2a6f62	-0.16644052
154	0xbdc80694	-0.0976688
155	0xbdcc34c2	-0.09971
156	0x3da49055	0.08035342
157	0x3da886f2	0.08228864
158	0xbc9a8446	-0.018861901
159	0xbdbb60a2	-0.091492906
160	0x3e2b2ffc	0.16717523
161	0x3e4e6666	0.2015625
162	0xbba68e52	-0.005082884
163	0x3db02571	0.086008914
164	0xbd32ec69	-0.04368249
165	0x3d906472	0.070504084
166	0xbe9759d0	-0.2956071
167	0xbdcd4a4f	-0.10023939
168	0xbe31ded4	-0.17370158
169	0x3ca2c817	0.0198708
170	0x3df663ac	0.1203073
171	0xbd3ed135	-0.046586234
172	0xbe16e475	-0.14735587
173	0x3c6e5537	0.014546684
174	0xbe408e92	-0.18804386
175	0xbe36488f	-0.17801116
176	0xbde76cfd	-0.11300085
177	0xbe57673c	-0.21035475
178	0xbe049439	-0.12947167
179	0xbd37a97e	-0.044839375
180	0xbcd64037	-0.026153667
181	0x3c77e324	0.015129838
182	0x3e8088b7	0.25104305
183	0xbe01bb9d	-0.12669225
184	0x3d7222bc	0.059115157
185	0xbdc9e493	-0.0985805
186	0xbe06aeb6	-0.13152584
187	0xbe5594ee	-0.20857593
188	0x3d43c88b	0.047798675
189	0xbe6810d2	-0.22662666
190	0xbd81056a	-0.06299861
191	0xbdbab21e	-0.091160044
192	0x3dd4ee2f	0.103969924
193	0xbe0f5401	-0.13996889
194	0xbe87a838	-0.26495528
195	0xbef3e3fc	-0.47634876
196	0xbd37ea82	-0.04490138
197	0xbe18dd02	-0.14928058
198	0xbd83b4a0	-0.06430936
199	0xbe0e8593	-0.13918142
200	0x3cffe05b	0.03123491
201	0xbd646226	-0.055757664
202	0x3d8ce7e1	0.06880165
203	0x3da9cf28	0.08291465
204	0xbe06541a	-0.1311802
205	0x3dab5a9e	0.08366893
206	0xbd97c3d4	-0.07410398
207	0x3dd7bb68	0.10533792
208	0x3cedeb13	0.029042756
209	0x3daa0cce	0.083032236
210	0xbe096769	-0.13418354
211	0xbdf3406c	-0.11877522
212	0xbeaa5433	-0.33267364
213	0xbd5c671a	-0.053809263
214	0xbd9a28c6	-0.07527308
215	0x3c2ceba7	0.010554231
216	0x3ea9b68d	0.33147088
217	0xbde338f4	-0.11094847
218	0x3c658c4a	0.014010498
219	0xbd16458e	-0.036687426
220	0x3dcedf9a	0.10101242
221	0xbe8b2b11	-0.27181295
222	0xbe03a33d	-0.12855239
223	0xbdaee989	-0.08540637
224	0xbe39cbee	-0.18144199
225	0xbe161727	-0.1465727
226	0x3e1dbfbc	0.15405172
227	0xbe59ba3b	-0.21262448
228	0x3d0b5a02	0.034021385
229	0xbe8aca90	-0.27107668
230	0x3c832bb7	0.016012056
231	0x3cfc9de4	0.030837007
232	0x3e1841b7	0.14868818
233	0xbe6b2210	-0.22962213
234	0xbe75ebb1	-0.2401569
235	0xbca230e5	-0.019798705
236	0xbd5af5c8	-0.05345705
237	0x3e28cb75	0.16483863
238	0xbd1e7156	-0.038682304
239	0x3e19b535	0.15010531
240	0xbdac66a4	-0.08418015
241	0xbe876724	-0.26445878
242	0xbe1e93ab	-0.15486018
243	0xbd22fa65	-0.039789576
244	0xbe032482	-0.12806895
245	0x3d67ab92	0.056560107
246	0xbbb6c143	-0.005577238
247	0xbdd58bb0	-0.10427034
248	0xbd8846c3	-0.06654122
249	0x3e45e753	0.19326524
250	0xbe0f8548	-0.14015687
251	0x3d806fa5	0.062712945
252	0xbb18fa74	-0.002334264
253	0xbd9d3b88	-0.0767737
254	0x3d8d55c0	0.06901121
255	0x3d8d1bb5	0.0689005

fc2.bias f4 [300]
0	0x3d6252b3	0.05525465
1	0xbd36c128	-0.044617802
2	0xbe6c83fe	-0.23097226
3	0x3cbe315b	0.023216894
4	0x3e52fac9	0.2060348
5	0xbcc2d184	-0.023781545
6	0xbdb47b6f	-0.088126056
7	0xbe351dd8	-0.17687166
8	0x3dda3325	0.10654286
9	0xbd9d0fe9	-0.0766905
10	0xbdc04bbb	-0.093894444
11	0x3d8d4c85	0.068993606
12	0x3e33a097	0.17541729
13	0x3e78c3fa	0.24293509
14	0xbebccd50	-0.3687539
15	0xbdbd68da	-0.092485145
16	0xbd58bbc3	-0.05291344
17	0x3bdb1c20	0.0066867024
18	0xbe9b8f1d	-0.30382624
19	0x3ca95fcf	0.020675568
20	0xbe475c99	-0.19468917
21	0xbe39c040	-0.18139744
22	0xbe2227a2	-0.15835431
23	0xbd4ef071	-0.05052227
24	0x3ccdaba5	0.02510626
25	0xbd965971	-0.07341278
26	0xbe0e49d4	-0.1389535
27	0x3dc531f7	0.09628671
28	0xbd96b4da	-0.073587134
29	0xbcacd78a	-0.02109887
30	0x3e76b4bf	0.24092387
31	0xbe08c63c	-0.1335687
32	0x3d57f0df	0.052719947
33	0xbd068e33	-0.032850455
34	0x3e0a8646	0.13527784
35	0xbd832f8d	-0.06405554
36	0xbdd647d1	-0.10462917
37	0x3d5e80b7	0.05432197
38	0xbbb21aca	-0.0054353224
39	0xbcab0bc2	-0.02087963
40	0x3abf80e9	0.0014610562
41	0xbd2f0807	-0.042732265
42	0x3d0771b4	0.03306742
43	0xbc643b6b	-0.013930182
44	0x3d13ed38	0.0361149
45	0x3d8e72e3	0.06955507
46	0xbdb38c6e	-0.08767019
47	0xbe445de7	-0.19176446
48	0xbdba8711	-0.09107793
49	0xbe24d578	-0.16097057
50	0xbd05c1a8	-0.032655388
51	0xbe159302	-0.1460686
52	0xbd752a3c	-0.05985473
53	0xbdccec21	-0.100059755
54	0x3d2fca62	0.042917617
55	0xbccf0672	-0.025271628
56	0xbe0d64ce	-0.13807985
57	0xbd2c5196	-0.042069994
58	0xbd6f7f24	-0.05847086
59	0xbeab2300	-0.3342514
60	0xbbfd96b7	-0.007738914
61	0xbe5b96ad	-0.21444197
62	0xbcff44e3	-0.031160777
63	0x3d7ab260	0.061205268
64	0xbc388b10	-0.011263624
65	0xbe91e649	-0.28496006
66	0xbeb50eb6	-0.35362786
67	0x3cc707f7	0.02429579
68	0xbe1ff528	-0.15620863
69	0xbd2cccc2	-0.04218746
70	0xbd00c966	-0.03144207
71	0xbd936161	-0.07196308
72	0x3c8d2944	0.017231591
73	0xbeb9798d	-0.36225548
74	0xbda5f089	-0.08102519
75	0x3d4116b2	0.047140785
76	0x3cb0bc00	0.02157402
77	0xbb9ee404	-0.004848959
78	0x3d931676	0.071820185
79	0xbe7c4035	-0.24633868
80	0xbc7b12a3	-0.015324268
81	0xbd003ec3	-0.031309854
82	0xbb852466	-0.004063177
83	0xbd3613fc	-0.044452652
84	0xbeb815a0	-0.35954
85	0xbc83e0e8	-0.016098455
86	0x3e1e9c2c	0.15489262
87	0xbe1965c6	-0.1498023
88	0xbf0cd766	-0.5501617
89	0xbe744c00	-0.23857117
90	0xbd925830	-0.07145727
91	0x3d897294	0.06711307
92	0xbd84fd52	-0.064936295
93	0x3d19bca9	0.037533436
94	0xbd33cad3	-0.0438946
95	0x3d040621	0.032232407
96	0x3e1850bb	0.14874546
97	0xbd8cf21d	-0.06882117
98	0xbd36bd52	-0.044614144
99	0xbd89bb0b	-0.06725129
100	0x3d4084c3	0.04700161
101	0x3d2f8ff7	0.042861905
102	0xbb0c9a86	-0.0021454408
103	0xbe08d77d	-0.13363452
104	0xbcbe0e29	-0.023200111
105	0xbd817a2d	-0.06322131
106	0xbc365478	-0.011128537
107	0xbd43b429	-0.047779236
108	0xbc794c9a	-0.015216017
109	0xbd3170c5	-0.043320436
110	0x3ca01e56	0.019545715
111	0xbe074157	-0.13208519
112	0xbecada55	-0.396197
113	0xbbda2856	-0.0066576404
114	0x3cb266ae	0.021777477
115	0xbd7107bc	-0.058845267
116	0x3d36414e	0.044495873
117	0xbd2fa44b	-0.04288129
118	0xbe71c3cb	-0.23609845
119	0xbd9e273f	-0.07722329
120	0x3be5da2c	0.0070145335
121	0xbdbd9502	-0.092569366
122	0xbd8d43e9	-0.068977185
123	0xbda7f23a	-0.08200498
124	0xbddc8d58	-0.10769147
125	0xbc1c974f	-0.009557559
126	0x3c77e1fa	0.015129561
127	0xbe6f6688	-0.23378956
128	0x3c5cc73e	0.013475237
129	0xbe9548ab	-0.29157004
130	0xbd0344d0	-0.032048047
131	0x3db89943	0.09013607
132	0xbda811f3	-0.082065485
133	0x3c0cfec4	0.008605663
134	0xbe4c50ef	-0.19952749
135	0xbd7d47a9	-0.06183592
136	0xbdee67b1	-0.11640871
137	0x3e2bf4c3	0.16792588
138	0xbd784c85	-0.06061985
139	0xbd83bb0b	-0.0643216
140	0xbdd393c9	-0.10330922
141	0xbd16c71a	-0.03681097
142	0x3d9a174f	0.07523977
143	0xbd4efe55	-0.05053552
144	0x3cb3d480	0.021951914
145	0xbd2999c4	-0.041406408
146	0xbbcc4234	-0.006233478
147	0xbdcc269b	-0.09968301
148	0x3e32e120	0.17468691
149	0x3d491638	0.049093455
150	0xbd869936	-0.065721914
151	0xbb9e5088	-0.0048313774
152	0xbe85f8d6	-0.2616641
153	0xbdc8286c	-0.09773335
154	0xbd0868fe	-0.033303253
155	0xbd8236b8	-0.06358093
156	0x3c730d2f	0.014834686
157	0xbce071f3	-0.027398085
158	0xbdbe81e3	-0.09302118
159	0x3d2ac326	0.041690014
160	0xbd212f2b	-0.039351624
161	0x3cc1f63f	0.02367699
162	0xbe315a11	-0.17319514
163	0xbe58c181	-0.21167566
164	0xbde810ef	-0.11331355
165	0xbd19d956	-0.037560783
166	0xbeb2ee8f	-0.3494763
167	0xbe33fe83	-0.17577557
168	0xbde22b80	-0.11043453
169	0xbdd2c9db	-0.10292407
170	0xbd9538fc	-0.072862595
171	0xbe1d25c4	-0.15346438
172	0xbe61af72	-0.22039583
173	0xbea4f6d2	-0.3221956
174	0xbc7a527f	-0.015278458
175	0x3bf5604e	0.007488287
176	0xbe1cbc56	-0.1530622
177	0xbd181025	-0.03712477
178	0xbec24f4e	-0.3795113
179	0xbe232dfa	-0.15935507
180	0xbe862dfd	-0.2620696
181	0xbd033871	-0.03203625
182	0x3cea06b1	0.028567644
183	0x3ca907cc	0.0206336
184	0xbd06711a	-0.032822706
185	0xbd4e42f8	-0.050356835
186	0xbdb93e27	-0.09045058
187	0xbd79aab6	-0.06095382
188	0xbd09cb49	-0.033641133
189	0xbd84f1ce	-0.06491433
190	0xbe8cf871	-0.27533296
191	0xbe405bda	-0.18785039
192	0xbe26b1c9	-0.16278757
193	0xbe3df241	-0.18549444
194	0xbd5f5ca2	-0.0545317
195	0xbd6df6f1	-0.05809683
196	0xbcc736be	-0.024318095
197	0xbd7e1a97	-0.062037077
198	0xbe83e7e7	-0.25762865
199	0x3d231f04	0.0398245
200	0xbd3ec170	-0.046571195
201	0xbd1f729b	-0.038927656
202	0xbda29241	-0.07938052
203	0xbe3145ca	-0.17311779
204	0x3d6f892c	0.058480427
205	0xbdce193f	-0.10063409
206	0xbd9a2612	-0.075267926
207	0xbdb53a8e	-0.08849059
208	0xbd795d58	-0.060880035
209	0x3d9d7a74	0.07689372
210	0xbdccf252	-0.100071564
211	0xbe9317a8	-0.28728986
212	0xbd82278e	-0.06355201
213	0x3e3999ef	0.18125127
214	0xbdfc9b90	-0.12334359
215	0x3e155114	0.1458171
216	0xbdd97c13	-0.106193684
217	0x3b71a25a	0.003687045
218	0x3e8ae17a	0.2712515
219	0xbc7d3211	-0.015453831
220	0xbdfb9547	-0.12284332
221	0xbcdcdf28	-0.026961878
222	0xbe15e05b	-0.14636366
223	0x3d41d32c	0.04732053
224	0x3e4d209f	0.20031975
225	0xbe1772b7	-0.14789854
226	0xbce9eb65	-0.028554628
227	0xbc33c8ad	-0.010973138
228	0xbe197ec2	-0.1498976
229	0xbd9f95e4	-0.07792261
230	0xbe978e9d	-0.29600993
231	0xbe5bec3c	-0.21476835
232	0xbdbd988e	-0.09257613
233	0xbe0b653d	-0.13612838
234	0xbcf96833	-0.030445194
235	0xbcb398d8	-0.021923468
236	0x3d885603	0.066570304
237	0xbe3e4c9b	-0.1858391
238	0xbdd85234	-0.10562554
239	0xbe8acd22	-0.2710963
240	0x3c4f5dbe	0.012656627
241	0x3c5b2c4a	0.013377259
242	0xbcfe8d99	-0.031073378
243	0xbe247f2f	-0.16064142
244	0xbc7e8336	-0.015534213
245	0xbda11945	-0.07866148
246	0x3cf991a3	0.030464953
247	0x3d6bfd76	0.057614766
248	0x3debd696	0.115155384
249	0xbd13c872	-0.03607983
250	0xbe4eeba2	-0.20207074
251	0xbd14da5a	-0.03634105
252	0xbe2769e6	-0.16348991
253	0xbd4a6d6a	-0.04942075
254	0xbdca7f04	-0.098875076
255	0xbd9518f1	-0.07280148
