checkpoint_actor_local_1.pth (torch_old, 531488 bytes, 10 tensors)

fc1.weight f4 [400, 24]
0	0x3c54efa5	0.012996589
1	0x3ec295b8	0.3800485
2	0xbca59094	-0.020210542
3	0xbc526d15	-0.01284339
4	0xbdca3a61	-0.09874416
5	0x3c8d9d84	0.017287023
6	0xbc0a0d05	-0.008425956
7	0xbc69cd24	-0.014270101
8	0x3c677790	0.014127627
9	0x3eb8783a	0.36029226
10	0x3cb07b35	0.021543125
11	0xbcc685f6	-0.0242338
12	0x3e3158ba	0.17319003
13	0x3e94db19	0.29073408
14	0x3cddaee1	0.027060928
15	0xbdaa0754	-0.08302179
16	0x3d7ec6f7	0.062201466
17	0x3e9847c6	0.2974226
18	0xbccce86f	-0.025013177
19	0x3ea89564	0.32926476
20	0x3eb61a12	0.35566765
21	0x3f082e55	0.531957
22	0xbc1e7a5f	-0.00967273
23	0x3e94ba54	0.29048407
24	0x3e39e3a3	0.18153243
25	0xbdf2108a	-0.11819561
26	0xbcdd6cc2	-0.027029399
27	0xbcc13035	-0.023582557
28	0xbdb2dbae	-0.08733307
29	0xbacd401b	-0.0015659364
30	0xbd09e2c3	-0.033663522
31	0xbd1f0495	-0.03882273
32	0x3e06f348	0.13178742
33	0xbe8a8e64	-0.2706176
34	0x3dcbefd2	0.099578515
35	0x3e3895b9	0.18025865
36	0x3e0b202b	0.1358649
37	0x3ed53e87	0.41649267
38	0x3d94b8d6	0.07261817
39	0x3ddeb85e	0.10875009
40	0x3e6b14e4	0.22957188
41	0xbe653292	-0.22382572
42	0x3c127874	0.008939851
43	0x3d020b3f	0.031749006
44	0x3ea4d1b5	0.32191244
45	0x3f04306d	0.5163639
46	0x3c139db4	0.009009767
47	0xbd0695fd	-0.032857884
48	0x3ede9474	0.43472636
49	0x3e988b2d	0.29793683
50	0xbd1de610	-0.038549483
51	0xbe75e654	-0.24013644
52	0xbe982f15	-0.2972342
53	0x3d26c708	0.040717155
54	0xbd9476d9	-0.07249231
55	0xbe5c2972	-0.21500185
56	0x3e5a0c5b	0.21293776
57	0x3d5257c5	0.051353235
58	0x3d81856d	0.06324277
59	0xbe81f1e6	-0.25379866
60	0x3d053a3b	0.032526236
61	0x3ec08f67	0.37609407
62	0xbbff2186	-0.0077859787
63	0xbe57be0e	-0.21068594
64	0x3e1b5da8	0.15172446
65	0x3cacd16f	0.02109596
66	0xbda95680	-0.08268452
67	0xbe1f2fe2	-0.1554561
68	0x3e3c3bc3	0.18382172
69	0x3ea5c9c9	0.32380512
70	0x3c2d78d4	0.01058789
71	0xbe42c5c4	-0.19020754
72	0xbde16f46	-0.11007552
73	0xbe76ebf1	-0.24113442
74	0xbd78df71	-0.060759965
75	0xbe1a450b	-0.150654
76	0xbe4a1b30	-0.19736934
77	0xbb6ee071	-0.0036449695
78	0xbdd25381	-0.10269833
79	0xbdb07920	-0.08616853
80	0xbe11d078	-0.14239681
81	0xbe5d991b	-0.21640436
82	0xbdf2e831	-0.11860693
83	0x3df8df84	0.12152007
84	0xbe070212	-0.13184384
85	0xbea67fe9	-0.32519463
86	0xbd882a0d	-0.066486456
87	0x3ddbb176	0.10727207
88	0xbdd70f73	-0.105009936
89	0xbe2280b0	-0.15869403
90	0xbd91268c	-0.0708743
91	0x3e748132	0.23877409
92	0xbbe5c7fe	-0.0070123663
93	0xbf358e7a	-0.70920527
94	0xbd20a2f4	-0.039217904
95	0x3e603aa2	0.21897367
96	0x3e6511ce	0.22370073
97	0x3ea9afe5	0.3314201
98	0xbbf6360a	-0.007513766
99	0xbe29f18d	-0.1659605
100	0x3d8d0565	0.068857946
101	0xbf8435e9	-1.0328952
102	0x3c0b0602	0.008485319
103	0xbe0f1163	-0.13971476
104	0x3df8e5fe	0.121532425
105	0x3e20c2bd	0.15699287
106	0x3ce7a3d6	0.028276365
107	0x3e21eead	0.15813704
108	0x3e4e86c7	0.20168601
109	0xbeb2455d	-0.34818545
110	0x3a95ff41	0.001144387
111	0x3daaafd4	0.08334318
112	0xbd7aab8c	-0.061198756
113	0x3e277c10	0.1635592
114	0x3cb6dd3d	0.022322292
115	0x3ed0b679	0.40764216
116	0x3dc03366	0.093848035
117	0x3f04c15a	0.5185753
118	0x3cec179d	0.028819853
119	0x3ec604d3	0.38675556
120	0x3e0a229a	0.13489762
121	0xbd41a5b8	-0.047277182
122	0xbd85a6d9	-0.06525964
123	0x3ea3df7d	0.32006446
124	0xbe1414b6	-0.14461026
125	0xbf11c307	-0.56938213
126	0xbdf38167	-0.11889916
127	0x3eaac48f	0.33353087
128	0x3e9fac04	0.31185925
129	0xbd8302d1	-0.063970216
130	0x3dfc4ecc	0.12319717
131	0xbdd48a85	-0.10377983
132	0xbe56cd8d	-0.20976849
133	0xbf38a7a8	-0.72130823
134	0x3dc066ec	0.09394631
135	0xbdd78bd1	-0.10524715
136	0x3eb809df	0.3594503
137	0xbcf1d827	-0.029522015
138	0x3de0588d	0.1095439
139	0x3c7f7979	0.015592926
140	0xbe3f36c3	-0.18673234
141	0xbf38186b	-0.7191226
142	0x3d241f11	0.04006869
143	0x3d901fd1	0.070373185
144	0xbc522459	-0.012826049
145	0x3f90aef4	1.1303391
146	0x3d19c056	0.03753694
147	0x3e600854	0.21878177
148	0x3eacad09	0.33725765
149	0x3deb00c4	0.114747554
150	0x3d3e8b47	0.046519544
151	0x3e8cbc07	0.27487203
152	0xbe341139	-0.17584695
153	0x3fa9ab35	1.3255373
154	0x3cf47ba3	0.02984411
155	0x3dfe8d4e	0.124292955
156	0x3e7ed3a6	0.24885425
157	0xbe3de382	-0.18543819
158	0xbc788518	-0.015168451
159	0x3dd4397e	0.10362528
160	0xbe1cf197	-0.15326534
161	0x3f8c2125	1.0947615
162	0x3d01e3e2	0.031711467
163	0xbd3bb424	-0.045826092
164	0x3e7dbc4e	0.24778864
165	0xbee4e53c	-0.44706142
166	0x3d69795d	0.057000507
167	0xbd4e6748	-0.050391465
168	0x3e619805	0.22030647
169	0xbe4b13e4	-0.19831806
170	0xbd33a7e7	-0.043861296
171	0x3ec4797f	0.38373944
172	0xbe7524a6	-0.23939762
173	0xbf9a3dfb	-1.2050165
174	0x3c1acd22	0.009448322
175	0x3eba995b	0.36445126
176	0x3e205a28	0.15659392
177	0xbe5a25f1	-0.21303536
178	0x3b7f51e3	0.003895872
179	0x3d81484a	0.06312616
180	0xbe70f91c	-0.23532528
181	0xbea0d39e	-0.3141145
182	0xbcce1233	-0.025155162
183	0x3dee0064	0.11621168
184	0x3e1149eb	0.14188354
185	0xbe4c0c27	-0.19926511
186	0xbd78864c	-0.06067495
187	0xbf0475d9	-0.5174232
188	0xbdd448d3	-0.103654526
189	0x3f2ea813	0.6822521
190	0xbd5ecd87	-0.054395225
191	0xbf05eb84	-0.52312493
192	0xbd9c3889	-0.07627971
193	0x3e3f7467	0.18696748
194	0xbb357e75	-0.0027693782
195	0xbe00c173	-0.12573795
196	0x3dbbcf8c	0.09170446
197	0xbd86603b	-0.06561323
198	0xbc7a095f	-0.015261023
199	0xbe13f670	-0.14449477
200	0x3c71df19	0.014762663
201	0x3e7591fe	0.23981473
202	0xbd74ceb1	-0.05976743
203	0x3d936fad	0.07199035
204	0x3dd5dd0a	0.104425505
205	0x3ed06af1	0.4070659
206	0x3cb594aa	0.022165615
207	0x3de81484	0.11332038
208	0x3d0f13f3	0.034931134
209	0x3e9cb48a	0.3060649
210	0x3ba74d65	0.0051056617
211	0x3e81bd7d	0.2533988
212	0xbb59e21f	-0.003324635
213	0x3f4c2b58	0.7975364
214	0xbd8560c9	-0.06512601
215	0x3e62d16c	0.221502
216	0xbcad1c92	-0.021131787
217	0x3e7548bb	0.23953526
218	0x3c8bb076	0.017051917
219	0x3e75f331	0.24018551
220	0x3e58e08c	0.21179408
221	0xbe497a54	-0.1967557
222	0x3d5130da	0.05107198
223	0x3e4b4669	0.19851078
224	0x3e983de8	0.2973473
225	0x3e8e30f7	0.27771732
226	0x3d5c50f9	0.05378816
227	0x3e536349	0.20643343
228	0x3e2cec01	0.16886903
229	0xbeee3817	-0.46527168
230	0x3c92eea3	0.017936056
231	0x3e93ef8d	0.288937
232	0x3ee49123	0.4464198
233	0x3ec25ac4	0.37959874
234	0x3dbed15b	0.09317275
235	0x3e508788	0.20364201
236	0x3e10dff9	0.14147939
237	0xbf4a6eaf	-0.7907514
238	0x3e0cbe66	0.13744506
239	0x3e37a658	0.17934549
240	0x3eb5c997	0.35505363
241	0xbeecdf59	-0.4626415
242	0x3bd5e03c	0.006526975
243	0x3d8a7d25	0.06762151
244	0xbe064d69	-0.13115467
245	0xbe94bb27	-0.29049036
246	0x3d19510f	0.03743082
247	0x3d8b8649	0.06812722
248	0x3e9d6245	0.30739036
249	0xbeb60939	-0.3555391
250	0x3b9a096b	0.0047008297
251	0xbe25e491	-0.16200472
252	0xbea40d7d	-0.3204154
253	0xbeada25a	-0.33912927
254	0x3d2d9da4	0.042386666
255	0xbe4600cf	-0.19336246

fc1.bias f4 [400]
0	0xbf040a4b	-0.51578206
1	0xbf0eb985	-0.5575183
2	0xbe79cfab	-0.24395625
3	0x3e30770a	0.1723291
4	0xbe96811b	-0.29395375
5	0x3e69f502	0.2284737
6	0x3eba79c4	0.36421025
7	0x3eb5a5dc	0.35478103
8	0xbf813e04	-1.0097051
9	0x3e858762	0.2607985
10	0xbcf99079	-0.030464398
11	0x3e5440d8	0.20727861
12	0xbd874ac7	-0.066060595
13	0xbf43dae6	-0.7650589
14	0xbf47ff32	-0.7812377
15	0x3d907211	0.070530064
16	0x3e4e6c03	0.2015839
17	0xbe9bbd59	-0.30417898
18	0x3e5f3220	0.21796465
19	0xbd90f598	-0.07078093
20	0x3e883e6d	0.26610127
21	0x3d271fbb	0.040801745
22	0x3e6780f4	0.22607785
23	0xbf050697	-0.5196318
24	0x3d2babb3	0.041911792
25	0xbe0bdd2b	-0.13658588
26	0x3ea1b8a8	0.31586194
27	0xbe8aef3a	-0.2713564
28	0xbefa9281	-0.489399
29	0x3e329ab9	0.17441835
30	0xbe325fcf	-0.1741936
31	0xbe95d19b	-0.2926148
32	0x3b30ae21	0.0026959258
33	0xbe59f005	-0.21282966
34	0x3e8d6755	0.276179
35	0xbdbc21bf	-0.09186124
36	0x3e3c3d8f	0.18382858
37	0xbe32f43e	-0.17475984
38	0xbed63753	-0.41839084
39	0xbef6d6ef	-0.48210856
40	0x3e56f7ad	0.20992918
41	0xbe8a29c3	-0.26984987
42	0xbf2c5dce	-0.67330635
43	0xbe9cf016	-0.3065192
44	0xbd8de33b	-0.069281064
45	0x3e2468af	0.16055559
46	0xbe53d29f	-0.20685814
47	0xbef62dde	-0.4808187
48	0xbf221945	-0.6331981
49	0x3d7d92b4	0.061907485
50	0xbba5d872	-0.0050612027
51	0xbd6d2a44	-0.057901636
52	0xbec6eca7	-0.38852426
53	0x3e185df3	0.14879589
54	0x3e0647ed	0.13113375
55	0x3b98bbb3	0.0046610474
56	0x3e59869e	0.21242759
57	0xbf071492	-0.5276576
58	0x3f198250	0.59964466
59	0x3ec5dbd1	0.3864427
60	0xbd8b2e34	-0.06795922
61	0x3effef3c	0.4998721
62	0xbf6f3ea1	-0.9345494
63	0xbf6a5a30	-0.91543865
64	0xbf17ed11	-0.5934611
65	0xbc0bff0f	-0.008544697
66	0x3e7992bc	0.24372381
67	0x3d71e0ec	0.059052393
68	0xbf15bb47	-0.5848889
69	0x3e2a8a2c	0.16654271
70	0x3c886df1	0.016653987
71	0x3d08f8e0	0.03344047
72	0x3de71ac1	0.112844
73	0x3eb3b52d	0.35099164
74	0xbe153d44	-0.14574152
75	0x3d2498c7	0.040184762
76	0xbe331462	-0.17488244
77	0xbebea041	-0.3723164
78	0xbe8e627b	-0.2780951
79	0xbf086e0b	-0.5329291
80	0xbf302f5a	-0.6882225
81	0x3f17a029	0.5922876
82	0xbefaf078	-0.49011588
83	0x3e93c6c3	0.2886258
84	0x3f24423e	0.6416358
85	0xbf05deb3	-0.5229294
86	0x3c8462d4	0.016160406
87	0xbf0260d1	-0.5092898
88	0xbf00dd93	-0.50338095
89	0xbe04fd69	-0.12987293
90	0x3e1904fa	0.14943305
91	0xbedebb07	-0.43502066
92	0xbe8a5f00	-0.27025604
93	0xbde8afdb	-0.11361667
94	0xbd91fdfe	-0.07128523
95	0x3ccb6edd	0.024833137
96	0xbd5520f8	-0.052033395
97	0xbe87c75a	-0.2651928
98	0xbea67820	-0.32513523
99	0xbec6c175	-0.3881947
100	0xbee47136	-0.44617623
101	0xbde79b5f	-0.113089316
102	0x3d375654	0.044760063
103	0xbea842cd	-0.32863465
104	0xbe2dd184	-0.16974455
105	0x3ebefd58	0.3730266
106	0xbd973755	-0.073836006
107	0xbe33933b	-0.17536633
108	0xbe26b081	-0.16278268
109	0x3eac9f68	0.33715367
110	0x3b0a52ef	0.0021106561
111	0xbf230b58	-0.63689184
112	0x3d837d9a	0.06420441
113	0xbf188d88	-0.5959096
114	0xbeb931de	-0.36170858
115	0x3dd1b18a	0.10238941
116	0x3e6153af	0.22004579
117	0xbdf75e46	-0.12078528
118	0xbe615834	-0.22006303
119	0xbea7993d	-0.327341
120	0xbeb224f4	-0.34793818
121	0xbe197355	-0.14985402
122	0xbe20cb62	-0.15702584
123	0xbd0ea77b	-0.03482769
124	0x3dafac8b	0.08577832
125	0x3df503bd	0.11963604
126	0x3daf6447	0.08564048
127	0x3e92b2cb	0.28652033
128	0xbee6057e	-0.44926065
129	0x3d3c0281	0.045900825
130	0x3f32c9f6	0.6983942
131	0x3e10beff	0.14135359
132	0xbda58649	-0.080822535
133	0xbf2a4648	-0.6651349
134	0xbeb2f8b7	-0.3495538
135	0x3b68ad80	0.0035503805
136	0xbdd394f1	-0.10331143
137	0xbe8bb097	-0.27283165
138	0xbac3ecc7	-0.0014947884
139	0x3e9f2c00	0.31088257
140	0x3ed33445	0.41250816
141	0xbe00845a	-0.12550488
142	0xbd78a817	-0.060707178
143	0xbdcaa9dd	-0.0989568
144	0x3e2a0641	0.16603948
145	0x3d2cd610	0.042196333
146	0xbed47368	-0.41494298
147	0xbeb96a85	-0.3621408
148	0xbda0b9da	-0.07847948
149	0xbe40abb1	-0.18815495
150	0x3e666d1c	0.2250256
151	0xbdf66add	-0.12032101
152	0xbeb0113b	-0.34388146
153	0xbe7225c5	-0.2364722
154	0x3e59c5a0	0.21266794
155	0xbedf4d98	-0.43613887
156	0x3c4a27b4	0.0123385675
157	0xbe9ab490	-0.30215883
158	0x3e2c6cd5	0.16838391
159	0xbe0c6fd9	-0.13714541
160	0xbf3281fe	-0.697296
161	0x3ec51b7d	0.38497534
162	0x3e397973	0.18112735
163	0xbd8cfeef	-0.06884562
164	0xbcdb5baa	-0.026777107
165	0x3dfd6af7	0.123739175
166	0xbe355bef	-0.17710851
167	0xbadb9001	-0.001675129
168	0x3e72f849	0.23727526
169	0x3eb2f339	0.3495119
170	0x3eeb287e	0.4592933
171	0xbee85f30	-0.45385122
172	0xbecd25c5	-0.40067878
173	0xbf303ae7	-0.6883988
174	0x3e8c4def	0.2740321
175	0x3e96222e	0.29322952
176	0xbeed5447	-0.4635336
177	0xbef962c3	-0.48708162
178	0x3ec2c2dd	0.38039294
179	0xbed83b75	-0.42232862
180	0xbe9f0a74	-0.31062663
181	0x3e434a41	0.19071294
182	0xbe0d4fcb	-0.1379997
183	0x3d0e06a9	0.03467432
184	0x3d5cd88f	0.053917464
185	0x3ec4437c	0.38332736
186	0xbeb0d859	-0.3454006
187	0xbf0c4c68	-0.54804087
188	0xbed293c7	-0.4112837
189	0x3da98e27	0.082790665
190	0xbe7bf407	-0.24604808
191	0x3ece6028	0.40307736
192	0x3cc55712	0.02408937
193	0xbe1c91d6	-0.15290007
194	0xbe2c4ed5	-0.16826947
195	0xbf11563a	-0.56772196
196	0xbef71d60	-0.482646
197	0xbdb851d2	-0.08999981
198	0xbdce094b	-0.10060366
199	0xbd509b03	-0.05092908
200	0xbeebed8f	-0.4607968
201	0xbf222257	-0.6333365
202	0x3cff2561	0.031145753
203	0xbe1bb07c	-0.15204042
204	0xbb4621ca	-0.0030232542
205	0xbe189302	-0.14899829
206	0xbec605f4	-0.38676417
207	0x3ddc5594	0.1075851
208	0xbe090b7a	-0.13383284
209	0xbe22b3d3	-0.1588891
210	0xbedb38e7	-0.4281685
211	0x3edfe84c	0.43731916
212	0xbf324b60	-0.69646263
213	0xbed764bf	-0.4206905
214	0x3e47818c	0.19483012
215	0xbef192c4	-0.47182286
216	0x3c1cf985	0.0095809745
217	0x3e991f16	0.2990653
218	0x3e8daae6	0.27669448
219	0xbf15ab75	-0.5846475
220	0x3e8497da	0.25897104
221	0xbe86f0c6	-0.2635557
222	0xbd951c1a	-0.072807506
223	0xbef618db	-0.48065838
224	0xbda8c39a	-0.08240433
225	0xbeb71c70	-0.35763884
226	0x3c1cc083	0.009567383
227	0xbd985994	-0.07438961
228	0xbdc74ff7	-0.09732049
229	0xbeb37cff	-0.35056302
230	0x3ed61a8e	0.41817135
231	0x3e5aaebe	0.21355721
232	0xbdae5ddd	-0.08513997
233	0x3ef20672	0.47270542
234	0xbf2497d2	-0.6429416
235	0xbeefc3c5	-0.46829048
236	0xbf228096	-0.63477457
237	0xbc0fe598	-0.008782767
238	0x3e77ed0d	0.24211521
239	0xbeef6e73	-0.46763954
240	0xbf336f60	-0.7009182
241	0x3d8bc25d	0.06824181
242	0xbf280818	-0.6563735
243	0x3da8c88d	0.08241377
244	0xbdf11e09	-0.11773307
245	0xbe870da7	-0.26377603
246	0xbf1b3c87	-0.6063923
247	0x3dead56a	0.11466487
248	0xbe0333e2	-0.1281276
249	0xbd584f27	-0.05280986
250	0xbee15c14	-0.44015563
251	0x3e8f6bde	0.28011984
252	0x3e2e364a	0.17012897
253	0x3e0f1e95	0.1397651
254	0x3d8f0a61	0.069844015
255	0xbe9ba355	-0.3039805

bn1.weight f4 [400]
0	0x3f37ea36	0.7184175
1	0x3f0a986e	0.5413884
2	0x3f192d7f	0.59835047
3	0x3e976910	0.29572344
4	0x3d85e9c0	0.06538725
5	0x3f538b54	0.8263447
6	0x3f1e3532	0.6179992
7	0x3c300180	0.010742545
8	0x3e109838	0.14120567
9	0x3e65ec60	0.22453451
10	0x3cdbea60	0.026845157
11	0x3e6814d8	0.22664201
12	0x3eb9972a	0.36248142
13	0x3c47dac0	0.01219815
14	0x3e8a0e44	0.2696401
15	0x3f00b1ab	0.502711
16	0x3f7bd5c6	0.9837307
17	0x3f1d474c	0.61436915
18	0x3f50d9f6	0.8158258
19	0x3f28b79e	0.6590518
20	0x3e083864	0.13302761
21	0x3ea59db0	0.3234687
22	0x3db946d0	0.090467095
23	0x3f15256c	0.58260226
24	0x3f042f1d	0.5163439
25	0x3ee61bce	0.44943088
26	0x3f5942c0	0.8486748
27	0x3f249142	0.64284146
28	0x3e336988	0.17520726
29	0x3e017270	0.1264131
30	0x3e85cfd2	0.26135117
31	0x3e044290	0.12916017
32	0x3f119ba0	0.5687809
33	0x3e9d7ad4	0.30757773
34	0x3f448952	0.76772034
35	0x3f0ceb1d	0.55046254
36	0x3da65cb8	0.081231534
37	0x3f3e7d05	0.74409515
38	0x3f5c9450	0.86163807
39	0x3dab0208	0.08349997
40	0x3f68e4f9	0.90974385
41	0x3f09a68c	0.53769755
42	0x3f421f9a	0.7582947
43	0x3f788f94	0.9709408
44	0x3f728dc3	0.9474756
45	0x3e0bf960	0.13669348
46	0x3e8c0d46	0.27353877
47	0x3f64c620	0.89364815
48	0x3f2e3444	0.680485
49	0x3f05c5f1	0.5225516
50	0x3f234eb0	0.6379194
51	0x3f00577e	0.501335
52	0x3f6cca2d	0.92495996
53	0x3f07b75b	0.53014153
54	0x3dada190	0.08478081
55	0x3a27ac00	0.00063961744
56	0x3ea651b2	0.32484204
57	0x3f0708b7	0.5274767
58	0x3f53ab64	0.82683396
59	0x3f1bb437	0.6082186
60	0x3dd3fb18	0.10350627
61	0x3f28a62a	0.65878546
62	0x3f6ed581	0.9329453
63	0x3f5184d9	0.81843334
64	0x3f0f0abe	0.55875766
65	0x3ceb83c0	0.028749347
66	0x3eca75e0	0.39543056
67	0x3e99129e	0.29897016
68	0x3f6791c0	0.9045677
69	0x3f5486fb	0.83018464
70	0x3eb56994	0.35432112
71	0x3d19f2c0	0.03758502
72	0x3ea7ced4	0.32774985
73	0x3f54dfd2	0.8315402
74	0x3dcb82b0	0.09937036
75	0x3e7a7d74	0.24461919
76	0x3f542ded	0.8288258
77	0x3e4131a8	0.18866599
78	0x3daaac40	0.08333635
79	0x3cf48820	0.029850066
80	0x3f22a901	0.6353913
81	0x3f724027	0.9462914
82	0x3f7b3205	0.981232
83	0x3dfd4fd8	0.123687446
84	0x3ea3ea94	0.32014906
85	0x3eb2c8b0	0.34918737
86	0x3f0abf09	0.54197747
87	0x3eaae3a2	0.33376795
88	0x3e0f04c0	0.13966656
89	0x3effb086	0.49939364
90	0x3c80ee40	0.015738606
91	0x3f74f6ca	0.9568907
92	0x3f3ed1a7	0.74538654
93	0x3e2772fc	0.16352457
94	0x3e0e65a4	0.1390596
95	0x3f1c75e1	0.6111737
96	0x3ea6b3dc	0.32559097
97	0x3a65ac00	0.0008761287
98	0x3f5b7999	0.8573242
99	0x3ee5283a	0.44757253
100	0x3ed7c63a	0.42143422
101	0x3f4bdc77	0.7963328
102	0x3e340230	0.1757896
103	0x3d72e4c0	0.059300184
104	0x3e62d02c	0.22149724
105	0x3d4ac4c0	0.04950404
106	0x3e1093f4	0.1411894
107	0x3f71f07c	0.94507575
108	0x3f64ae31	0.89328295
109	0x3f73143b	0.94952744
110	0x3f716273	0.94290847
111	0x3d9d9a48	0.076954424
112	0x3e02adf4	0.1276167
113	0x3f2e5c0b	0.68109196
114	0x3e8716d2	0.26384598
115	0x3de94bf8	0.11391443
116	0x3f2b259f	0.6685428
117	0x3e9724de	0.29520315
118	0x3f7365a8	0.9507699
119	0x3e305c48	0.17222703
120	0x3f2ccf49	0.6750379
121	0x3f591874	0.8480294
122	0x3f758c51	0.9591723
123	0x3e9ef4d2	0.31046158
124	0x3f01b160	0.5066128
125	0x3cad67e0	0.021167696
126	0x3e9253b6	0.2857949
127	0x3e8e6a66	0.2781555
128	0x3d737e60	0.059446692
129	0x3f56bf89	0.8388601
130	0x3ebf64dc	0.37381637
131	0x3ef5b432	0.4798904
132	0x3cbb49a0	0.022862256
133	0x3f6c4d44	0.923054
134	0x3e1306f4	0.14358121
135	0x3f06ebbf	0.5270347
136	0x3f750163	0.9570524
137	0x3e2d77f0	0.16940284
138	0x3da35f18	0.07977122
139	0x3edef5c2	0.43546873
140	0x3eafbfe2	0.34326082
141	0x3e5c0038	0.21484458
142	0x3f665ecb	0.8998839
143	0x3ee078fc	0.43842304
144	0x3f52c4db	0.8233163
145	0x3f3ca283	0.73685473
146	0x3f7ffad9	0.9999214
147	0x3eb2b288	0.34901834
148	0x3efbcd76	0.49180192
149	0x3f1e0a5d	0.61734563
150	0x3f60c6c7	0.8780331
151	0x3f5202d0	0.8203554
152	0x3cee01a0	0.02905351
153	0x3eaac76e	0.33355278
154	0x3b1af800	0.0023646355
155	0x3e8130a4	0.25232422
156	0x3f367c0a	0.7128302
157	0x3e2ece6c	0.17070931
158	0x3f56aae9	0.8385454
159	0x3f18efe0	0.5974102
160	0x3d9e4e18	0.07729739
161	0x3f40c4f7	0.75300545
162	0x3f389318	0.7209945
163	0x3c32e380	0.010918498
164	0x3f546543	0.82967013
165	0x3f676fd4	0.9040501
166	0x3f41040c	0.753968
167	0x3f2e9eef	0.68211263
168	0x3f1d5e14	0.61471677
169	0x3f513f3c	0.81737113
170	0x3f74d231	0.95633227
171	0x3f33cffd	0.7023924
172	0x3dbeb3b0	0.093116164
173	0x3f397df8	0.7245784
174	0x3f412a0a	0.7545477
175	0x3f712478	0.9419627
176	0x3ea3befc	0.31981647
177	0x3f31e6cb	0.6949279
178	0x3e2d64fc	0.16933054
179	0x3e5ca434	0.21547014
180	0x3e758348	0.23975861
181	0x3f446c6d	0.76727945
182	0x3ef764cc	0.4831909
183	0x3d2f3100	0.04277134
184	0x3c723c00	0.014784813
185	0x3f33b104	0.7019198
186	0x3f5f6980	0.87270355
187	0x3f3cd9aa	0.7376963
188	0x3f4acdb4	0.7922013
189	0x3ef0308c	0.46912038
190	0x3f292b62	0.6608182
191	0x3f7006bd	0.9376028
192	0x3f3822ba	0.7192799
193	0x3ed0e4a6	0.40799445
194	0x3f4d2fb5	0.8015092
195	0x3e810154	0.25196326
196	0x3eae4b0c	0.3404163
197	0x3f46cbe5	0.7765487
198	0x3f61eb64	0.882498
199	0x3e399b28	0.18125594
200	0x3f078d88	0.52950335
201	0x3f31c6f5	0.6944421
202	0x3f71e930	0.9449644
203	0x3e3c6fac	0.18401974
204	0x3e84d1a4	0.25941193
205	0x3e001c9c	0.12510914
206	0x3ea8e636	0.32988137
207	0x3f2de73e	0.6793097
208	0x3f398cb3	0.72480315
209	0x3f4735ef	0.7781667
210	0x3f5b3acb	0.85636586
211	0x3f54c6e9	0.8311601
212	0x3f1ff27c	0.62479377
213	0x3f15839c	0.58403945
214	0x3f596e01	0.8493348
215	0x3ea8d952	0.32978302
216	0x3eeb0eba	0.45909673
217	0x3f5fb9b1	0.8739272
218	0x3f72ed94	0.94893765
219	0x3f4f2c2c	0.80926776
220	0x3f5d4860	0.8643856
221	0x3d614d00	0.055005074
222	0x3f788a08	0.9708562
223	0x3e89b122	0.26892954
224	0x3f46f57f	0.7771835
225	0x3e946db8	0.2898996
226	0x3f7e19ae	0.99257934
227	0x3f582717	0.84434646
228	0x3ece5666	0.40300292
229	0x3f0e06d2	0.55479157
230	0x3eea1daa	0.45725757
231	0x3f50f7c2	0.8162805
232	0x3e8ba936	0.27277535
233	0x3e84eb46	0.2596075
234	0x3eb62c18	0.35580516
235	0x3ee12c54	0.43979132
236	0x3f28cc03	0.659363
237	0x3f48f385	0.7849658
238	0x3d7ae560	0.061253905
239	0x3f17b130	0.5925474
240	0x3f208b43	0.62712497
241	0x3f7ac8d1	0.9796267
242	0x3f67a2d7	0.9048285
243	0x3ebe60a4	0.37183106
244	0x3e0bf700	0.13668442
245	0x3f0f6c71	0.56024843
246	0x3e7ebf84	0.24877745
247	0x3f3813a2	0.7190496
248	0x3d4ed6f0	0.05049795
249	0x3f68602d	0.9077175
250	0x3d380810	0.044929564
251	0x38bc4000	8.9764595e-05
252	0x3e1117dc	0.14169258
253	0x3f5e184b	0.8675582
254	0x3f4b4c3e	0.7941321
255	0x3e55c4f4	0.20875913

bn1.bias f4 [400]
0	0x00000000	0.0
1	0x00000000	0.0
2	0x00000000	0.0
3	0x00000000	0.0
4	0x00000000	0.0
5	0x00000000	0.0
6	0x00000000	0.0
7	0x00000000	0.0
8	0x00000000	0.0
9	0x00000000	0.0
10	0x00000000	0.0
11	0x00000000	0.0
12	0x00000000	0.0
13	0x00000000	0.0
14	0x00000000	0.0
15	0x00000000	0.0
16	0x00000000	0.0
17	0x00000000	0.0
18	0x00000000	0.0
19	0x00000000	0.0
20	0x00000000	0.0
21	0x00000000	0.0
22	0x00000000	0.0
23	0x00000000	0.0
24	0x00000000	0.0
25	0x00000000	0.0
26	0x00000000	0.0
27	0x00000000	0.0
28	0x00000000	0.0
29	0x00000000	0.0
30	0x00000000	0.0
31	0x00000000	0.0
32	0x00000000	0.0
33	0x00000000	0.0
34	0x00000000	0.0
35	0x00000000	0.0
36	0x00000000	0.0
37	0x00000000	0.0
38	0x00000000	0.0
39	0x00000000	0.0
40	0x00000000	0.0
41	0x00000000	0.0
42	0x00000000	0.0
43	0x00000000	0.0
44	0x00000000	0.0
45	0x00000000	0.0
46	0x00000000	0.0
47	0x00000000	0.0
48	0x00000000	0.0
49	0x00000000	0.0
50	0x00000000	0.0
51	0x00000000	0.0
52	0x00000000	0.0
53	0x00000000	0.0
54	0x00000000	0.0
55	0x00000000	0.0
56	0x00000000	0.0
57	0x00000000	0.0
58	0x00000000	0.0
59	0x00000000	0.0
60	0x00000000	0.0
61	0x00000000	0.0
62	0x00000000	0.0
63	0x00000000	0.0
64	0x00000000	0.0
65	0x00000000	0.0
66	0x00000000	0.0
67	0x00000000	0.0
68	0x00000000	0.0
69	0x00000000	0.0
70	0x00000000	0.0
71	0x00000000	0.0
72	0x00000000	0.0
73	0x00000000	0.0
74	0x00000000	0.0
75	0x00000000	0.0
76	0x00000000	0.0
77	0x00000000	0.0
78	0x00000000	0.0
79	0x00000000	0.0
80	0x00000000	0.0
81	0x00000000	0.0
82	0x00000000	0.0
83	0x00000000	0.0
84	0x00000000	0.0
85	0x00000000	0.0
86	0x00000000	0.0
87	0x00000000	0.0
88	0x00000000	0.0
89	0x00000000	0.0
90	0x00000000	0.0
91	0x00000000	0.0
92	0x00000000	0.0
93	0x00000000	0.0
94	0x00000000	0.0
95	0x00000000	0.0
96	0x00000000	0.0
97	0x00000000	0.0
98	0x00000000	0.0
99	0x00000000	0.0
100	0x00000000	0.0
101	0x00000000	0.0
102	0x00000000	0.0
103	0x00000000	0.0
104	0x00000000	0.0
105	0x00000000	0.0
106	0x00000000	0.0
107	0x00000000	0.0
108	0x00000000	0.0
109	0x00000000	0.0
110	0x00000000	0.0
111	0x00000000	0.0
112	0x00000000	0.0
113	0x00000000	0.0
114	0x00000000	0.0
115	0x00000000	0.0
116	0x00000000	0.0
117	0x00000000	0.0
118	0x00000000	0.0
119	0x00000000	0.0
120	0x00000000	0.0
121	0x00000000	0.0
122	0x00000000	0.0
123	0x00000000	0.0
124	0x00000000	0.0
125	0x00000000	0.0
126	0x00000000	0.0
127	0x00000000	0.0
128	0x00000000	0.0
129	0x00000000	0.0
130	0x00000000	0.0
131	0x00000000	0.0
132	0x00000000	0.0
133	0x00000000	0.0
134	0x00000000	0.0
135	0x00000000	0.0
136	0x00000000	0.0
137	0x00000000	0.0
138	0x00000000	0.0
139	0x00000000	0.0
140	0x00000000	0.0
141	0x00000000	0.0
142	0x00000000	0.0
143	0x00000000	0.0
144	0x00000000	0.0
145	0x00000000	0.0
146	0x00000000	0.0
147	0x00000000	0.0
148	0x00000000	0.0
149	0x00000000	0.0
150	0x00000000	0.0
151	0x00000000	0.0
152	0x00000000	0.0
153	0x00000000	0.0
154	0x00000000	0.0
155	0x00000000	0.0
156	0x00000000	0.0
157	0x00000000	0.0
158	0x00000000	0.0
159	0x00000000	0.0
160	0x00000000	0.0
161	0x00000000	0.0
162	0x00000000	0.0
163	0x00000000	0.0
164	0x00000000	0.0
165	0x00000000	0.0
166	0x00000000	0.0
167	0x00000000	0.0
168	0x00000000	0.0
169	0x00000000	0.0
170	0x00000000	0.0
171	0x00000000	0.0
172	0x00000000	0.0
173	0x00000000	0.0
174	0x00000000	0.0
175	0x00000000	0.0
176	0x00000000	0.0
177	0x00000000	0.0
178	0x00000000	0.0
179	0x00000000	0.0
180	0x00000000	0.0
181	0x00000000	0.0
182	0x00000000	0.0
183	0x00000000	0.0
184	0x00000000	0.0
185	0x00000000	0.0
186	0x00000000	0.0
187	0x00000000	0.0
188	0x00000000	0.0
189	0x00000000	0.0
190	0x00000000	0.0
191	0x00000000	0.0
192	0x00000000	0.0
193	0x00000000	0.0
194	0x00000000	0.0
195	0x00000000	0.0
196	0x00000000	0.0
197	0x00000000	0.0
198	0x00000000	0.0
199	0x00000000	0.0
200	0x00000000	0.0
201	0x00000000	0.0
202	0x00000000	0.0
203	0x00000000	0.0
204	0x00000000	0.0
205	0x00000000	0.0
206	0x00000000	0.0
207	0x00000000	0.0
208	0x00000000	0.0
209	0x00000000	0.0
210	0x00000000	0.0
211	0x00000000	0.0
212	0x00000000	0.0
213	0x00000000	0.0
214	0x00000000	0.0
215	0x00000000	0.0
216	0x00000000	0.0
217	0x00000000	0.0
218	0x00000000	0.0
219	0x00000000	0.0
220	0x00000000	0.0
221	0x00000000	0.0
222	0x00000000	0.0
223	0x00000000	0.0
224	0x00000000	0.0
225	0x00000000	0.0
226	0x00000000	0.0
227	0x00000000	0.0
228	0x00000000	0.0
229	0x00000000	0.0
230	0x00000000	0.0
231	0x00000000	0.0
232	0x00000000	0.0
233	0x00000000	0.0
234	0x00000000	0.0
235	0x00000000	0.0
236	0x00000000	0.0
237	0x00000000	0.0
238	0x00000000	0.0
239	0x00000000	0.0
240	0x00000000	0.0
241	0x00000000	0.0
242	0x00000000	0.0
243	0x00000000	0.0
244	0x00000000	0.0
245	0x00000000	0.0
246	0x00000000	0.0
247	0x00000000	0.0
248	0x00000000	0.0
249	0x00000000	0.0
250	0x00000000	0.0
251	0x00000000	0.0
252	0x00000000	0.0
253	0x00000000	0.0
254	0x00000000	0.0
255	0x00000000	0.0

bn1.running_mean f4 [400]
0	0x00000000	0.0
1	0x00000000	0.0
2	0x00000000	0.0
3	0x00000000	0.0
4	0x00000000	0.0
5	0x00000000	0.0
6	0x00000000	0.0
7	0x00000000	0.0
8	0x00000000	0.0
9	0x00000000	0.0
10	0x00000000	0.0
11	0x00000000	0.0
12	0x00000000	0.0
13	0x00000000	0.0
14	0x00000000	0.0
15	0x00000000	0.0
16	0x00000000	0.0
17	0x00000000	0.0
18	0x00000000	0.0
19	0x00000000	0.0
20	0x00000000	0.0
21	0x00000000	0.0
22	0x00000000	0.0
23	0x00000000	0.0
24	0x00000000	0.0
25	0x00000000	0.0
26	0x00000000	0.0
27	0x00000000	0.0
28	0x00000000	0.0
29	0x00000000	0.0
30	0x00000000	0.0
31	0x00000000	0.0
32	0x00000000	0.0
33	0x00000000	0.0
34	0x00000000	0.0
35	0x00000000	0.0
36	0x00000000	0.0
37	0x00000000	0.0
38	0x00000000	0.0
39	0x00000000	0.0
40	0x00000000	0.0
41	0x00000000	0.0
42	0x00000000	0.0
43	0x00000000	0.0
44	0x00000000	0.0
45	0x00000000	0.0
46	0x00000000	0.0
47	0x00000000	0.0
48	0x00000000	0.0
49	0x00000000	0.0
50	0x00000000	0.0
51	0x00000000	0.0
52	0x00000000	0.0
53	0x00000000	0.0
54	0x00000000	0.0
55	0x00000000	0.0
56	0x00000000	0.0
57	0x00000000	0.0
58	0x00000000	0.0
59	0x00000000	0.0
60	0x00000000	0.0
61	0x00000000	0.0
62	0x00000000	0.0
63	0x00000000	0.0
64	0x00000000	0.0
65	0x00000000	0.0
66	0x00000000	0.0
67	0x00000000	0.0
68	0x00000000	0.0
69	0x00000000	0.0
70	0x00000000	0.0
71	0x00000000	0.0
72	0x00000000	0.0
73	0x00000000	0.0
74	0x00000000	0.0
75	0x00000000	0.0
76	0x00000000	0.0
77	0x00000000	0.0
78	0x00000000	0.0
79	0x00000000	0.0
80	0x00000000	0.0
81	0x00000000	0.0
82	0x00000000	0.0
83	0x00000000	0.0
84	0x00000000	0.0
85	0x00000000	0.0
86	0x00000000	0.0
87	0x00000000	0.0
88	0x00000000	0.0
89	0x00000000	0.0
90	0x00000000	0.0
91	0x00000000	0.0
92	0x00000000	0.0
93	0x00000000	0.0
94	0x00000000	0.0
95	0x00000000	0.0
96	0x00000000	0.0
97	0x00000000	0.0
98	0x00000000	0.0
99	0x00000000	0.0
100	0x00000000	0.0
101	0x00000000	0.0
102	0x00000000	0.0
103	0x00000000	0.0
104	0x00000000	0.0
105	0x00000000	0.0
106	0x00000000	0.0
107	0x00000000	0.0
108	0x00000000	0.0
109	0x00000000	0.0
110	0x00000000	0.0
111	0x00000000	0.0
112	0x00000000	0.0
113	0x00000000	0.0
114	0x00000000	0.0
115	0x00000000	0.0
116	0x00000000	0.0
117	0x00000000	0.0
118	0x00000000	0.0
119	0x00000000	0.0
120	0x00000000	0.0
121	0x00000000	0.0
122	0x00000000	0.0
123	0x00000000	0.0
124	0x00000000	0.0
125	0x00000000	0.0
126	0x00000000	0.0
127	0x00000000	0.0
128	0x00000000	0.0
129	0x00000000	0.0
130	0x00000000	0.0
131	0x00000000	0.0
132	0x00000000	0.0
133	0x00000000	0.0
134	0x00000000	0.0
135	0x00000000	0.0
136	0x00000000	0.0
137	0x00000000	0.0
138	0x00000000	0.0
139	0x00000000	0.0
140	0x00000000	0.0
141	0x00000000	0.0
142	0x00000000	0.0
143	0x00000000	0.0
144	0x00000000	0.0
145	0x00000000	0.0
146	0x00000000	0.0
147	0x00000000	0.0
148	0x00000000	0.0
149	0x00000000	0.0
150	0x00000000	0.0
151	0x00000000	0.0
152	0x00000000	0.0
153	0x00000000	0.0
154	0x00000000	0.0
155	0x00000000	0.0
156	0x00000000	0.0
157	0x00000000	0.0
158	0x00000000	0.0
159	0x00000000	0.0
160	0x00000000	0.0
161	0x00000000	0.0
162	0x00000000	0.0
163	0x00000000	0.0
164	0x00000000	0.0
165	0x00000000	0.0
166	0x00000000	0.0
167	0x00000000	0.0
168	0x00000000	0.0
169	0x00000000	0.0
170	0x00000000	0.0
171	0x00000000	0.0
172	0x00000000	0.0
173	0x00000000	0.0
174	0x00000000	0.0
175	0x00000000	0.0
176	0x00000000	0.0
177	0x00000000	0.0
178	0x00000000	0.0
179	0x00000000	0.0
180	0x00000000	0.0
181	0x00000000	0.0
182	0x00000000	0.0
183	0x00000000	0.0
184	0x00000000	0.0
185	0x00000000	0.0
186	0x00000000	0.0
187	0x00000000	0.0
188	0x00000000	0.0
189	0x00000000	0.0
190	0x00000000	0.0
191	0x00000000	0.0
192	0x00000000	0.0
193	0x00000000	0.0
194	0x00000000	0.0
195	0x00000000	0.0
196	0x00000000	0.0
197	0x00000000	0.0
198	0x00000000	0.0
199	0x00000000	0.0
200	0x00000000	0.0
201	0x00000000	0.0
202	0x00000000	0.0
203	0x00000000	0.0
204	0x00000000	0.0
205	0x00000000	0.0
206	0x00000000	0.0
207	0x00000000	0.0
208	0x00000000	0.0
209	0x00000000	0.0
210	0x00000000	0.0
211	0x00000000	0.0
212	0x00000000	0.0
213	0x00000000	0.0
214	0x00000000	0.0
215	0x00000000	0.0
216	0x00000000	0.0
217	0x00000000	0.0
218	0x00000000	0.0
219	0x00000000	0.0
220	0x00000000	0.0
221	0x00000000	0.0
222	0x00000000	0.0
223	0x00000000	0.0
224	0x00000000	0.0
225	0x00000000	0.0
226	0x00000000	0.0
227	0x00000000	0.0
228	0x00000000	0.0
229	0x00000000	0.0
230	0x00000000	0.0
231	0x00000000	0.0
232	0x00000000	0.0
233	0x00000000	0.0
234	0x00000000	0.0
235	0x00000000	0.0
236	0x00000000	0.0
237	0x00000000	0.0
238	0x00000000	0.0
239	0x00000000	0.0
240	0x00000000	0.0
241	0x00000000	0.0
242	0x00000000	0.0
243	0x00000000	0.0
244	0x00000000	0.0
245	0x00000000	0.0
246	0x00000000	0.0
247	0x00000000	0.0
248	0x00000000	0.0
249	0x00000000	0.0
250	0x00000000	0.0
251	0x00000000	0.0
252	0x00000000	0.0
253	0x00000000	0.0
254	0x00000000	0.0
255	0x00000000	0.0

bn1.running_var f4 [400]
0	0x3f800000	1.0
1	0x3f800000	1.0
2	0x3f800000	1.0
3	0x3f800000	1.0
4	0x3f800000	1.0
5	0x3f800000	1.0
6	0x3f800000	1.0
7	0x3f800000	1.0
8	0x3f800000	1.0
9	0x3f800000	1.0
10	0x3f800000	1.0
11	0x3f800000	1.0
12	0x3f800000	1.0
13	0x3f800000	1.0
14	0x3f800000	1.0
15	0x3f800000	1.0
16	0x3f800000	1.0
17	0x3f800000	1.0
18	0x3f800000	1.0
19	0x3f800000	1.0
20	0x3f800000	1.0
21	0x3f800000	1.0
22	0x3f800000	1.0
23	0x3f800000	1.0
24	0x3f800000	1.0
25	0x3f800000	1.0
26	0x3f800000	1.0
27	0x3f800000	1.0
28	0x3f800000	1.0
29	0x3f800000	1.0
30	0x3f800000	1.0
31	0x3f800000	1.0
32	0x3f800000	1.0
33	0x3f800000	1.0
34	0x3f800000	1.0
35	0x3f800000	1.0
36	0x3f800000	1.0
37	0x3f800000	1.0
38	0x3f800000	1.0
39	0x3f800000	1.0
40	0x3f800000	1.0
41	0x3f800000	1.0
42	0x3f800000	1.0
43	0x3f800000	1.0
44	0x3f800000	1.0
45	0x3f800000	1.0
46	0x3f800000	1.0
47	0x3f800000	1.0
48	0x3f800000	1.0
49	0x3f800000	1.0
50	0x3f800000	1.0
51	0x3f800000	1.0
52	0x3f800000	1.0
53	0x3f800000	1.0
54	0x3f800000	1.0
55	0x3f800000	1.0
56	0x3f800000	1.0
57	0x3f800000	1.0
58	0x3f800000	1.0
59	0x3f800000	1.0
60	0x3f800000	1.0
61	0x3f800000	1.0
62	0x3f800000	1.0
63	0x3f800000	1.0
64	0x3f800000	1.0
65	0x3f800000	1.0
66	0x3f800000	1.0
67	0x3f800000	1.0
68	0x3f800000	1.0
69	0x3f800000	1.0
70	0x3f800000	1.0
71	0x3f800000	1.0
72	0x3f800000	1.0
73	0x3f800000	1.0
74	0x3f800000	1.0
75	0x3f800000	1.0
76	0x3f800000	1.0
77	0x3f800000	1.0
78	0x3f800000	1.0
79	0x3f800000	1.0
80	0x3f800000	1.0
81	0x3f800000	1.0
82	0x3f800000	1.0
83	0x3f800000	1.0
84	0x3f800000	1.0
85	0x3f800000	1.0
86	0x3f800000	1.0
87	0x3f800000	1.0
88	0x3f800000	1.0
89	0x3f800000	1.0
90	0x3f800000	1.0
91	0x3f800000	1.0
92	0x3f800000	1.0
93	0x3f800000	1.0
94	0x3f800000	1.0
95	0x3f800000	1.0
96	0x3f800000	1.0
97	0x3f800000	1.0
98	0x3f800000	1.0
99	0x3f800000	1.0
100	0x3f800000	1.0
101	0x3f800000	1.0
102	0x3f800000	1.0
103	0x3f800000	1.0
104	0x3f800000	1.0
105	0x3f800000	1.0
106	0x3f800000	1.0
107	0x3f800000	1.0
108	0x3f800000	1.0
109	0x3f800000	1.0
110	0x3f800000	1.0
111	0x3f800000	1.0
112	0x3f800000	1.0
113	0x3f800000	1.0
114	0x3f800000	1.0
115	0x3f800000	1.0
116	0x3f800000	1.0
117	0x3f800000	1.0
118	0x3f800000	1.0
119	0x3f800000	1.0
120	0x3f800000	1.0
121	0x3f800000	1.0
122	0x3f800000	1.0
123	0x3f800000	1.0
124	0x3f800000	1.0
125	0x3f800000	1.0
126	0x3f800000	1.0
127	0x3f800000	1.0
128	0x3f800000	1.0
129	0x3f800000	1.0
130	0x3f800000	1.0
131	0x3f800000	1.0
132	0x3f800000	1.0
133	0x3f800000	1.0
134	0x3f800000	1.0
135	0x3f800000	1.0
136	0x3f800000	1.0
137	0x3f800000	1.0
138	0x3f800000	1.0
139	0x3f800000	1.0
140	0x3f800000	1.0
141	0x3f800000	1.0
142	0x3f800000	1.0
143	0x3f800000	1.0
144	0x3f800000	1.0
145	0x3f800000	1.0
146	0x3f800000	1.0
147	0x3f800000	1.0
148	0x3f800000	1.0
149	0x3f800000	1.0
150	0x3f800000	1.0
151	0x3f800000	1.0
152	0x3f800000	1.0
153	0x3f800000	1.0
154	0x3f800000	1.0
155	0x3f800000	1.0
156	0x3f800000	1.0
157	0x3f800000	1.0
158	0x3f800000	1.0
159	0x3f800000	1.0
160	0x3f800000	1.0
161	0x3f800000	1.0
162	0x3f800000	1.0
163	0x3f800000	1.0
164	0x3f800000	1.0
165	0x3f800000	1.0
166	0x3f800000	1.0
167	0x3f800000	1.0
168	0x3f800000	1.0
169	0x3f800000	1.0
170	0x3f800000	1.0
171	0x3f800000	1.0
172	0x3f800000	1.0
173	0x3f800000	1.0
174	0x3f800000	1.0
175	0x3f800000	1.0
176	0x3f800000	1.0
177	0x3f800000	1.0
178	0x3f800000	1.0
179	0x3f800000	1.0
180	0x3f800000	1.0
181	0x3f800000	1.0
182	0x3f800000	1.0
183	0x3f800000	1.0
184	0x3f800000	1.0
185	0x3f800000	1.0
186	0x3f800000	1.0
187	0x3f800000	1.0
188	0x3f800000	1.0
189	0x3f800000	1.0
190	0x3f800000	1.0
191	0x3f800000	1.0
192	0x3f800000	1.0
193	0x3f800000	1.0
194	0x3f800000	1.0
195	0x3f800000	1.0
196	0x3f800000	1.0
197	0x3f800000	1.0
198	0x3f800000	1.0
199	0x3f800000	1.0
200	0x3f800000	1.0
201	0x3f800000	1.0
202	0x3f800000	1.0
203	0x3f800000	1.0
204	0x3f800000	1.0
205	0x3f800000	1.0
206	0x3f800000	1.0
207	0x3f800000	1.0
208	0x3f800000	1.0
209	0x3f800000	1.0
210	0x3f800000	1.0
211	0x3f800000	1.0
212	0x3f800000	1.0
213	0x3f800000	1.0
214	0x3f800000	1.0
215	0x3f800000	1.0
216	0x3f800000	1.0
217	0x3f800000	1.0
218	0x3f800000	1.0
219	0x3f800000	1.0
220	0x3f800000	1.0
221	0x3f800000	1.0
222	0x3f800000	1.0
223	0x3f800000	1.0
224	0x3f800000	1.0
225	0x3f800000	1.0
226	0x3f800000	1.0
227	0x3f800000	1.0
228	0x3f800000	1.0
229	0x3f800000	1.0
230	0x3f800000	1.0
231	0x3f800000	1.0
232	0x3f800000	1.0
233	0x3f800000	1.0
234	0x3f800000	1.0
235	0x3f800000	1.0
236	0x3f800000	1.0
237	0x3f800000	1.0
238	0x3f800000	1.0
239	0x3f800000	1.0
240	0x3f800000	1.0
241	0x3f800000	1.0
242	0x3f800000	1.0
243	0x3f800000	1.0
244	0x3f800000	1.0
245	0x3f800000	1.0
246	0x3f800000	1.0
247	0x3f800000	1.0
248	0x3f800000	1.0
249	0x3f800000	1.0
250	0x3f800000	1.0
251	0x3f800000	1.0
252	0x3f800000	1.0
253	0x3f800000	1.0
254	0x3f800000	1.0
255	0x3f800000	1.0

fc2.weight f4 [300, 400]
0	0xbca3c812	-0.019992862
1	0xbd5dc5ff	-0.054143902
2	0xbcb26a13	-0.021779096
3	0xbcd9e223	-0.026597088
4	0x3b0a152f	0.0021069755
5	0x3c8ae5a2	0.0169552
6	0xbc9402eb	-0.018067798
7	0xbc299dc1	-0.010352553
8	0xbd043fe6	-0.0322875
9	0xbc3c80c5	-0.01150531
10	0xbd861820	-0.0654757
11	0x3d3e3c96	0.046444498
12	0xbac78833	-0.0015223086
13	0x3d347387	0.044055488
14	0x3c171e87	0.009223587
15	0xbd71cf10	-0.05903536
16	0xbcca0580	-0.024660826
17	0x3bef3244	0.0072996933
18	0xbc192380	-0.009346843
19	0x3b7b5ec0	0.0038356036
20	0xbcc7c905	-0.024387846
21	0x3d3cb76f	0.046073373
22	0x3bffe36c	0.007809093
23	0x3d185a86	0.037195705
24	0xbb859352	-0.0040764
25	0x3d0240c1	0.031800035
26	0xbcefb205	-0.029259691
27	0xbca794fb	-0.020456782
28	0xbd88aa36	-0.0667309
29	0xbdb1ec76	-0.086876795
30	0xbb6d4ce3	-0.0036209158
31	0xbd81df25	-0.063413896
32	0x3caa139d	0.020761305
33	0x3c2a7afc	0.010405298
34	0xbd3a7d1c	-0.04552947
35	0xbc4fcc6e	-0.012683017
36	0xbd609145	-0.05482604
37	0xbc474b8b	-0.012164007
38	0x3cd882f7	0.026429636
39	0x3ca150b8	0.01969181
40	0xbc14e86f	-0.00908862
41	0xbcad4437	-0.021150691
42	0xbd510a52	-0.051035233
43	0x3d08636a	0.033297934
44	0xbd227374	-0.039660886
45	0x3d1a0078	0.037598103
46	0x3d116151	0.0354932
47	0xb99601ed	-0.00028611664
48	0xbd14b9cb	-0.03631
49	0x3c4de5b1	0.01256697
50	0x3d0fe021	0.035125855
51	0x3d2b094f	0.041756924
52	0x3c3f56a5	0.0116783725
53	0x3c037cd3	0.008025366
54	0xbd41f56c	-0.047353193
55	0x3c4db84c	0.012556147
56	0x3c932921	0.017963948
57	0x3d17139d	0.03688394
58	0x3bf55e12	0.0074880207
59	0x3c2cb67e	0.010541556
60	0x3b4b1e14	0.003099327
61	0x3b994eb8	0.0046785735
62	0xbd94a543	-0.07258084
63	0xbd5838ba	-0.052788474
64	0xbcf9f077	-0.03051017
65	0xbbd2375a	-0.00641529
66	0x3c86e89d	0.01646834
67	0xba9b29ee	-0.0011838058
68	0x3d38ff64	0.045165434
69	0xbce48e7f	-0.027899979
70	0x3b254871	0.002522018
71	0x3d33bfed	0.043884207
72	0x3c9f27d3	0.01942817
73	0xbd9a3e6f	-0.075314395
74	0xbc2dc5d9	-0.010606253
75	0xbbfe3a14	-0.0077583883
76	0x3a63f5fd	0.0008696018
77	0xbb81823f	-0.003952294
78	0xbd7be0f5	-0.061493833
79	0xbd8c3642	-0.06846286
80	0xbc3b2538	-0.011422448
81	0xbd0a7978	-0.033807248
82	0xbb4f9780	-0.0031675994
83	0xbca50ab3	-0.020146703
84	0xbd657d4d	-0.0560277
85	0x3c4e7171	0.012600289
86	0x3c827dc4	0.01592911
87	0xbb94b7a6	-0.004538494
88	0xbd57a56a	-0.052647986
89	0xbcd8eebf	-0.02648103
90	0xbd71f27c	-0.05906914
91	0x3cb1f8c2	0.021725062
92	0xbcb2d6d9	-0.021830963
93	0xbc4c7858	-0.012479864
94	0xbce8779e	-0.02837735
95	0xbd3020f2	-0.04300017
96	0xbca7d821	-0.0204888
97	0xbcf3f067	-0.029777719
98	0xbd4cd0ee	-0.05000394
99	0xbc805e65	-0.01567001
100	0xbd1c3f9b	-0.038146596
101	0xbc8ddca9	-0.017317133
102	0x3c0207aa	0.007936398
103	0x3cf80473	0.030275559
104	0xbd27d626	-0.040975712
105	0x3cdaf419	0.026727723
106	0xbd71bcbb	-0.059017878
107	0x3d3643b4	0.04449816
108	0xbcd792e0	-0.026315153
109	0xbc9ee205	-0.019394884
110	0xbb618440	-0.0034411103
111	0x3c563bfc	0.013075825
112	0x3ca3a246	0.019974839
113	0x3d013301	0.03154278
114	0x3c947578	0.01812242
115	0xbd045ee8	-0.032317072
116	0xbc92b53c	-0.017908685
117	0x3d066cbd	0.032818545
118	0x3bfeb435	0.007772947
119	0x3ca1f479	0.019769894
120	0x3d205c1f	0.039150354
121	0x3b18ab51	0.0023295472
122	0x3c1e907d	0.009678003
123	0xbd0b86c3	-0.034064066
124	0x3c6e1726	0.014531886
125	0xbd7ad231	-0.06123561
126	0xbbf2f762	-0.0074147442
127	0x3cd1f3e1	0.025628986
128	0xbd288604	-0.041143432
129	0xbb859b06	-0.004077318
130	0xbd5a07cb	-0.05323009
131	0xbb9150e6	-0.0044346927
132	0xbcae1706	-0.021251213
133	0xbb98aa51	-0.004658975
134	0xbc84b380	-0.016198874
135	0x3d31b9c1	0.04339004
136	0x3c7dc670	0.015489206
137	0x3abef3c8	0.0014568502
138	0x3d21e301	0.03952313
139	0x3ca96cec	0.02068182
140	0xbda3d8e6	-0.080003545
141	0x3c34dac1	0.011038483
142	0xbc6a8d02	-0.014315845
143	0xbd6bdbfd	-0.057582844
144	0xbd15708c	-0.036484286
145	0xbc3f6393	-0.011681455
146	0x3a04c4ae	0.0005064708
147	0xbd40d53e	-0.047078364
148	0x3a2053a3	0.00061159785
149	0xbbacee25	-0.0052774125
150	0xbcb62e01	-0.022238733
151	0x3c4be837	0.012445501
152	0xbd6bb4d4	-0.057545498
153	0x3d37b39a	0.044849016
154	0x3cdc171d	0.02686649
155	0x3c3ba4e7	0.01145289
156	0xbd08c256	-0.03338846
157	0xbd81212c	-0.06305155
158	0xbceb8804	-0.02875138
159	0xbd6a9a9a	-0.057276346
160	0x3d284c9e	0.041088693
161	0xbc9bfec1	-0.019042375
162	0xbd598e6e	-0.053114347
163	0x3d14e2a2	0.036348946
164	0xbc9f4408	-0.01944162
165	0xbcd61d63	-0.02613706
166	0xbd99155f	-0.07474779
167	0xba735a4f	-0.00092831714
168	0xbd148c74	-0.03626676
169	0xbd7c0d51	-0.061536137
170	0xbcdb88dc	-0.026798658
171	0x3c077b90	0.008269206
172	0xbcdd8397	-0.027040286
173	0xba4e5243	-0.00078705343
174	0xbb979982	-0.004626454
175	0xbcfd0349	-0.030885356
176	0xbd5fb83b	-0.054619055
177	0xbc9e2068	-0.019302562
178	0xbd23a754	-0.0399545
179	0xbcd2e258	-0.025742695
180	0xbd51b883	-0.051201355
181	0xbccc46ed	-0.024936164
182	0xbd86ff3b	-0.0659165
183	0xba8a9ed2	-0.0010575897
184	0xbc372e84	-0.011180524
185	0x3c5863c7	0.0132073825
186	0xbd79d429	-0.060993347
187	0x3c1c0259	0.009522044
188	0x3d03cd61	0.032178286
189	0x3d3e3896	0.046440683
190	0xbd98304a	-0.074310854
191	0xbd95b4f4	-0.07309905
192	0x3c8eae7b	0.017417183
193	0xbcec1d52	-0.028822575
194	0xbb464f07	-0.0030259506
195	0x3d0435bf	0.03227782
196	0xbcbaef09	-0.022819059
197	0xb9fea7f9	-0.00048571805
198	0xbd01eb7e	-0.031718723
199	0xbbc5aa73	-0.006032282
200	0xbd0a66d6	-0.03378948
201	0xbc9c460b	-0.019076368
202	0x3c005e00	0.007834911
203	0x3c1cce7e	0.009570716
204	0x3cc9c47d	0.024629826
205	0xbd3ad9e6	-0.04561796
206	0xbd87a4eb	-0.066232525
207	0xbcdf420f	-0.027253179
208	0x3bd6ada1	0.00655146
209	0x3d43bf4c	0.047789857
210	0xbca691f6	-0.020333271
211	0x3d26ab53	0.04069073
212	0xbd258463	-0.040409457
213	0xbc9c58c5	-0.019085297
214	0x3bcec9c3	0.006310673
215	0xbd50b506	-0.050953887
216	0xbd5a9932	-0.053368755
217	0x3d076bda	0.03306184
218	0x3bec6bd0	0.0072150007
219	0xbd7cd8cb	-0.061730187
220	0x3cda759f	0.026667414
221	0xbcf82483	-0.030290848
222	0xbca36b70	-0.019948691
223	0xbc8ba395	-0.017045775
224	0xbd8203f9	-0.06348414
225	0xbd63f998	-0.055657953
226	0xbca47caa	-0.020078976
227	0xbcfc791b	-0.030819466
228	0xbcf25acf	-0.029584317
229	0xbd37e01b	-0.044891458
230	0xba84d0c3	-0.0010133017
231	0xbd99958a	-0.074992254
232	0xbd3ca54a	-0.04605607
233	0xbc816d57	-0.015799208
234	0xbbc78dcf	-0.006089903
235	0x3a2e9362	0.0006659535
236	0xbd2a583d	-0.041588057
237	0xbcd1efb2	-0.025626991
238	0xbccd3a68	-0.025052264
239	0xbd8f2ab7	-0.06990569
240	0x3d13d787	0.036094215
241	0xbc59d9b4	-0.013296533
242	0xbbdac192	-0.0066759074
243	0xbcafb53e	-0.021448728
244	0xbd5523d6	-0.05203613
245	0xbcd3680f	-0.025806455
246	0xbd6b2e0d	-0.057416964
247	0xbd093316	-0.033495985
248	0xbd0da5e8	-0.03458205
249	0xbc47b9af	-0.0121902665
250	0x3d017de7	0.03161421
251	0x3ca5b20a	0.020226497
252	0x3b6e27ba	0.0036339597
253	0x3ca41d3f	0.020033477
254	0x3cd14489	0.025545375
255	0xbd4292b6	-0.047503196

fc2.bias f4 [300]
0	0xbda2172a	-0.079145744
1	0x3c4337e5	0.011915182
2	0xbd5ff440	-0.054676294
3	0xbdab0bea	-0.08351882
4	0xbec0793a	-0.3759249
5	0x3d771d7b	0.06033085
6	0xbd0f04fc	-0.034916863
7	0xbd2df0cd	-0.042465974
8	0xbb22e13e	-0.0024853493
9	0xbeeadfc1	-0.45873836
10	0xbe4f0fb3	-0.20220833
11	0xbe99c8a7	-0.30035898
12	0x3c88de1c	0.016707473
13	0xbcf3ba50	-0.029751927
14	0x3970ee03	0.0002297685
15	0xbef0d268	-0.47035527
16	0x3cfc66e6	0.030810785
17	0xbe819876	-0.2531163
18	0xbd5bc465	-0.053654093
19	0xbe231c63	-0.15928797
20	0xbd86b635	-0.06577722
21	0xbf4d1d61	-0.80122954
22	0xbe70407d	-0.234621
23	0xbdf8e4f7	-0.121530466
24	0xbeb14ee1	-0.34630492
25	0xbe236d34	-0.15959626
26	0x3d6c80f7	0.057740178
27	0xbe3759cb	-0.17905347
28	0x3d8ca697	0.06867712
29	0xbeb0b26c	-0.34511125
30	0xbd98b097	-0.07455557
31	0xbe9721d9	-0.2951801
32	0x3d70ed20	0.05881989
33	0x3d7d3776	0.06182047
34	0xbdb23f93	-0.08703532
35	0x3b6b1c88	0.003587516
36	0xbc1b66fb	-0.009485002
37	0xbeb9b9b2	-0.36274487
38	0xbd2ddbd1	-0.04244596
39	0x3bd27d3b	0.00642362
40	0x3d509fc2	0.050933607
41	0xbda1a288	-0.078923285
42	0xbe8ba6f4	-0.27275813
43	0xbd3f1ace	-0.046656422
44	0xbd9b2009	-0.075744696
45	0xba93baf3	-0.0011270925
46	0xbe8b9b05	-0.27266708
47	0xbdb1787a	-0.08665557
48	0xbd63dc89	-0.05563024
49	0x3d22fe96	0.039793573
50	0xbc91923a	-0.017769922
51	0xbe5c145c	-0.21492141
52	0x3dcb5e79	0.099301286
53	0xbdeeb77f	-0.11656093
54	0xbc0a412d	-0.008438391
55	0xbce7eb4a	-0.028310437
56	0xbe8fc36f	-0.28078791
57	0xbd3d8f6a	-0.04627935
58	0x3bf3729b	0.0074294335
59	0xbe25df60	-0.16198492
60	0xbd4df2de	-0.050280444
61	0xbaebe71a	-0.0017997951
62	0xbdd085c6	-0.10181765
63	0xbee127db	-0.4397572
64	0xbd27b48e	-0.040943675
65	0xbe8bf0ad	-0.2733206
66	0xbe7261fe	-0.23670194
67	0xbe3ef4bd	-0.18648048
68	0xbded37c2	-0.115829006
69	0x3dab75e3	0.083720945
70	0xbd27b39d	-0.040942777
71	0xbe3840a5	-0.1799341
72	0x3dd4bb83	0.103873275
73	0xbd248d02	-0.040173538
74	0x3c44284c	0.011972498
75	0xbe7a9161	-0.2446952
76	0xbdf4bfa4	-0.11950615
77	0xbb6c5cf1	-0.003606614
78	0xbad484e6	-0.0016213923
79	0xbdf63b6f	-0.12023055
80	0x3d370800	0.044685364
81	0xbd868589	-0.065684386
82	0x3e5a35f2	0.21309641
83	0xbd873098	-0.066010654
84	0x3d89c42c	0.0672687
85	0xbe0683d4	-0.13136226
86	0xbe149620	-0.14510393
87	0xbe9ede1c	-0.3102883
88	0xbe3a1d1c	-0.18175167
89	0xbe28672d	-0.16445608
90	0x3d3be109	0.045868907
91	0xbdfa0802	-0.122085586
92	0x3c82efcd	0.015983487
93	0xbdf03c99	-0.11730308
94	0xbe21636f	-0.15760587
95	0x3d985525	0.07438115
96	0xbe789f1e	-0.24279448
97	0x3e084ab9	0.13309754
98	0xbc351f60	-0.011054844
99	0xbe9028ff	-0.28156278
100	0xbecd637a	-0.40114957
101	0xbee11248	-0.4395926
102	0xbebfa663	-0.3743163
103	0xbdeb1d27	-0.1148017
104	0x3dfea25b	0.124333106
105	0xbdfa54ee	-0.1222323
106	0xbe6c082f	-0.23049997
107	0xbd1b529a	-0.037920572
108	0xbf000214	-0.5000317
109	0x3e4d1a76	0.20029625
110	0x3e155d6c	0.14586419
111	0xbdf3f903	-0.119127296
112	0xbde6e461	-0.112740286
113	0xbe939dc5	-0.28831306
114	0xbd3e7e9f	-0.046507474
115	0xbc8121c2	-0.015763167
116	0x3c0d0c11	0.008608834
117	0xbcbf7faf	-0.023376314
118	0xbeb63e3f	-0.35594365
119	0x3e60c350	0.21949506
120	0xbd0ab966	-0.033868216
121	0xbd58d7eb	-0.05294029
122	0x3e714ec5	0.23565204
123	0xbd0bfa8c	-0.034174487
124	0xbd82e241	-0.06390811
125	0xbee89b6c	-0.45431077
126	0x3c6d4673	0.014482128
127	0xbddef937	-0.10887378
128	0xbe3bbca6	-0.18333682
129	0xbe873b7e	-0.26412576
130	0xbe74db87	-0.23911868
131	0xbf06f769	-0.5272127
132	0xbe72fc09	-0.23728956
133	0xbd10d28f	-0.035357054
134	0xbd1ee2b2	-0.038790412
135	0xbd81a917	-0.063310795
136	0xbe068d9a	-0.13139954
137	0xbb441e7b	-0.0029925394
138	0x3d942add	0.07234738
139	0x3da7f88d	0.08201704
140	0xbe468514	-0.19386703
141	0xbe01964b	-0.12654988
142	0xbe1d68c7	-0.15372
143	0xbdb13035	-0.08651773
144	0xbd9f09c0	-0.077655315
145	0xbe99c5ac	-0.30033624
146	0xbeabeaee	-0.33577675
147	0xbd8f6c41	-0.0700307
148	0xbe6770a7	-0.22601567
149	0xbe6b301b	-0.2296757
150	0xbd5b2a0c	-0.053506896
151	0x3e1c9527	0.15291272
152	0xbe2b6233	-0.16736679
153	0xbd552281	-0.05203486
154	0xbc7d75e6	-0.015470004
155	0xbcc8cf45	-0.024512896
156	0x3b9974ce	0.0046831137
157	0xbd12ea18	-0.03586778
158	0xbdca1f3a	-0.09869237
159	0x3e88e929	0.26740387
160	0xbda26aee	-0.079305515
161	0xbe9dd612	-0.30827385
162	0xbdbfd31b	-0.09366437
163	0xbec13b83	-0.37740716
164	0x3d63f11c	0.05564986
165	0xbce629b1	-0.028096052
166	0xbe12890c	-0.14310092
167	0xbcacde4b	-0.021102091
168	0xbda7618c	-0.081729025
169	0xbe639f2b	-0.22228687
170	0xbc83704b	-0.016044756
171	0xbe85b7ca	-0.26116782
172	0xbc02e4b5	-0.007989098
173	0x3d716f63	0.058944117
174	0xbe07ebf7	-0.13273607
175	0xbda46f6b	-0.08029064
176	0xbde6edc2	-0.112758175
177	0xbd11bfae	-0.03558319
178	0xbebca907	-0.36847708
179	0x3dd743a7	0.105109505
180	0xbe10f2d7	-0.14155136
181	0xbd04e5a6	-0.032445572
182	0x3da8eb97	0.0824806
183	0xbdbcb141	-0.09213496
184	0xbe408c90	-0.1880362
185	0x3e911214	0.28334105
186	0xbd253807	-0.040336635
187	0xbe0e4e5a	-0.13897076
188	0xbd29ac4b	-0.041424077
189	0xbd9cfc45	-0.07665304
190	0xbd972233	-0.0737957
191	0x3c640be3	0.01391885
192	0xbc64d623	-0.01396707
193	0x3a118a6d	0.0005551938
194	0xbe055367	-0.13020097
195	0x3c8314fc	0.016001217
196	0xbd51dea3	-0.051237714
197	0xbd9a1111	-0.075227864
198	0xbd071b0c	-0.03298478
199	0x3e21ffdc	0.15820259
200	0xbe926743	-0.28594407
201	0xbd0d1b03	-0.03444959
202	0xbd47eb22	-0.048808224
203	0xbe4a4c02	-0.19755557
204	0xbd3e9f23	-0.046538483
205	0xbe3752bd	-0.17902656
206	0x3ca97e59	0.02069013
207	0x3dad3c5f	0.084587805
208	0xbda6cf8a	-0.08145054
209	0xbe81ac2a	-0.25326663
210	0xbeaf5a27	-0.34248468
211	0xbdb850a7	-0.08999758
212	0xbdb00404	-0.08594516
213	0x3e4579d1	0.1928475
214	0xbc70e0e1	-0.014702053
215	0xbe3bfe0f	-0.18358634
216	0xbd39e354	-0.045382813
217	0xbe701e00	-0.23448944
218	0x3de778a1	0.11302305
219	0xbe901fd4	-0.28149283
220	0xbe1067d3	-0.14102106
221	0xbe47ace4	-0.19499546
222	0x3a647f98	0.0008716523
223	0xbca1d7b0	-0.019756168
224	0xbec491da	-0.38392526
225	0xbf00d27e	-0.50321186
226	0xbd330b10	-0.043711722
227	0x3c1754b0	0.0092365
228	0xbd518f35	-0.051161963
229	0xbe0233e4	-0.12715107
230	0x3c7b4319	0.015335822
231	0x3d325a42	0.043543108
232	0xbedcf6e3	-0.4315711
233	0xbe91d7e3	-0.2848502
234	0xbcf0840f	-0.029359845
235	0xbc843094	-0.016136445
236	0xbe5f7953	-0.21823625
237	0xbd1454bd	-0.036213625
238	0xbe2c269d	-0.16811605
239	0x3c8ea61f	0.017413197
240	0xbbf14a11	-0.0073635657
241	0x3e0c3566	0.13692245
242	0x3e52c4b1	0.20582844
243	0xbf072e2c	-0.5280483
244	0x3d608fa5	0.05482449
245	0x3c7d4609	0.015458592
246	0xbdb9465a	-0.090466216
247	0x3b9e7523	0.004835741
248	0xbdc4e01c	-0.09613058
249	0x3d09dd4f	0.033658322
250	0xbe41050f	-0.18849586
251	0xbe443c7a	-0.19163695
252	0xbcba9b9d	-0.02277928
253	0xbd035dfe	-0.03207206
254	0x3d270dbc	0.040784582
255	0xbe3f96a3	-0.18709807
