env_actor_local_0.pth (torch_old, 531488 bytes, 10 tensors)

fc1.weight f4 [400, 24]
000000 c8 b5 21 bd 90 04 02 3f 7c 97 83 bd 04 0e e4 3d
       -0.03948 0.5078821 -0.06425378 0.11135486
000010 e0 2a 1a be b8 43 db be ad 22 3b bd 6e 23 e6 3d
       -0.15055418 -0.42825103 -0.045687366 0.112372264
000020 ca 80 72 3d e7 43 21 3f 2d f2 d3 bd 03 23 06 3d
       0.059204854 0.62994236 -0.10348926 0.032748234
000030 3a 5b 00 3e 89 fc f5 be fb 24 a2 bd 57 46 85 3c
       0.125348 -0.48044232 -0.0791721 0.016268892
000040 75 6e c3 3d 91 1b 0c 3f 96 ba 87 bd 66 5d b4 bd
       0.095425524 0.54729563 -0.06627385 -0.08806877
000050 0a f0 ba 3e bb 29 cd bd d0 a4 d1 bd 1c 7e 56 3a
       0.3651126 -0.10017725 -0.102365136 0.0008182244
000060 2d cc 43 3d 2d ac e7 bd 60 9b 9f 3c aa da 05 3e
       0.04780214 -0.11312137 0.019483268 0.13071695
000070 3c 01 22 3f d8 61 75 3e 7e c2 dc bc ca 6c f4 3d
       0.63283134 0.23963106 -0.02694821 0.11934812
000080 8f 69 b2 3d 0e b9 82 bc 27 ad 20 be fa 91 64 3e
       0.0871154 -0.015957382 -0.15691052 0.2232131
000090 d2 04 8e 3d 5c c6 0a bd 34 59 c8 bd a6 67 56 3e
       0.06934513 -0.033880576 -0.09782639 0.20937976
0000a0 05 d5 eb 3d 33 b2 93 3c fe 3e 86 3b e8 ba 2c 3d
       0.115152396 0.018029308 0.0040968647 0.042170435
0000b0 a2 6a 77 be d4 13 9e 3d 17 bd 3c 3b 88 f2 2c 3d
       -0.24161771 0.07718626 0.002879923 0.042223483
0000c0 6e 65 1a 3f 58 18 03 3d b1 54 02 be bf 11 4b bd
       0.6031102 0.032005638 -0.1272762 -0.04957747
0000d0 68 1a 92 3d d3 ec bb be d5 93 aa bd 75 14 1d bd
       0.07133943 -0.3670412 -0.08328978 -0.038349587
0000e0 83 67 b5 3e f9 0f bb bc dd 71 4e be 6f 47 80 be
       0.35430536 -0.022834765 -0.20160623 -0.250545
0000f0 ce 5d bb 3d 26 64 99 be 71 0e 54 be 38 28 50 be
       0.09148751 -0.2995922 -0.20708634 -0.20327842
000100 21 05 bf 3e ae 9a 1d bc aa a6 ad 3d 17 8c 0e be
       0.373086 -0.009619398 0.08479054 -0.13920628
000110 ef 93 1c 3e 36 93 89 be cb f7 92 3d f3 d5 31 be
       0.15290807 -0.26870126 0.07176169 -0.17366771
000120 8f fb c8 3c 07 1c 7c 3e 68 64 b4 3c 25 46 e6 bb
       0.024534015 0.24620067 0.022020534 -0.007027405
000130 6a c6 ad be 68 39 b2 3e 9e e6 a3 3d bc 4a e4 3b
       -0.3394044 0.34809422 0.08002971 0.006966917
000140 c3 42 d9 bb ee 71 64 3e ef 0b 5a bc 68 f5 b7 bc
       -0.006630273 0.22309086 -0.013308509 -0.022455886
000150 b5 cc 0d be c4 ce 34 3e 61 95 99 bc 4a 1f b9 bc
       -0.13847621 0.17657 -0.018747987 -0.022597928
000160 87 c4 a0 bc ee 1c 11 3e 8e e9 61 bc ff 84 25 be
       -0.019624962 0.14171192 -0.013788594 -0.16164015
000170 67 05 20 3e 8f 8f 4e bb 99 9b e7 3b 07 8f 42 be
       0.15627061 -0.0031518673 0.0070681092 -0.18999873
000180 33 75 ec 3d b5 57 19 be fc d7 93 3c b3 71 9a be
       0.115457915 -0.14974864 0.018047325 -0.3016487
000190 0d b1 8b be e7 37 48 bf 7d 48 96 bd 41 76 a5 be
       -0.27283517 -0.782103 -0.07338045 -0.32316783
0001a0 a1 8e 0e 3e 10 93 f3 bd 8c 0d 8d bd 4e 5c 2f 3d
       0.13921596 -0.11893284 -0.068873495 0.042812638
0001b0 38 6b 7d be b1 ae 91 bf e0 72 6f bd 9d 9a ef 3c
       -0.24747932 -1.1381437 -0.058459163 0.02924853
0001c0 60 0a 54 3e dd 69 69 bd 6e 6f eb bd fb 9c 70 bd
       0.20707083 -0.056985725 -0.11495863 -0.05874346
0001d0 34 47 d0 bd b9 06 83 bf 32 79 27 bd 3b 63 43 bd
       -0.10169831 -1.0236427 -0.040887065 -0.047702055
0001e0 8e f1 5b 3e 77 06 e6 3b c9 d2 45 3d a9 71 c5 bd
       0.21478865 0.0070198136 0.048296724 -0.096408196
0001f0 58 27 83 3e d1 93 04 bf 24 a4 a2 3c 8f a5 9b bd
       0.25615954 -0.5178805 0.019853659 -0.07599937
000200 ec a7 1d 3e bb 31 4c bc 32 e7 00 be 7c 7a e3 3d
       0.15396088 -0.012463029 -0.12588194 0.111073464
000210 99 67 fd 3d 92 d8 69 be 42 03 11 be 9e 2b 98 3d
       0.12373275 -0.22836521 -0.14161399 0.07430194
000220 6e 46 4c 3e 69 09 b5 bd 1a 25 92 3d 7b dc 9b 3d
       0.19948742 -0.088396855 0.07135983 0.07610413
000230 94 59 c9 bb e6 78 13 3e e8 fc de 3c 12 da 1a 3d
       -0.0061447117 0.14401588 0.027220204 0.037805624
000240 37 75 18 3f ab c8 8b be 2c 3a b8 bd 5d 7a e0 bd
       0.59553856 -0.27301535 -0.089954704 -0.10960839
000250 53 01 94 be 8e 25 92 bd 2c 00 40 bd 9a ad dd bd
       -0.2890726 -0.07136069 -0.046875164 -0.108241275
000260 61 34 14 3f 46 d7 cc bd 0c a2 6a bd 72 08 8d 3e
       0.57892424 -0.10001998 -0.057283446 0.27545506
000270 bb 2a bb bc 50 a5 33 be 23 1c b8 bd 83 a1 73 3e
       -0.022847524 -0.1754353 -0.08989742 0.2379208
000280 15 ed c8 3e 7a 48 05 be 6f cf 2d be 73 4b 9d bc
       0.3924338 -0.13015929 -0.16973661 -0.019201016
000290 fd bc e3 bc df 73 d0 bc a7 9c 22 be 0f 45 25 3d
       -0.027800078 -0.025445877 -0.1588007 0.040349063
0002a0 a6 5d 59 3e 73 3d cc 3e aa 7f a5 bd 60 11 fc 38
       0.2122713 0.39890632 -0.080809906 0.00012019533
0002b0 2d fc 38 be c0 2b 7e 3e ec 32 a6 bd 20 d2 31 bd
       -0.18064947 0.24821377 -0.08115181 -0.04341328
0002c0 0a 05 e3 3d 58 e8 a6 3e 41 4d 06 3c 91 4c a0 bb
       0.110849455 0.3259914 0.00819713 -0.00489194
0002d0 c3 2d a8 bd be a7 ce 3e 52 9c 87 bd 82 37 83 bd
       -0.08211853 0.40362352 -0.066216126 -0.06407072
0002e0 20 7c a0 3d 76 0a 9b 3e c2 6b a2 bd 12 96 83 be
       0.07836175 0.3028142 -0.079307094 -0.25700432
0002f0 d0 ca 88 3c 5d b8 08 3f 88 d0 c2 bd f0 2a 9b be
       0.016698271 0.53406316 -0.095124304 -0.30306196
000300 60 cc a7 3e 00 6e b8 3e 31 7d c1 3c 9a 22 94 3e
       0.32773113 0.36021423 0.023619266 0.2893265
000310 24 7e 6f 3e b8 38 78 3d 23 48 a0 bc 48 7c 9a 3e
       0.23387963 0.060600966 -0.019565647 0.30172944
000320 57 39 ff 3e 59 65 f8 3e 2a 94 28 bd 87 86 bd 3b
       0.49848434 0.48514822 -0.041156925 0.005783859
000330 d8 a6 49 3e 07 37 88 bd 5f e5 14 3d 4e 1a a4 3d
       0.19692552 -0.06651121 0.036351558 0.0801283
000340 05 8d b0 3e c9 cf fd 3e ae 67 0f be 84 76 28 bd
       0.3448259 0.4957259 -0.14004394 -0.04112865
000350 b9 f0 9c 3b 60 6b b0 bc c8 d6 25 be f3 91 7e bc
       0.0047894386 -0.021535575 -0.16195214 -0.015537727
000360 36 7b fa 3d 09 ff 01 3f b3 4b 15 bd bd e8 dd 3b
       0.12230532 0.5077978 -0.036449146 0.0067721293
000370 e0 01 a6 3e fa e4 5d 3e ff 2f 8e 3c ee de ee bc
       0.32423306 0.21669379 0.01735687 -0.029159036
000380 79 a3 8b 3d 12 0c fb 3e 4b b5 6f bd 23 cb 97 bd
       0.06818289 0.49032646 -0.058522504 -0.07411792
000390 a6 4d aa 3d e5 36 2d 3e 8b e6 b4 bd 38 e6 6a bd
       0.083155915 0.16915472 -0.08833035 -0.05734846
0003a0 7d 13 03 3d db 3c d8 3e ab ff ba 3d 8f a5 bc be
       0.032001007 0.4223393 0.09130796 -0.3684506
0003b0 82 b6 18 be 6b f1 61 3d 7e 97 08 3d df 32 ba be
       -0.14913371 0.055161875 0.0333476 -0.36366937
0003c0 2a 3e 7b bd 44 20 b6 bd c0 bb 1a be f6 d2 d7 3d
       -0.06133858 -0.08892873 -0.15110683 0.105382845
0003d0 e3 c0 37 be 0d 55 da 3d ea a4 b5 bd b2 de c0 3d
       -0.17944674 0.106607534 -0.088693455 0.09417476
0003e0 2e cc 0c 3b 64 03 fe bd b3 52 45 3d 2f 80 a0 bd
       0.0021484005 -0.124029905 0.04817457 -0.07836949
0003f0 27 79 88 3e 79 3e 3f 3d 09 fa 29 3d 71 d9 d1 bd
       0.26654932 0.046690438 0.041498218 -0.10246552

fc1.bias f4 [400]
000000 31 b3 46 be c7 6a 93 be 4b 03 92 bd fa 9b e4 bd
       -0.19404294 -0.28792402 -0.07129534 -0.11162563
000010 26 17 7a bc f7 dc a1 bd 03 7d eb bc 46 bd 64 be
       -0.015264308 -0.07903474 -0.028746134 -0.22337827
000020 f6 0f ec 3d 3c d7 47 be 70 2e 12 be ad 31 65 3e
       0.11526482 -0.19515699 -0.14275527 0.22382231
000030 eb 25 5d be 7c eb a9 be 19 f7 0a bf 03 5a ae 3d
       -0.21596496 -0.33187473 -0.5428329 0.08513262
000040 db a2 13 be 46 84 1b 3d c8 f5 3d be f0 cd cb 3d
       -0.14417593 0.037967943 -0.1855079 0.09951389
000050 96 40 82 be c3 01 36 be 6f d3 f6 be 15 e8 ab be
       -0.254399 -0.1777411 -0.48208186 -0.33575502
000060 d9 71 1a 3d cc 26 de 3d 44 b1 04 be 83 3d 71 bd
       0.03770623 0.10847244 -0.12958246 -0.058896553
000070 79 b9 9c bd fc 57 71 3d 39 3d 8e 3d 4a b7 16 be
       -0.076525636 0.0589218 0.06945271 -0.14718357
000080 d6 07 8d bd 73 62 ab bd 9e eb d8 be 61 0a c3 3d
       -0.0688626 -0.08368387 -0.42367262 0.09523464
000090 fc b8 8b 3e ad d0 08 bf 3e 83 36 be 50 37 ec bd
       0.2728957 -0.53443414 -0.17823502 -0.115339875
0000a0 a1 31 1b bd 7f 89 02 bf 47 29 8e be d4 6a a4 be
       -0.037889127 -0.5099105 -0.27765867 -0.32112753
0000b0 80 e9 1f bb 72 20 cf bd ce bf 91 be 8a 00 dc be
       -0.0024400651 -0.1011361 -0.28466648 -0.4296916
0000c0 32 3f de bd 08 64 87 bd 7f 41 e4 bd 26 40 62 3d
       -0.10851897 -0.06610876 -0.11145305 0.055236958
0000d0 45 8b ee 3d 21 df 19 bd 10 f1 fa 3d 38 f7 74 bd
       0.11647657 -0.037566308 0.1225301 -0.05980608
0000e0 5b 18 e0 3a 8f dc 47 be d7 da 08 3e b2 f2 c8 3c
       0.0017097102 -0.1951773 0.13364731 0.024529789
0000f0 9a 2d 4e be 3d 47 7c bd 7f 02 e7 bd 67 ec 09 3e
       -0.20134583 -0.061591376 -0.11279773 0.13469087
000100 ff 76 0b be 1b cd 93 be 18 ba 4e 3e 0a e9 29 3e
       -0.13619612 -0.2886742 0.20188177 0.16592804
000110 4a 8c ea bc 4a ff c5 3d e8 ed b7 3d f8 0f c8 be
       -0.028631348 0.09667833 0.08980924 -0.39074683
000120 46 1a 1a be 35 cc 04 3e 10 10 bf 3d b5 5d 6d 3e
       -0.15049085 0.12968524 0.093292356 0.23180278
000130 58 67 c4 bc 1c f9 6e 3d 63 8b 33 3e 11 a9 8b be
       -0.02397506 0.058343038 0.1753364 -0.27277425
000140 c9 d8 25 be b0 e6 f4 bd 9b 44 2b be c8 bd 94 be
       -0.16195978 -0.11958063 -0.1672539 -0.29051042
000150 7b 12 32 be 8a 3c 08 3d d9 ea ae bc 43 2d 79 3d
       -0.17389862 0.03326086 -0.021352218 0.06083418
000160 86 78 83 3e ad df e1 3d 02 3d db be 2c 8a 2b be
       0.2567789 0.11028991 -0.42819983 -0.16751927
000170 77 16 69 3e 6a 64 c8 be 3d 2b 0e 3d 3b 28 c3 be
       0.22762476 -0.3913911 0.034709204 -0.3811663
000180 ad 0d 45 be 4a c9 0f be 8b bd 79 3e e1 26 70 be
       -0.19243498 -0.1404163 0.24388711 -0.23452331
000190 bc 6c af 3e 73 a8 ba be be 1c 0d 3d 78 a2 c4 bd
       0.34262645 -0.36456642 0.03445124 -0.09601301
0001a0 3d 48 0f be d4 ab ce be 14 50 a5 be 0d 0e 76 be
       -0.139924 -0.4036547 -0.32287657 -0.24028797
0001b0 7c 67 18 3e 11 fb 0a bd f0 bc 10 bf d7 cb f7 bd
       0.14883226 -0.03393084 -0.56538296 -0.12099426
0001c0 46 77 82 be be db 1d bf ba b7 71 be 7f 19 52 be
       -0.25481623 -0.61663425 -0.23605242 -0.20517538
0001d0 05 c1 30 be c7 de 55 bd 36 8c 06 be 6d 09 54 3e
       -0.17261131 -0.05221441 -0.13139424 0.2070672
0001e0 5c e9 ba 3c 96 2e 4e be fd cf 5b bc c7 7c bd bd
       0.022816353 -0.20134959 -0.0134162875 -0.09252315
0001f0 f9 74 42 3c d0 38 9d bd 79 ff 80 bd d1 e9 48 be
       0.011868709 -0.07676852 -0.062987275 -0.19620444
000200 b7 88 bd be d7 40 d5 bc 11 96 11 be 83 71 d4 be
       -0.37018368 -0.026031895 -0.14217402 -0.41492853
000210 3c 62 9e be a3 f8 ae bd a8 0c 2f be 0b 87 bc bb
       -0.30934322 -0.085435174 -0.17094672 -0.005753403
000220 df 6c 88 be 5f 72 0f b9 a6 e9 8d be ec 29 96 3d
       -0.26645562 -0.0001368015 -0.27717322 0.07332215
000230 3b a1 12 be 42 7e 1a 3e d2 e0 8e 3e ee 36 87 be
       -0.14319317 0.15087226 0.279059 -0.26409096
000240 ec 76 6f be 3f eb d4 3d 5f 17 22 be 96 83 69 be
       -0.23385209 0.10396432 -0.15829228 -0.22804102
000250 b9 3d cd bd 26 0b 58 bd 97 e9 17 be 16 09 3f be
       -0.10021538 -0.052745007 -0.14835201 -0.1865581
000260 02 26 92 be 46 e7 77 3e f7 9f 10 3e 5e e1 31 3e
       -0.28544623 0.24209318 0.14123522 0.17371127
000270 7c fa 8e 3e b9 8f 5c be b7 72 93 3d d3 01 15 3e
       0.2792548 -0.21539201 0.071996145 0.14551477
000280 fe 26 41 3d 9e bf 1a 3d 98 f9 a4 bb 5a 70 7c 3c
       0.047156326 0.037780397 -0.0050346367 0.015407646
000290 61 67 4d be 57 e0 2c bf b7 a0 b6 bd 8e d4 52 be
       -0.20058967 -0.67529815 -0.08917373 -0.20588896
0002a0 68 6f 42 be 1b ad 86 be ac a4 09 be 0f f6 09 bf
       -0.1898781 -0.26303944 -0.13441724 -0.5389108
0002b0 e8 23 c3 be 30 cf 60 be 8d 42 a2 3b 6b 4b 65 be
       -0.38113332 -0.21954036 0.004951781 -0.22392051
0002c0 45 51 89 be 01 89 f1 bd b4 f5 b9 be c5 a1 c0 be
       -0.26819816 -0.117937095 -0.3632027 -0.3762342
0002d0 5c ac a8 be 20 17 0f bf 40 48 51 bd 14 e9 a1 be
       -0.32944 -0.5589466 -0.051094294 -0.31623137
0002e0 ec aa c2 be b3 18 35 3e f3 d2 db bc 2d b0 4d 3e
       -0.38021028 0.17685203 -0.026833987 0.20086737
0002f0 b5 07 8a be 5f 1f e8 3c 55 0f 63 be 50 fa 84 bd
       -0.26959005 0.028335271 -0.22173817 -0.06493056
000300 18 ae 62 be 2b 97 dd bd eb f1 0b 3e a2 07 44 bc
       -0.22136724 -0.108198486 0.13666503 -0.01196471
000310 18 c4 58 3e 90 d8 93 3e 36 af 20 3e d2 10 92 bd
       0.21168554 0.28876162 0.15691838 -0.071321145
000320 0d 66 87 bd d7 9b 29 3c 24 a3 38 3d 79 20 88 3e
       -0.066112615 0.0103520965 0.045077458 0.26587275
000330 9c 75 96 be c6 5b 08 bf 0f 43 50 be 61 b2 a0 bb
       -0.29386604 -0.53265035 -0.20338081 -0.004904077
000340 70 43 34 bd e0 f8 56 be 86 b1 f0 bd 87 11 43 bc
       -0.044009626 -0.20993376 -0.1175261 -0.011906034
000350 3e 5f 5e bd 04 51 26 be ab 0e 23 be 2b 9e 2a be
       -0.05429005 -0.16241843 -0.15923564 -0.16661899
000360 26 c1 8f 3e 32 5c 41 bd 9b 0e 92 3d 80 eb 79 3e
       0.28077048 -0.047207065 0.07131692 0.24406242
000370 77 53 bd bd d2 50 ec bd d3 82 44 be fb 76 78 be
       -0.09244435 -0.11538853 -0.1919053 -0.24264137
000380 fa a7 55 be ab d9 2f bd 7f 28 e4 bd 5d 7e 94 bd
       -0.20864859 -0.042932194 -0.111405365 -0.072506644
000390 78 78 28 be 1a 05 e8 3c 6c e9 40 3b da 01 d3 be
       -0.16452205 0.028322745 0.0029436005 -0.4121235
0003a0 f4 43 bd be c4 fd a6 3c 6c 6c 25 3d 30 bf 8b 3c
       -0.36965907 0.020384677 0.040386602 0.017058939
0003b0 1c 95 34 be 3f b3 03 be e0 d7 2b bd 97 85 eb be
       -0.17635006 -0.12861346 -0.04195392 -0.46000358
0003c0 a7 19 bc bd 7e 87 35 3e e1 6b a2 3c 63 a1 39 3d
       -0.0918458 0.17727467 0.019826831 0.045319926
0003d0 5a 18 37 be f0 78 1e bf f1 e9 e5 be 54 91 25 bd
       -0.17880383 -0.61903286 -0.44905046 -0.0404218
0003e0 35 b9 b5 bd fc 8a 99 3d c2 2c 1e 3c cc a7 3a bd
       -0.08873216 0.07497212 0.009654226 -0.04557018
0003f0 f4 6a 0f bd 36 32 b6 be 5b 4d c5 bd 02 84 c9 be
       -0.035014108 -0.35585183 -0.09633895 -0.39358526

bn1.weight f4 [400]
000000 1d c6 11 3f be 62 04 3f f4 37 a4 3e 80 16 98 3e
       0.5694292 0.5171317 0.3207394 0.29704666
000010 59 91 16 3f f8 79 ae 3d 00 59 c6 3c e7 cf 0b 3f
       0.5881553 0.085193574 0.02421236 0.5461411
000020 ed a6 61 3f c8 ee a1 3d 4f 11 37 3f 96 e6 7d 3f
       0.88145334 0.07906872 0.71510786 0.9917997
000030 1e 31 f5 3e d8 c9 4e 3e 88 20 75 3e 18 6d 3f 3f
       0.47889036 0.20194185 0.23938191 0.7477584
000040 a8 6e 9a 3d 3c be d2 3e 20 0f c6 3c 4c 71 2d 3f
       0.07540637 0.41160762 0.024177134 0.67751
000050 55 b2 7b 3f 46 15 52 3f fa b4 1e 3f 10 fa dc 3d
       0.9831899 0.8206371 0.619949 0.10789883
000060 1a 72 bd 3e 04 03 3b 3f 2c f5 da 3e a4 7e 8c 3e
       0.37001115 0.73051476 0.42765176 0.2744037
000070 98 ea 17 3e 60 86 54 3e 6a 91 57 3f 35 f0 4c 3f
       0.14835584 0.20754385 0.8420626 0.80054027
000080 4b 1a 73 3f 0e ea 38 3f 5c 46 0f 3e 00 c7 c8 3c
       0.94961995 0.7223214 0.13991684 0.024508953
000090 3b 44 0e 3f 60 56 37 3e b9 9d 5e 3f f0 a5 78 3d
       0.5557286 0.17904043 0.86959416 0.060705125
0000a0 15 27 22 3f 10 ca 14 3e 43 dc 1e 3f c8 34 22 3f
       0.63340884 0.14530206 0.6205484 0.6336179
0000b0 a0 af b3 3d db 94 0f 3f 92 00 1f 3f ea 4a 75 3f
       0.08773732 0.5608651 0.62110245 0.95817435
0000c0 55 99 3b 3f 0c b9 7a 3e aa b1 18 3f c5 0a 2f 3f
       0.7328084 0.24484652 0.59646094 0.6837581
0000d0 b4 c0 32 3e 69 e4 25 3f fe 57 8d 3e d0 b6 9e 3e
       0.17456323 0.6480165 0.27606195 0.3099885
0000e0 24 22 02 3e 07 de 7c 3f 6d f9 08 3f 66 cf c8 3e
       0.12708336 0.98776287 0.53505594 0.39220732
0000f0 ad ce 09 3f 16 9c 65 3f 68 11 13 3f 25 6d 74 3f
       0.5383099 0.89691293 0.57448435 0.9547904
000100 7b 55 21 3f 8f 03 4f 3f 38 05 1b 3f 43 70 68 3f
       0.6302106 0.80864805 0.6055484 0.907963
000110 98 01 4d 3e 7c 9f 23 3f c3 52 0b 3f c6 a4 7a 3f
       0.20020139 0.6391523 0.5442316 0.97907674
000120 53 88 78 3f 64 21 64 3e f5 34 4a 3f cc 28 5b 3e
       0.97083014 0.22278363 0.78987056 0.21402282
000130 01 bc 17 3f a5 7b 2d 3f 70 76 96 3d 91 8b 60 3f
       0.59271246 0.6776679 0.07346809 0.8771296
000140 68 76 b5 3d f0 c2 09 3d d8 2b f4 3d cb 06 56 3f
       0.08860475 0.033633173 0.11922425 0.83604115
000150 18 03 72 3e 98 36 4a 3f 40 22 16 3f 00 0a a4 3d
       0.23633993 0.78989553 0.5864601 0.0800972
000160 ea 66 fb 3e 61 f2 1c 3f 54 26 c8 3e f1 e8 14 3f
       0.49101955 0.6130734 0.39091742 0.5816794
000170 fe 31 97 3e 28 6b 37 3e 8f 7c 4c 3f 98 77 4a 3f
       0.2953033 0.1791197 0.7987756 0.79088736
000180 77 56 0f 3f 78 42 c6 3e ba 32 5f 3f 25 10 0d 3f
       0.5599131 0.38722587 0.8718678 0.5510276
000190 88 1e 76 3e 31 76 1b 3f f8 f6 92 3d 3c e7 22 3f
       0.24035084 0.6072722 0.07176012 0.63634086
0001a0 af ad 6a 3f d8 10 83 3d 8c 5b e4 3e 19 3d 48 3f
       0.9167127 0.06399697 0.44601095 0.7821823
0001b0 c0 9b 47 3d 58 05 bc 3e f4 ac b8 3e cc 58 98 3e
       0.04873252 0.36722827 0.36069453 0.29755247
0001c0 58 fa 40 3e 0e 2d ba 3e 18 6e a7 3e 77 4c 68 3f
       0.18845499 0.363625 0.32701182 0.90741676
0001d0 f8 2b 2f 3f e0 14 6e 3f 2d db 15 3f e0 8b f6 3c
       0.68426466 0.930006 0.5853756 0.030095994
0001e0 7b 16 45 3f fd e6 0a 3f 6a 48 3f 3f d5 d4 23 3f
       0.7698743 0.5425871 0.7471987 0.6399663
0001f0 01 a8 7f 3f 8c a8 8a 3e 3b 5d 75 3f b4 03 9e 3e
       0.9986573 0.27081716 0.95845383 0.308622
000200 68 bd 54 3e 49 c2 11 3f e2 18 59 3f 74 ca 24 3f
       0.20775378 0.5693708 0.84803593 0.6437142
000210 ea ac bf 3e 4f ab 31 3f 7c 02 f4 3e 40 76 0d 3f
       0.3743661 0.6940202 0.47658145 0.5525856
000220 69 19 1d 3f 9e db fa 3e f5 07 69 3f c9 6f 78 3f
       0.613669 0.4899568 0.91027766 0.9704557
000230 74 aa 16 3e be de 78 3f 00 3c 15 3c 09 bf 09 3f
       0.1471346 0.9721488 0.009108543 0.5380712
000240 e8 2f ef 3d 22 9e 03 3f e4 9a 04 3f 77 a8 1a 3f
       0.11679059 0.51413167 0.51798844 0.60413307
000250 01 48 5c 3f df 5e 49 3f 33 fe 0a 3f 11 0f 0d 3f
       0.8604737 0.78660387 0.5429413 0.55101115
000260 ce 8c ab 3e fa 30 6d 3f 4c 72 bd 3e 48 35 ec 3d
       0.33505863 0.9265286 0.37001264 0.115336
000270 85 9e 64 3f 17 31 07 3f 74 67 46 3f 72 22 91 3e
       0.8930438 0.5280928 0.77501607 0.28346592
000280 60 f8 9d 3c fc 2b 36 3e 10 76 66 3e f6 0d f6 3e
       0.019283473 0.17790216 0.22505975 0.48057526
000290 40 01 d0 3d 8a 32 18 3f 3e 3c 6d 3f 8c 09 26 3f
       0.101564884 0.59452116 0.9267005 0.6485832
0002a0 4c 83 29 3e 2f 98 0b 3f 6c 98 93 3e c0 dc 64 3e
       0.16553992 0.5452909 0.28827226 0.22349834
0002b0 1f 7b 5f 3f 96 91 ec 3e 34 36 69 3f 70 5e 0e 3e
       0.8729724 0.46204823 0.9109833 0.13903213
0002c0 95 28 14 3f dc bb 7d 3e 40 ea e1 3d e0 a2 b5 3d
       0.57874423 0.24778694 0.11031008 0.088689566
0002d0 73 72 31 3f 0d 7a 77 3f 6a bc 55 3f 98 94 f6 3d
       0.6931526 0.9667061 0.8349062 0.12040061
0002e0 40 00 ae 3d 70 1f ed 3e bc 7c a7 3e a0 0d 61 3d
       0.084961414 0.46313047 0.32712352 0.054944634
0002f0 26 b5 91 3e f0 fb 96 3e 88 4c 0d 3e df 4d 5d 3f
       0.28458518 0.29489088 0.13798726 0.86446947
000300 8a 00 ce 3e 00 e9 4c 3b e0 c2 66 3e c4 b4 d5 3e
       0.40234786 0.0031266809 0.22535276 0.41739476
000310 b8 aa 97 3e 87 82 1c 3f 6f fc 5c 3f 54 e7 11 3f
       0.29622436 0.6113667 0.86322683 0.56993604
000320 c4 0d 71 3f 1f ee 50 3f 02 c7 1b 3f 0c 55 9e 3e
       0.9416163 0.81613344 0.60850537 0.3092426
000330 40 fa 42 3d 4a e4 2e 3f 14 c5 62 3e 11 8c 1d 3f
       0.04760194 0.6831709 0.22145492 0.6154185
000340 14 4a b6 3e dc f2 aa 3e 11 7f 46 3f b5 7e 27 3f
       0.35603392 0.33388412 0.7753764 0.65427715
000350 34 51 4b 3f 1b ab 5b 3f 14 54 ea 3e d8 c3 2a 3f
       0.7942078 0.8580796 0.45767272 0.66705084
000360 92 a2 21 3f 90 6e 58 3f 29 16 28 3f 76 6c 38 3f
       0.6313869 0.84543705 0.65658814 0.720405
000370 7f 41 57 3f c0 dd c7 3c 6e 18 81 3e 41 23 38 3f
       0.84084314 0.02439773 0.2521395 0.71928793
000380 53 81 08 3f e4 c8 38 3e 60 24 90 3c 46 41 70 3f
       0.53322333 0.18045384 0.01759547 0.938496
000390 8c 2d 16 3e 40 96 50 3f f1 9b 0c 3f c5 d9 6b 3f
       0.14665812 0.81479263 0.5492545 0.92129165
0003a0 4c cc 1e 3f 5c 52 69 3e d4 54 0a 3f a8 a1 46 3f
       0.6203048 0.22785324 0.5403569 0.7759042
0003b0 4d c8 04 3f 32 ce aa 3e 40 a3 aa 3d b4 01 55 3f
       0.51868135 0.3336044 0.08331919 0.83205724
0003c0 08 20 c5 3e 6d cb 78 3f c4 ca 10 3e 79 1c 35 3f
       0.38501 0.97185403 0.14139849 0.7074657
0003d0 ca be 73 3f b3 e5 7d 3f db f3 14 3f 1d e4 51 3f
       0.95212996 0.9917862 0.58184594 0.819887
0003e0 27 68 36 3f 64 b8 4d 3e e8 ca 0e 3f 92 ad e7 3e
       0.71252674 0.2008987 0.5577836 0.4524961
0003f0 2d 05 2b 3f 6c 2a aa 3e fe 43 d7 3e 80 55 05 3f
       0.6680477 0.3323549 0.4204406 0.5208359

bn1.bias f4 [400]
000000 00 00 00 00 00 00 00 00 00 00 00 00 00 00 00 00
       0.0 0.0 0.0 0.0
000010 00 00 00 00 00 00 00 00 00 00 00 00 00 00 00 00
       0.0 0.0 0.0 0.0
000020 00 00 00 00 00 00 00 00 00 00 00 00 00 00 00 00
       0.0 0.0 0.0 0.0
000030 00 00 00 00 00 00 00 00 00 00 00 00 00 00 00 00
       0.0 0.0 0.0 0.0
000040 00 00 00 00 00 00 00 00 00 00 00 00 00 00 00 00
       0.0 0.0 0.0 0.0
000050 00 00 00 00 00 00 00 00 00 00 00 00 00 00 00 00
       0.0 0.0 0.0 0.0
000060 00 00 00 00 00 00 00 00 00 00 00 00 00 00 00 00
       0.0 0.0 0.0 0.0
000070 00 00 00 00 00 00 00 00 00 00 00 00 00 00 00 00
       0.0 0.0 0.0 0.0
000080 00 00 00 00 00 00 00 00 00 00 00 00 00 00 00 00
       0.0 0.0 0.0 0.0
000090 00 00 00 00 00 00 00 00 00 00 00 00 00 00 00 00
       0.0 0.0 0.0 0.0
0000a0 00 00 00 00 00 00 00 00 00 00 00 00 00 00 00 00
       0.0 0.0 0.0 0.0
0000b0 00 00 00 00 00 00 00 00 00 00 00 00 00 00 00 00
       0.0 0.0 0.0 0.0
0000c0 00 00 00 00 00 00 00 00 00 00 00 00 00 00 00 00
       0.0 0.0 0.0 0.0
0000d0 00 00 00 00 00 00 00 00 00 00 00 00 00 00 00 00
       0.0 0.0 0.0 0.0
0000e0 00 00 00 00 00 00 00 00 00 00 00 00 00 00 00 00
       0.0 0.0 0.0 0.0
0000f0 00 00 00 00 00 00 00 00 00 00 00 00 00 00 00 00
       0.0 0.0 0.0 0.0
000100 00 00 00 00 00 00 00 00 00 00 00 00 00 00 00 00
       0.0 0.0 0.0 0.0
000110 00 00 00 00 00 00 00 00 00 00 00 00 00 00 00 00
       0.0 0.0 0.0 0.0
000120 00 00 00 00 00 00 00 00 00 00 00 00 00 00 00 00
       0.0 0.0 0.0 0.0
000130 00 00 00 00 00 00 00 00 00 00 00 00 00 00 00 00
       0.0 0.0 0.0 0.0
000140 00 00 00 00 00 00 00 00 00 00 00 00 00 00 00 00
       0.0 0.0 0.0 0.0
000150 00 00 00 00 00 00 00 00 00 00 00 00 00 00 00 00
       0.0 0.0 0.0 0.0
000160 00 00 00 00 00 00 00 00 00 00 00 00 00 00 00 00
       0.0 0.0 0.0 0.0
000170 00 00 00 00 00 00 00 00 00 00 00 00 00 00 00 00
       0.0 0.0 0.0 0.0
000180 00 00 00 00 00 00 00 00 00 00 00 00 00 00 00 00
       0.0 0.0 0.0 0.0
000190 00 00 00 00 00 00 00 00 00 00 00 00 00 00 00 00
       0.0 0.0 0.0 0.0
0001a0 00 00 00 00 00 00 00 00 00 00 00 00 00 00 00 00
       0.0 0.0 0.0 0.0
0001b0 00 00 00 00 00 00 00 00 00 00 00 00 00 00 00 00
       0.0 0.0 0.0 0.0
0001c0 00 00 00 00 00 00 00 00 00 00 00 00 00 00 00 00
       0.0 0.0 0.0 0.0
0001d0 00 00 00 00 00 00 00 00 00 00 00 00 00 00 00 00
       0.0 0.0 0.0 0.0
0001e0 00 00 00 00 00 00 00 00 00 00 00 00 00 00 00 00
       0.0 0.0 0.0 0.0
0001f0 00 00 00 00 00 00 00 00 00 00 00 00 00 00 00 00
       0.0 0.0 0.0 0.0
000200 00 00 00 00 00 00 00 00 00 00 00 00 00 00 00 00
       0.0 0.0 0.0 0.0
000210 00 00 00 00 00 00 00 00 00 00 00 00 00 00 00 00
       0.0 0.0 0.0 0.0
000220 00 00 00 00 00 00 00 00 00 00 00 00 00 00 00 00
       0.0 0.0 0.0 0.0
000230 00 00 00 00 00 00 00 00 00 00 00 00 00 00 00 00
       0.0 0.0 0.0 0.0
000240 00 00 00 00 00 00 00 00 00 00 00 00 00 00 00 00
       0.0 0.0 0.0 0.0
000250 00 00 00 00 00 00 00 00 00 00 00 00 00 00 00 00
       0.0 0.0 0.0 0.0
000260 00 00 00 00 00 00 00 00 00 00 00 00 00 00 00 00
       0.0 0.0 0.0 0.0
000270 00 00 00 00 00 00 00 00 00 00 00 00 00 00 00 00
       0.0 0.0 0.0 0.0
000280 00 00 00 00 00 00 00 00 00 00 00 00 00 00 00 00
       0.0 0.0 0.0 0.0
000290 00 00 00 00 00 00 00 00 00 00 00 00 00 00 00 00
       0.0 0.0 0.0 0.0
0002a0 00 00 00 00 00 00 00 00 00 00 00 00 00 00 00 00
       0.0 0.0 0.0 0.0
0002b0 00 00 00 00 00 00 00 00 00 00 00 00 00 00 00 00
       0.0 0.0 0.0 0.0
0002c0 00 00 00 00 00 00 00 00 00 00 00 00 00 00 00 00
       0.0 0.0 0.0 0.0
0002d0 00 00 00 00 00 00 00 00 00 00 00 00 00 00 00 00
       0.0 0.0 0.0 0.0
0002e0 00 00 00 00 00 00 00 00 00 00 00 00 00 00 00 00
       0.0 0.0 0.0 0.0
0002f0 00 00 00 00 00 00 00 00 00 00 00 00 00 00 00 00
       0.0 0.0 0.0 0.0
000300 00 00 00 00 00 00 00 00 00 00 00 00 00 00 00 00
       0.0 0.0 0.0 0.0
000310 00 00 00 00 00 00 00 00 00 00 00 00 00 00 00 00
       0.0 0.0 0.0 0.0
000320 00 00 00 00 00 00 00 00 00 00 00 00 00 00 00 00
       0.0 0.0 0.0 0.0
000330 00 00 00 00 00 00 00 00 00 00 00 00 00 00 00 00
       0.0 0.0 0.0 0.0
000340 00 00 00 00 00 00 00 00 00 00 00 00 00 00 00 00
       0.0 0.0 0.0 0.0
000350 00 00 00 00 00 00 00 00 00 00 00 00 00 00 00 00
       0.0 0.0 0.0 0.0
000360 00 00 00 00 00 00 00 00 00 00 00 00 00 00 00 00
       0.0 0.0 0.0 0.0
000370 00 00 00 00 00 00 00 00 00 00 00 00 00 00 00 00
       0.0 0.0 0.0 0.0
000380 00 00 00 00 00 00 00 00 00 00 00 00 00 00 00 00
       0.0 0.0 0.0 0.0
000390 00 00 00 00 00 00 00 00 00 00 00 00 00 00 00 00
       0.0 0.0 0.0 0.0
0003a0 00 00 00 00 00 00 00 00 00 00 00 00 00 00 00 00
       0.0 0.0 0.0 0.0
0003b0 00 00 00 00 00 00 00 00 00 00 00 00 00 00 00 00
       0.0 0.0 0.0 0.0
0003c0 00 00 00 00 00 00 00 00 00 00 00 00 00 00 00 00
       0.0 0.0 0.0 0.0
0003d0 00 00 00 00 00 00 00 00 00 00 00 00 00 00 00 00
       0.0 0.0 0.0 0.0
0003e0 00 00 00 00 00 00 00 00 00 00 00 00 00 00 00 00
       0.0 0.0 0.0 0.0
0003f0 00 00 00 00 00 00 00 00 00 00 00 00 00 00 00 00
       0.0 0.0 0.0 0.0

bn1.running_mean f4 [400]
000000 00 00 00 00 00 00 00 00 00 00 00 00 00 00 00 00
       0.0 0.0 0.0 0.0
000010 00 00 00 00 00 00 00 00 00 00 00 00 00 00 00 00
       0.0 0.0 0.0 0.0
000020 00 00 00 00 00 00 00 00 00 00 00 00 00 00 00 00
       0.0 0.0 0.0 0.0
000030 00 00 00 00 00 00 00 00 00 00 00 00 00 00 00 00
       0.0 0.0 0.0 0.0
000040 00 00 00 00 00 00 00 00 00 00 00 00 00 00 00 00
       0.0 0.0 0.0 0.0
000050 00 00 00 00 00 00 00 00 00 00 00 00 00 00 00 00
       0.0 0.0 0.0 0.0
000060 00 00 00 00 00 00 00 00 00 00 00 00 00 00 00 00
       0.0 0.0 0.0 0.0
000070 00 00 00 00 00 00 00 00 00 00 00 00 00 00 00 00
       0.0 0.0 0.0 0.0
000080 00 00 00 00 00 00 00 00 00 00 00 00 00 00 00 00
       0.0 0.0 0.0 0.0
000090 00 00 00 00 00 00 00 00 00 00 00 00 00 00 00 00
       0.0 0.0 0.0 0.0
0000a0 00 00 00 00 00 00 00 00 00 00 00 00 00 00 00 00
       0.0 0.0 0.0 0.0
0000b0 00 00 00 00 00 00 00 00 00 00 00 00 00 00 00 00
       0.0 0.0 0.0 0.0
0000c0 00 00 00 00 00 00 00 00 00 00 00 00 00 00 00 00
       0.0 0.0 0.0 0.0
0000d0 00 00 00 00 00 00 00 00 00 00 00 00 00 00 00 00
       0.0 0.0 0.0 0.0
0000e0 00 00 00 00 00 00 00 00 00 00 00 00 00 00 00 00
       0.0 0.0 0.0 0.0
0000f0 00 00 00 00 00 00 00 00 00 00 00 00 00 00 00 00
       0.0 0.0 0.0 0.0
000100 00 00 00 00 00 00 00 00 00 00 00 00 00 00 00 00
       0.0 0.0 0.0 0.0
000110 00 00 00 00 00 00 00 00 00 00 00 00 00 00 00 00
       0.0 0.0 0.0 0.0
000120 00 00 00 00 00 00 00 00 00 00 00 00 00 00 00 00
       0.0 0.0 0.0 0.0
000130 00 00 00 00 00 00 00 00 00 00 00 00 00 00 00 00
       0.0 0.0 0.0 0.0
000140 00 00 00 00 00 00 00 00 00 00 00 00 00 00 00 00
       0.0 0.0 0.0 0.0
000150 00 00 00 00 00 00 00 00 00 00 00 00 00 00 00 00
       0.0 0.0 0.0 0.0
000160 00 00 00 00 00 00 00 00 00 00 00 00 00 00 00 00
       0.0 0.0 0.0 0.0
000170 00 00 00 00 00 00 00 00 00 00 00 00 00 00 00 00
       0.0 0.0 0.0 0.0
000180 00 00 00 00 00 00 00 00 00 00 00 00 00 00 00 00
       0.0 0.0 0.0 0.0
000190 00 00 00 00 00 00 00 00 00 00 00 00 00 00 00 00
       0.0 0.0 0.0 0.0
0001a0 00 00 00 00 00 00 00 00 00 00 00 00 00 00 00 00
       0.0 0.0 0.0 0.0
0001b0 00 00 00 00 00 00 00 00 00 00 00 00 00 00 00 00
       0.0 0.0 0.0 0.0
0001c0 00 00 00 00 00 00 00 00 00 00 00 00 00 00 00 00
       0.0 0.0 0.0 0.0
0001d0 00 00 00 00 00 00 00 00 00 00 00 00 00 00 00 00
       0.0 0.0 0.0 0.0
0001e0 00 00 00 00 00 00 00 00 00 00 00 00 00 00 00 00
       0.0 0.0 0.0 0.0
0001f0 00 00 00 00 00 00 00 00 00 00 00 00 00 00 00 00
       0.0 0.0 0.0 0.0
000200 00 00 00 00 00 00 00 00 00 00 00 00 00 00 00 00
       0.0 0.0 0.0 0.0
000210 00 00 00 00 00 00 00 00 00 00 00 00 00 00 00 00
       0.0 0.0 0.0 0.0
000220 00 00 00 00 00 00 00 00 00 00 00 00 00 00 00 00
       0.0 0.0 0.0 0.0
000230 00 00 00 00 00 00 00 00 00 00 00 00 00 00 00 00
       0.0 0.0 0.0 0.0
000240 00 00 00 00 00 00 00 00 00 00 00 00 00 00 00 00
       0.0 0.0 0.0 0.0
000250 00 00 00 00 00 00 00 00 00 00 00 00 00 00 00 00
       0.0 0.0 0.0 0.0
000260 00 00 00 00 00 00 00 00 00 00 00 00 00 00 00 00
       0.0 0.0 0.0 0.0
000270 00 00 00 00 00 00 00 00 00 00 00 00 00 00 00 00
       0.0 0.0 0.0 0.0
000280 00 00 00 00 00 00 00 00 00 00 00 00 00 00 00 00
       0.0 0.0 0.0 0.0
000290 00 00 00 00 00 00 00 00 00 00 00 00 00 00 00 00
       0.0 0.0 0.0 0.0
0002a0 00 00 00 00 00 00 00 00 00 00 00 00 00 00 00 00
       0.0 0.0 0.0 0.0
0002b0 00 00 00 00 00 00 00 00 00 00 00 00 00 00 00 00
       0.0 0.0 0.0 0.0
0002c0 00 00 00 00 00 00 00 00 00 00 00 00 00 00 00 00
       0.0 0.0 0.0 0.0
0002d0 00 00 00 00 00 00 00 00 00 00 00 00 00 00 00 00
       0.0 0.0 0.0 0.0
0002e0 00 00 00 00 00 00 00 00 00 00 00 00 00 00 00 00
       0.0 0.0 0.0 0.0
0002f0 00 00 00 00 00 00 00 00 00 00 00 00 00 00 00 00
       0.0 0.0 0.0 0.0
000300 00 00 00 00 00 00 00 00 00 00 00 00 00 00 00 00
       0.0 0.0 0.0 0.0
000310 00 00 00 00 00 00 00 00 00 00 00 00 00 00 00 00
       0.0 0.0 0.0 0.0
000320 00 00 00 00 00 00 00 00 00 00 00 00 00 00 00 00
       0.0 0.0 0.0 0.0
000330 00 00 00 00 00 00 00 00 00 00 00 00 00 00 00 00
       0.0 0.0 0.0 0.0
000340 00 00 00 00 00 00 00 00 00 00 00 00 00 00 00 00
       0.0 0.0 0.0 0.0
000350 00 00 00 00 00 00 00 00 00 00 00 00 00 00 00 00
       0.0 0.0 0.0 0.0
000360 00 00 00 00 00 00 00 00 00 00 00 00 00 00 00 00
       0.0 0.0 0.0 0.0
000370 00 00 00 00 00 00 00 00 00 00 00 00 00 00 00 00
       0.0 0.0 0.0 0.0
000380 00 00 00 00 00 00 00 00 00 00 00 00 00 00 00 00
       0.0 0.0 0.0 0.0
000390 00 00 00 00 00 00 00 00 00 00 00 00 00 00 00 00
       0.0 0.0 0.0 0.0
0003a0 00 00 00 00 00 00 00 00 00 00 00 00 00 00 00 00
       0.0 0.0 0.0 0.0
0003b0 00 00 00 00 00 00 00 00 00 00 00 00 00 00 00 00
       0.0 0.0 0.0 0.0
0003c0 00 00 00 00 00 00 00 00 00 00 00 00 00 00 00 00
       0.0 0.0 0.0 0.0
0003d0 00 00 00 00 00 00 00 00 00 00 00 00 00 00 00 00
       0.0 0.0 0.0 0.0
0003e0 00 00 00 00 00 00 00 00 00 00 00 00 00 00 00 00
       0.0 0.0 0.0 0.0
0003f0 00 00 00 00 00 00 00 00 00 00 00 00 00 00 00 00
       0.0 0.0 0.0 0.0

bn1.running_var f4 [400]
000000 00 00 80 3f 00 00 80 3f 00 00 80 3f 00 00 80 3f
       1.0 1.0 1.0 1.0
000010 00 00 80 3f 00 00 80 3f 00 00 80 3f 00 00 80 3f
       1.0 1.0 1.0 1.0
000020 00 00 80 3f 00 00 80 3f 00 00 80 3f 00 00 80 3f
       1.0 1.0 1.0 1.0
000030 00 00 80 3f 00 00 80 3f 00 00 80 3f 00 00 80 3f
       1.0 1.0 1.0 1.0
000040 00 00 80 3f 00 00 80 3f 00 00 80 3f 00 00 80 3f
       1.0 1.0 1.0 1.0
000050 00 00 80 3f 00 00 80 3f 00 00 80 3f 00 00 80 3f
       1.0 1.0 1.0 1.0
000060 00 00 80 3f 00 00 80 3f 00 00 80 3f 00 00 80 3f
       1.0 1.0 1.0 1.0
000070 00 00 80 3f 00 00 80 3f 00 00 80 3f 00 00 80 3f
       1.0 1.0 1.0 1.0
000080 00 00 80 3f 00 00 80 3f 00 00 80 3f 00 00 80 3f
       1.0 1.0 1.0 1.0
000090 00 00 80 3f 00 00 80 3f 00 00 80 3f 00 00 80 3f
       1.0 1.0 1.0 1.0
0000a0 00 00 80 3f 00 00 80 3f 00 00 80 3f 00 00 80 3f
       1.0 1.0 1.0 1.0
0000b0 00 00 80 3f 00 00 80 3f 00 00 80 3f 00 00 80 3f
       1.0 1.0 1.0 1.0
0000c0 00 00 80 3f 00 00 80 3f 00 00 80 3f 00 00 80 3f
       1.0 1.0 1.0 1.0
0000d0 00 00 80 3f 00 00 80 3f 00 00 80 3f 00 00 80 3f
       1.0 1.0 1.0 1.0
0000e0 00 00 80 3f 00 00 80 3f 00 00 80 3f 00 00 80 3f
       1.0 1.0 1.0 1.0
0000f0 00 00 80 3f 00 00 80 3f 00 00 80 3f 00 00 80 3f
       1.0 1.0 1.0 1.0
000100 00 00 80 3f 00 00 80 3f 00 00 80 3f 00 00 80 3f
       1.0 1.0 1.0 1.0
000110 00 00 80 3f 00 00 80 3f 00 00 80 3f 00 00 80 3f
       1.0 1.0 1.0 1.0
000120 00 00 80 3f 00 00 80 3f 00 00 80 3f 00 00 80 3f
       1.0 1.0 1.0 1.0
000130 00 00 80 3f 00 00 80 3f 00 00 80 3f 00 00 80 3f
       1.0 1.0 1.0 1.0
000140 00 00 80 3f 00 00 80 3f 00 00 80 3f 00 00 80 3f
       1.0 1.0 1.0 1.0
000150 00 00 80 3f 00 00 80 3f 00 00 80 3f 00 00 80 3f
       1.0 1.0 1.0 1.0
000160 00 00 80 3f 00 00 80 3f 00 00 80 3f 00 00 80 3f
       1.0 1.0 1.0 1.0
000170 00 00 80 3f 00 00 80 3f 00 00 80 3f 00 00 80 3f
       1.0 1.0 1.0 1.0
000180 00 00 80 3f 00 00 80 3f 00 00 80 3f 00 00 80 3f
       1.0 1.0 1.0 1.0
000190 00 00 80 3f 00 00 80 3f 00 00 80 3f 00 00 80 3f
       1.0 1.0 1.0 1.0
0001a0 00 00 80 3f 00 00 80 3f 00 00 80 3f 00 00 80 3f
       1.0 1.0 1.0 1.0
0001b0 00 00 80 3f 00 00 80 3f 00 00 80 3f 00 00 80 3f
       1.0 1.0 1.0 1.0
0001c0 00 00 80 3f 00 00 80 3f 00 00 80 3f 00 00 80 3f
       1.0 1.0 1.0 1.0
0001d0 00 00 80 3f 00 00 80 3f 00 00 80 3f 00 00 80 3f
       1.0 1.0 1.0 1.0
0001e0 00 00 80 3f 00 00 80 3f 00 00 80 3f 00 00 80 3f
       1.0 1.0 1.0 1.0
0001f0 00 00 80 3f 00 00 80 3f 00 00 80 3f 00 00 80 3f
       1.0 1.0 1.0 1.0
000200 00 00 80 3f 00 00 80 3f 00 00 80 3f 00 00 80 3f
       1.0 1.0 1.0 1.0
000210 00 00 80 3f 00 00 80 3f 00 00 80 3f 00 00 80 3f
       1.0 1.0 1.0 1.0
000220 00 00 80 3f 00 00 80 3f 00 00 80 3f 00 00 80 3f
       1.0 1.0 1.0 1.0
000230 00 00 80 3f 00 00 80 3f 00 00 80 3f 00 00 80 3f
       1.0 1.0 1.0 1.0
000240 00 00 80 3f 00 00 80 3f 00 00 80 3f 00 00 80 3f
       1.0 1.0 1.0 1.0
000250 00 00 80 3f 00 00 80 3f 00 00 80 3f 00 00 80 3f
       1.0 1.0 1.0 1.0
000260 00 00 80 3f 00 00 80 3f 00 00 80 3f 00 00 80 3f
       1.0 1.0 1.0 1.0
000270 00 00 80 3f 00 00 80 3f 00 00 80 3f 00 00 80 3f
       1.0 1.0 1.0 1.0
000280 00 00 80 3f 00 00 80 3f 00 00 80 3f 00 00 80 3f
       1.0 1.0 1.0 1.0
000290 00 00 80 3f 00 00 80 3f 00 00 80 3f 00 00 80 3f
       1.0 1.0 1.0 1.0
0002a0 00 00 80 3f 00 00 80 3f 00 00 80 3f 00 00 80 3f
       1.0 1.0 1.0 1.0
0002b0 00 00 80 3f 00 00 80 3f 00 00 80 3f 00 00 80 3f
       1.0 1.0 1.0 1.0
0002c0 00 00 80 3f 00 00 80 3f 00 00 80 3f 00 00 80 3f
       1.0 1.0 1.0 1.0
0002d0 00 00 80 3f 00 00 80 3f 00 00 80 3f 00 00 80 3f
       1.0 1.0 1.0 1.0
0002e0 00 00 80 3f 00 00 80 3f 00 00 80 3f 00 00 80 3f
       1.0 1.0 1.0 1.0
0002f0 00 00 80 3f 00 00 80 3f 00 00 80 3f 00 00 80 3f
       1.0 1.0 1.0 1.0
000300 00 00 80 3f 00 00 80 3f 00 00 80 3f 00 00 80 3f
       1.0 1.0 1.0 1.0
000310 00 00 80 3f 00 00 80 3f 00 00 80 3f 00 00 80 3f
       1.0 1.0 1.0 1.0
000320 00 00 80 3f 00 00 80 3f 00 00 80 3f 00 00 80 3f
       1.0 1.0 1.0 1.0
000330 00 00 80 3f 00 00 80 3f 00 00 80 3f 00 00 80 3f
       1.0 1.0 1.0 1.0
000340 00 00 80 3f 00 00 80 3f 00 00 80 3f 00 00 80 3f
       1.0 1.0 1.0 1.0
000350 00 00 80 3f 00 00 80 3f 00 00 80 3f 00 00 80 3f
       1.0 1.0 1.0 1.0
000360 00 00 80 3f 00 00 80 3f 00 00 80 3f 00 00 80 3f
       1.0 1.0 1.0 1.0
000370 00 00 80 3f 00 00 80 3f 00 00 80 3f 00 00 80 3f
       1.0 1.0 1.0 1.0
000380 00 00 80 3f 00 00 80 3f 00 00 80 3f 00 00 80 3f
       1.0 1.0 1.0 1.0
000390 00 00 80 3f 00 00 80 3f 00 00 80 3f 00 00 80 3f
       1.0 1.0 1.0 1.0
0003a0 00 00 80 3f 00 00 80 3f 00 00 80 3f 00 00 80 3f
       1.0 1.0 1.0 1.0
0003b0 00 00 80 3f 00 00 80 3f 00 00 80 3f 00 00 80 3f
       1.0 1.0 1.0 1.0
0003c0 00 00 80 3f 00 00 80 3f 00 00 80 3f 00 00 80 3f
       1.0 1.0 1.0 1.0
0003d0 00 00 80 3f 00 00 80 3f 00 00 80 3f 00 00 80 3f
       1.0 1.0 1.0 1.0
0003e0 00 00 80 3f 00 00 80 3f 00 00 80 3f 00 00 80 3f
       1.0 1.0 1.0 1.0
0003f0 00 00 80 3f 00 00 80 3f 00 00 80 3f 00 00 80 3f
       1.0 1.0 1.0 1.0

fc2.weight f4 [300, 400]
000000 33 f1 50 bd d5 e6 ba be e5 f1 e2 bc 6e 1a 97 bd
       -0.051011276 -0.36504236 -0.027703235 -0.07378088
000010 d0 58 26 3c d6 a0 1f 3d 01 1e c0 bc 3d af 35 3e
       0.0101530105 0.038971744 -0.023451807 0.1774263
000020 71 02 66 be 5d 60 4a 3d 1b fd 6f 3b 31 cc 1b be
       -0.22461869 0.049408305 0.0036619368 -0.15214612
000030 22 4a 89 be 43 58 23 be a0 fe 95 be d4 dc 9f bd
       -0.2681437 -0.15951638 -0.29295826 -0.078057915
000040 a4 df 34 3e de e6 dd 3d 85 3c 6c be f1 8a 5a 3d
       0.17663437 0.1083505 -0.23069961 0.05335516
000050 d9 c3 e2 bd 40 54 53 bd 61 d1 20 3e f0 9f 3a be
       -0.11072511 -0.05159402 0.15704872 -0.18225074
000060 b9 04 99 3d d5 61 ce 3d 53 5d 44 bc bd d8 10 be
       0.07471604 0.10077254 -0.011985141 -0.14145179
000070 ee ff ac be b5 b9 44 be 9d b5 e2 3d e5 44 3f 3e
       -0.3378901 -0.19211467 0.11069796 0.18678625
000080 ff f7 40 bd 1a d8 a0 bc 5d a0 92 3c c8 e5 4a 3e
       -0.047111508 -0.019634295 0.017898733 0.19814217
000090 a5 4b 6e 3d 2d 5f 93 3c f1 81 1a 3e 6d 5a a9 bd
       0.05817761 0.01798972 0.15088631 -0.082692005
0000a0 15 6a 87 be 4b 4d b8 bc 34 55 de 3b cf e4 8e 3d
       -0.26448122 -0.022497794 0.0067850593 0.069772355
0000b0 e8 b9 e4 3d e6 67 99 be 94 7c 82 bd e6 bb 96 3d
       0.11168271 -0.2996208 -0.06371418 0.073600575
0000c0 03 cc 0b bd 1f 89 fd bd 63 98 00 bf a2 bf 39 ba
       -0.034130108 -0.123796694 -0.50232524 -0.00070857455
0000d0 ad d9 30 bd 7c e4 5a be 59 fa 7a 3d f9 3d ad bd
       -0.04317634 -0.21376222 0.061273906 -0.08459086
0000e0 cf 24 f8 bd fa 35 69 bd 89 4a 2b be 69 f2 09 be
       -0.12116396 -0.05693624 -0.16727652 -0.13471378
0000f0 ed d1 68 be 1b 49 9f bd 39 15 b5 3d 9e 90 99 bc
       -0.2273633 -0.07777616 0.088419385 -0.018745717
000100 bf 79 62 bc 2d 58 42 be c2 8e 69 bc 58 49 08 3d
       -0.013822972 -0.18978949 -0.0142552275 0.03327307
000110 ef d9 c7 bd b9 4f 43 3e dd 2c d7 3b 74 b5 d8 bc
       -0.097583644 0.1907338 0.0065666274 -0.026453711
000120 35 95 53 be e1 a2 2a be 84 e6 38 3e 32 d7 6d be
       -0.20662387 -0.16663696 0.18056685 -0.23226622
000130 c1 17 d6 bd 9b 9f 5c be a4 23 cf bd 63 6c 32 be
       -0.104537494 -0.2154526 -0.1011422 -0.17424159
000140 37 21 cd 3d a2 36 bb 3c f9 a8 4f bc b3 6f ae 3c
       0.10016101 0.0228532 -0.012674564 0.021293497
000150 e7 03 ea 3c 4b 34 07 bd 07 78 16 be 76 03 9a be
       0.028566314 -0.033008855 -0.14694224 -0.30080765
000160 35 cd ac bd 0f 5a be bd 81 07 cf bd 7d 45 b0 3c
       -0.08437578 -0.09294521 -0.10108853 0.02151751
000170 9d 50 4e bf 9e bc 03 3d 75 e5 5f 3e 76 9b 48 be
       -0.80591756 0.0321623 0.21864875 -0.19590554
000180 11 5d 32 bd 50 55 ba 3d 5b f7 92 be c5 b0 bb bd
       -0.043545786 0.09098303 -0.28704342 -0.091645755
000190 7e b7 dd bd e9 15 41 bb 5b 10 13 bd a0 46 b3 bc
       -0.10826014 -0.0029462522 -0.03590427 -0.021884263
0001a0 2e e5 2d bc ec b7 6d bb 9f 57 cd 3d a1 50 44 3e
       -0.010613723 -0.0036272956 0.10026478 0.19171382
0001b0 45 01 8d be d0 78 ae bd bb d1 80 bd 4a ff ef bd
       -0.2754003 -0.08519137 -0.06290003 -0.117186144
0001c0 96 73 c2 3d bb e3 ea bd 7a e7 5e be cc 44 cc be
       0.094947025 -0.114692174 -0.21767989 -0.39896238
0001d0 27 ba ce 3d 3d 23 68 bc f4 d3 32 bd 2b 18 c2 bc
       0.100940995 -0.014168558 -0.043659166 -0.023693165
0001e0 b0 79 a6 bd ed f2 be 3d f9 82 1a bc 3a dd 04 be
       -0.08128679 0.09323678 -0.00943064 -0.12975016
0001f0 45 ad b4 bc d6 b9 84 be 22 48 4f be ed 05 00 bf
       -0.022055278 -0.25923032 -0.2024236 -0.5000904
000200 6c fc 04 3e 3e ae 3b bd 44 32 22 be 65 ae 16 3e
       0.12986916 -0.045820467 -0.15839487 0.14714964
000210 53 62 dd bd 94 88 28 be b6 e7 03 3e cb eb 14 be
       -0.108097695 -0.1645835 0.1288136 -0.14543073
000220 14 16 60 bd 19 85 98 be dc 7c ac ba 66 59 17 be
       -0.054708555 -0.29789045 -0.001315977 -0.14780197
000230 d4 5c 5b 3d 52 5e 9d bd 12 8e 32 be 49 1c 20 3e
       0.053555325 -0.07684006 -0.17437008 0.1563579
000240 c6 3f f1 bd fc 4d 84 be 55 bf 73 bd e0 2e 67 bd
       -0.11779742 -0.25840747 -0.05950864 -0.056441188
000250 f6 db d8 bb d3 a7 5f be 2b 35 63 be ee f6 3b 3e
       -0.0066180183 -0.21841364 -0.2218825 0.18355915
000260 f7 18 ce be 2c d2 1f be 75 32 ce bd 96 6d d1 bd
       -0.40253422 -0.15607518 -0.10068218 -0.1022598
000270 c5 d6 c9 3d 85 d2 c6 3d 0b 04 e1 bc a2 60 bb bd
       0.09855417 0.09708122 -0.027467748 -0.091492906
000280 05 cb 32 3e f5 f1 54 3e 52 8e a6 bb 48 79 a3 3d
       0.17460258 0.20795424 -0.005082884 0.07982117
000290 d8 f7 34 bd f0 c8 98 3d 99 6c 97 be 87 3f c5 bd
       -0.044181675 0.07460201 -0.2957504 -0.096312575
0002a0 70 db 31 be 09 da 94 3c 6c 47 13 3e e1 d4 7a bc
       -0.17368865 0.018170374 0.14382714 -0.015309543
0002b0 7d 52 fa bd c4 44 96 3c 18 17 57 be 29 09 45 be
       -0.12222765 0.018343337 -0.21004903 -0.19241776
0002c0 fd 6c e7 bd 3c 67 57 be 86 92 fb bd 7e a9 37 bd
       -0.11300085 -0.21035475 -0.122838065 -0.044839375
0002d0 12 3a 8b bc be 0d ca 3c 8c 28 71 3e a4 57 ff bd
       -0.016995464 0.024664756 0.23550624 -0.12467888
0002e0 05 ff 70 3d 32 36 d4 bd 81 60 03 be 2c 39 5c be
       0.058836956 -0.103618994 -0.12829782 -0.21506184
0002f0 05 ce 54 3d a7 0e 66 be 1a 56 87 bd 54 29 ba bd
       0.051954288 -0.22466527 -0.066082194 -0.09089914
000300 2f ee d4 3d 17 b8 0d be 25 9f 90 be ef 38 f7 be
       0.103969924 -0.13839756 -0.28246418 -0.48285624
000310 27 2b 11 bd b3 86 25 be fe 6a 83 bd 14 a1 1c be
       -0.035441544 -0.16164665 -0.064168915 -0.15295821
000320 5b e0 ff 3c 05 62 64 bd 4f 7b 8c 3d 01 a4 92 3d
       0.03123491 -0.05575754 0.06859457 0.071601875
000330 1a 54 06 be 98 08 b0 3d 3b bf 9a bd 04 b8 cb 3d
       -0.1311802 0.08595389 -0.075560056 0.099472076
000340 13 eb ed 3c 78 1e a2 3d 69 67 09 be 44 ab 00 be
       0.029042756 0.07915968 -0.13418354 -0.12565333
000350 ae 96 ae be 1a 67 5c bd fa 28 91 bd f4 44 86 3a
       -0.34099334 -0.053809263 -0.07087894 0.0010243938
000360 90 f8 a8 3e fc 89 f2 bd 9b af a0 3c 1c 40 0e bd
       0.33002138 -0.11842725 0.019614985 -0.03472911
000370 25 4f dc 3d 79 c7 85 be cc 65 e8 bd 3a cd c2 bd
       0.10757283 -0.26128748 -0.11347541 -0.095118
000380 62 83 1d be 16 88 21 be fc dd 15 3e 5d a0 58 be
       -0.1538215 -0.15774569 0.14635462 -0.21154924
000390 80 6c b4 3c 8d 12 8d be 67 3d 2b 3c b1 0b 1a 3d
       0.022024393 -0.27553216 0.010451651 0.037608806
0003a0 77 3a 11 3e c5 45 69 be 0f 4f 78 be eb c5 f8 bb
       0.14182459 -0.22780521 -0.24248908 -0.007591953
0003b0 e2 cd 5a bd 93 d2 28 3e bf 84 61 bd 21 fb 17 3e
       -0.053419 0.16486578 -0.055058237 0.14841892
0003c0 a4 66 ac bd 5b 79 8b be 35 87 23 be 80 f8 22 bd
       -0.08418015 -0.27241024 -0.15969546 -0.03978777
0003d0 f3 a7 06 be 25 de 88 3d 02 d5 34 ba 4b 38 d9 bd
       -0.13150005 0.06682996 -0.0006898196 -0.1060644
0003e0 bc 4a 8c bd 53 e7 45 3e a8 0c 0b be 1c dc 5d 3d
       -0.06850192 0.19326524 -0.13579047 0.05416499
0003f0 41 53 3d bc 71 2e 9d bd f4 42 84 3d 4b 8d 8e 3d
       -0.011555494 -0.076748736 0.06458083 0.06960543

fc2.bias f4 [300]
000000 35 ce 4e 3d fd c7 40 bd 3e 46 68 be 83 c5 3b 3d
       0.050489623 -0.047065724 -0.22683045 0.04584266
000010 3a 3b 46 3e 84 d1 c2 bc 6d 2b d3 bd 66 8d 3f be
       0.1935853 -0.023781545 -0.10311017 -0.18706283
000020 6a a6 cc 3d e9 0f 9d bd bb 4b c0 bd b5 04 8a 3d
       0.099926785 -0.0766905 -0.093894444 0.06739179
000030 d4 f7 45 3e 26 b7 6a 3e cf b2 bd be 59 df be bd
       0.1933282 0.22921428 -0.37050483 -0.09319944
000040 c3 bb 58 bd 20 1c db 3b 93 04 9a be 0a 73 97 3c
       -0.05291344 0.0066867024 -0.30081615 0.018487472
000050 f5 6f 54 be 37 5b 3c be 2b c5 1b be 71 f0 4e bd
       -0.20745833 -0.1839417 -0.15211932 -0.05052227
000060 a5 ab cd 3c 71 59 96 bd d4 49 0e be de 32 a3 3d
       0.02510626 -0.07341278 -0.1389535 0.079686865
000070 a1 79 92 bd 30 c2 88 bc e8 47 76 3e 55 67 06 be
       -0.07152105 -0.016694158 0.24050868 -0.13125356
000080 67 d4 52 3d 4a 96 be bc e6 04 1d 3e 51 0f 7d bd
       0.051472094 -0.023265023 0.153339 -0.061782185
000090 d1 47 d6 bd 43 05 4e 3d 41 bf be bb c2 0b ab bc
       -0.10462917 0.050297987 -0.005821139 -0.02087963
0000a0 bf 35 10 ba 47 7b 4a bd 08 86 1a 3d 6b 3b 64 bc
       -0.0005501173 -0.049433973 0.03772548 -0.013930182
0000b0 9a d8 34 3d 6a f7 92 3d 6d c8 a6 bd 25 49 47 be
       0.04415188 0.07176097 -0.08143697 -0.19461496
0000c0 e2 88 ac bd 5e 2c 22 be a8 c1 05 bd 02 93 15 be
       -0.08424546 -0.15837237 -0.032655388 -0.1460686
0000d0 98 03 7b bd 3d bf d8 bd c8 61 44 3d fb 11 f2 bc
       -0.061282724 -0.10583351 0.047944814 -0.02954959
0000e0 61 eb 19 be 96 51 2c bd 24 7f 6f bd e2 5a af be
       -0.15031196 -0.042069994 -0.05847086 -0.34249026
0000f0 9e 59 b1 bb 15 71 56 be fb 3c e4 bc 9f 7f 7a 3d
       -0.0054122945 -0.20941575 -0.027861109 0.061156865
000100 10 8b 38 bc 78 6b 94 be 4a 20 b6 be 10 d1 d1 3c
       -0.011263624 -0.28988242 -0.3557151 0.025612384
000110 e9 e7 28 be 88 5d 17 bd e8 8c 0e bd d1 6d 93 bd
       -0.16494717 -0.036954433 -0.034802347 -0.0719868
000120 01 fc fa 3c 30 ec b9 be 31 24 97 bd 7e b2 5f 3d
       0.030637743 -0.3631301 -0.0737995 0.054613583
000130 70 5d f6 3c 04 e4 9e bb 76 16 93 3d f0 b5 77 be
       0.030073851 -0.004848959 0.071820185 -0.24190497
000140 f7 5e 9f bc 1f 67 e6 bc b8 ec 49 bc d9 75 2a bd
       -0.019454462 -0.028125344 -0.012324505 -0.041616295
000150 77 5e b2 be b7 c6 60 bc f8 f6 21 3e df 71 0e be
       -0.34837696 -0.013719252 0.15816867 -0.13910626
000160 50 49 0d bf 38 73 82 be d8 eb 9f bd 47 61 65 3d
       -0.5518999 -0.2547853 -0.078086555 0.056000974
000170 63 d8 7c bd 08 30 8a 3d d3 ca 33 bd 68 18 cd 3c
       -0.0617298 0.067474425 -0.0438946 0.025036052
000180 41 0c 1a 3e 1d f2 8c bd 71 ac 2c bd 0b bb 89 bd
       0.15043737 -0.06882117 -0.04215664 -0.06725129
000190 3a a3 39 3d 47 fc 3d 3d 55 71 66 3c 37 ff 0c be
       0.04532168 0.04638317 0.014065106 -0.13769232
0001a0 b7 9c b9 bc a0 e9 b0 bd 0d 20 4f bc 6d 4a 4c bd
       -0.022657735 -0.086383104 -0.012641919 -0.049875665
0001b0 91 c9 6a bc c5 70 31 bd 63 11 9d 3c 7e 25 16 be
       -0.014330284 -0.043320436 0.01917333 -0.1466274
0001c0 a8 48 c9 be 29 8a 75 bc ae 66 b2 3c bc 07 71 bd
       -0.39313245 -0.014986553 0.021777477 -0.058845267
0001d0 4e 41 36 3d 19 c5 33 bd fd c3 67 be 80 b0 c3 bd
       0.044495873 -0.04388914 -0.22633357 -0.09555149
0001e0 2c da e5 3b 71 7c b5 bd e9 43 8d bd c8 d4 b9 bd
       0.0070145335 -0.08861626 -0.068977185 -0.09073788
0001f0 16 0e e9 bd 7e d3 d4 bb ba 75 1a 3c 68 50 77 be
       -0.1137964 -0.0064949384 0.009427482 -0.24151766
000200 8a 8f 96 3c c1 b9 95 be d0 44 03 bd 1e 2e a3 3d
       0.018378992 -0.2924328 -0.032048047 0.079677805
000210 f3 11 a8 bd a0 9f 3c 3c 13 9c 4d be a9 47 7d bd
       -0.082065485 0.011512667 -0.20079069 -0.06183592
000220 37 af ea bd 99 c9 28 3e 93 fa 91 bd 0b bb 83 bd
       -0.11459201 0.16483153 -0.07127871 -0.0643216
000230 c6 02 de bd 1a c7 16 bd 45 f0 87 3d 55 fe 4e bd
       -0.10840373 -0.03681097 0.06637625 -0.05053552
000240 80 d4 b3 3c c4 99 29 bd c3 e9 30 bc 9b 26 cc bd
       0.021951914 -0.041406408 -0.010797921 -0.09968301
000250 1b 55 2e 3e 29 34 49 3d c8 cd 8d bd 88 50 9e bb
       0.17024653 0.04912201 -0.06924015 -0.0048313774
000260 d6 f8 85 be 6c 28 c8 bd fe 68 08 bd fb 14 88 bd
       -0.2616641 -0.09773335 -0.033303253 -0.06644627
000270 2f 0d 73 3c f3 71 e0 bc 48 df ba bd 06 16 ac 3c
       0.014834686 -0.027398085 -0.09124619 0.021006595
000280 2b 2f 21 bd 3f f6 c1 3c 37 6f 2c be 7d 1a 58 be
       -0.039351624 0.02367699 -0.168393 -0.21103854
000290 0c e3 ef bd 90 be 31 bd c1 66 b1 be 6f 2f 34 be
       -0.11713228 -0.043394625 -0.34648708 -0.1759622
0002a0 06 b5 e5 bd b3 82 db bd fc 38 95 bd c4 25 1d be
       -0.11216168 -0.10718288 -0.072862595 -0.15346438
0002b0 72 af 61 be a5 a8 a8 be f8 d0 a5 bc 4e 60 f5 3b
       -0.22039583 -0.32941166 -0.020241246 0.007488287
0002c0 ac 4d 1a be 25 10 18 bd e5 93 bf be 93 48 29 be
       -0.15068692 -0.03712477 -0.37417522 -0.16531591
0002d0 43 1f 88 be 25 44 c6 bc 79 1c ac 3c 7e 7d d1 3c
       -0.2658635 -0.024202416 0.02100967 0.025572535
0002e0 1a 71 06 bd a9 3c 40 bd 27 3e b9 bd b6 aa 79 bd
       -0.032822706 -0.04693285 -0.09045058 -0.06095382
0002f0 22 00 13 bd ef 25 8f bd 29 7d 8c be b9 00 3e be
       -0.0358888 -0.06989657 -0.2743924 -0.18554963
000300 66 3c 1f be 48 fc 41 be 8a 1c 52 bd 43 c2 68 bd
       -0.15550384 -0.18943894 -0.05129675 -0.056825887
000310 66 a3 94 bc 97 1a 7e bd 8b 0b 89 be 25 58 25 3d
       -0.01814432 -0.062037077 -0.2676662 0.040367264
000320 70 c1 3e bd 9b 72 1f bd 41 92 a2 bd b1 de 32 be
       -0.046571195 -0.038927656 -0.07938052 -0.17467763
000330 f5 b3 74 3d 1a 12 cd bd 53 42 ae bd 8e 3a b5 bd
       0.059741933 -0.10013218 -0.08508744 -0.08849059
000340 eb 08 64 bd 72 cc 9c 3d a2 1f d0 bd a8 17 93 be
       -0.055672567 0.07656182 -0.101622835 -0.28728986
000350 71 8b 6c bd d7 a8 34 3e 90 9b fc bd 31 90 1a 3e
       -0.05775017 0.17642532 -0.12334359 0.15094067
000360 d5 33 cb bd c0 8e 54 3c 16 ab 89 3e 11 32 7d bc
       -0.099219956 0.012973487 0.2688834 -0.015453831
000370 8b a4 05 be b6 dc 12 bd f2 55 20 be 96 8b 4d 3d
       -0.1305105 -0.035855018 -0.15657786 0.050181948
000380 ee 9e 52 3e 43 71 15 be 4b f9 0c bd ad c8 33 bc
       0.2056844 -0.14593987 -0.03441743 -0.010973138
000390 4c 42 12 be 9e b4 a6 bd c1 98 97 be 9f aa 5e be
       -0.14283103 -0.08139919 -0.2960873 -0.21744774
0003a0 8e 98 bd bd d2 52 0c be 27 67 c5 bc d8 98 b3 bc
       -0.09257613 -0.13703468 -0.024097038 -0.021923468
0003b0 90 8a 5f 3d f2 e7 45 be 34 52 d8 bd 71 39 88 be
       0.054575503 -0.19326761 -0.10562554 -0.26606324
0003c0 21 8e 1e 3d 4a 2c 5b 3c 0a 09 04 bd 93 8d 24 be
       0.038709763 0.013377259 -0.032235183 -0.16069631
0003d0 ce 68 ee bc d4 c4 97 bd e0 b6 83 3c 96 af 7a 3d
       -0.02910271 -0.07410589 0.016078413 0.061202608
0003e0 22 10 e9 3d 72 c8 13 bd a2 eb 4e be 81 3b c6 bc
       0.1138003 -0.03607983 -0.20207074 -0.024198296
0003f0 51 c3 27 be 62 d3 5e bd 57 82 c1 bd f1 18 95 bd
       -0.16383101 -0.05440081 -0.094486885 -0.07280148
