env_actor_local_1.pth (torch_old, 531488 bytes, 10 tensors)

fc1.weight f4 [400, 24]
0	0x3c94f105	0.018181333
1	0x3ec86886	0.39142245
2	0xbca231bb	-0.019799104
3	0xbc647942	-0.013944926
4	0xbdc1e57c	-0.09467599
5	0x3c03465f	0.008012383
6	0xbc034f6c	-0.008014541
7	0xbc7bd952	-0.015371637
8	0x3ca249a5	0.019810507
9	0x3ebdd4eb	0.37076506
10	0x3cac4762	0.021030132
11	0xbce337e6	-0.027736615
12	0x3e3b4a10	0.18289971
13	0x3e92b885	0.28656402
14	0x3cd97b0e	0.026547935
15	0xbdb133cb	-0.08652457
16	0x3d8e2f6c	0.06942639
17	0x3e9b7c55	0.30368295
18	0xbc68e936	-0.014215758
19	0x3e9ed950	0.3102517
20	0x3ebde1b5	0.37086263
21	0x3f087293	0.53299826
22	0x3a936a5a	0.0011246905
23	0x3e8afe40	0.27147102
24	0x3e3bd814	0.18344146
25	0xbdde47ab	-0.10853513
26	0xbcfae787	-0.030627979
27	0xbcbadcb2	-0.022810314
28	0xbdb29f2c	-0.08721766
29	0x3ab96d89	0.0014147024
30	0xbd18a027	-0.03726211
31	0xbd1bdace	-0.038050465
32	0x3e05d6dd	0.13070245
33	0xbe860ac0	-0.26180077
34	0x3dc0ba38	0.094105184
35	0x3e3c73c1	0.18403532
36	0x3e08b017	0.13348423
37	0x3ed9d946	0.4254858
38	0x3d89833d	0.06714485
39	0x3de6746a	0.11252673
40	0x3e6a76cf	0.22896884
41	0xbe5c969f	-0.21541832
42	0x3c0cffaa	0.008605877
43	0x3ccbdabb	0.024884572
44	0x3ea3bcbb	0.31979927
45	0x3f07791d	0.5291918
46	0x3c0e24e8	0.008675791
47	0xbd22b3d9	-0.039722297
48	0x3ed91728	0.4240048
49	0x3e9cccfe	0.30625147
50	0xbca0249b	-0.019548705
51	0xbe88a0b2	-0.266851
52	0xbe9dfdcf	-0.30857703
53	0x3d630d34	0.055432513
54	0xbd5b19cd	-0.053491402
55	0xbe77847e	-0.24171636
56	0x3e4daaf7	0.20084749
57	0x3d56f1db	0.052476745
58	0x3d779777	0.060447183
59	0xbe88c3f1	-0.2671199
60	0x3cb0a038	0.021560773
61	0x3ec645df	0.38725182
62	0xbc2d5dbd	-0.010581431
63	0xbe656226	-0.22400722
64	0x3e0caf18	0.13738668
65	0x3c901f08	0.017592922
66	0xbdc82c85	-0.097741164
67	0xbe2d581d	-0.16928144
68	0x3e30ac55	0.1725324
69	0x3ea996ad	0.3312277
70	0xbb926e5f	-0.0044687237
71	0xbe50edff	-0.20403288
72	0xbde02d7e	-0.10946177
73	0xbe737d0e	-0.23778173
74	0xbd7b87cd	-0.061408807
75	0xbe0b8cf2	-0.13627985
76	0xbe42a91a	-0.1900982
77	0xbb88f34a	-0.004179393
78	0xbdd3a7b3	-0.103347205
79	0xbd9308f5	-0.07179443
80	0xbe12732c	-0.14301747
81	0xbe57a051	-0.2105725
82	0xbdff7ad2	-0.12474598
83	0x3e0d494c	0.13797492
84	0xbe01c7b4	-0.12673837
85	0xbea700b1	-0.32617715
86	0xbd94bca9	-0.072625466
87	0x3dfd6491	0.12372697
88	0xbdd789fd	-0.10524366
89	0xbe1bc97d	-0.1521358
90	0xbd85778f	-0.065169446
91	0x3e79c410	0.24391198
92	0xbb525d22	-0.0032098969
93	0xbf363f69	-0.71190506
94	0xbd094514	-0.033513144
95	0x3e657d80	0.22411156
96	0x3e644ce6	0.2229496
97	0x3eaa8129	0.33301666
98	0x3cacf4c0	0.0211128
99	0xbe110ba7	-0.14164601
100	0x3da5b7e1	0.08091713
101	0xbf835de7	-1.0263032
102	0x3d1802a8	0.03711191
103	0xbdec56fd	-0.11540029
104	0x3dfd6fb3	0.123748206
105	0x3e26f6df	0.16305111
106	0x3d017174	0.031602338
107	0x3e1a3ddd	0.15062661
108	0x3e61e5ca	0.22060314
109	0xbeb0d703	-0.3453904
110	0x3b927c09	0.0044703525
111	0x3d9b4e3d	0.07583282
112	0xbd6b727a	-0.05748222
113	0x3e2e0fec	0.16998261
114	0x3cbe23b4	0.023210384
115	0x3ed1138d	0.4083523
116	0x3dd4d7f6	0.10392754
117	0x3f05e123	0.52296656
118	0x3cf35e14	0.029707946
119	0x3ec661e7	0.3874657
120	0x3e0ce587	0.13759433
121	0xbd7918f8	-0.060814828
122	0xbd74a710	-0.059729636
123	0x3ea09c8e	0.31369442
124	0xbe0fa473	-0.14027576
125	0xbf1547f3	-0.5831291
126	0xbde82e1b	-0.11336919
127	0x3ea781a0	0.32716084
128	0x3ea1612e	0.31519455
129	0xbda12564	-0.0786846
130	0x3df6f0f3	0.12057676
131	0xbdd9ef89	-0.10641391
132	0xbe51728b	-0.20453851
133	0xbf3cb02e	-0.7370633
134	0x3dbb090f	0.09132587
135	0xbddcf0d5	-0.107881226
136	0x3eb88c48	0.36044526
137	0xbd3377ce	-0.043815427
138	0x3dbf5b8a	0.093436316
139	0x3c9b7bb2	0.018979881
140	0xbe389d80	-0.18028831
141	0xbf3bed69	-0.73409134
142	0x3cc44a12	0.0239611
143	0x3d970f99	0.07376022
144	0xbc0368af	-0.008020564
145	0x3f931c7e	1.149307
146	0x3cfc4d1b	0.030798486
147	0x3e52ea13	0.20597105
148	0x3eaf4329	0.34230927
149	0x3de2c015	0.11071793
150	0x3d22f17b	0.039781075
151	0x3e862ce2	0.26206118
152	0xbe2d4a32	-0.16922835
153	0x3fab44a2	1.338032
154	0x3d1e71f8	0.038682908
155	0x3ddb83a3	0.10718467
156	0x3e826a22	0.25471598
157	0xbe434866	-0.19070587
158	0xbbcf68bd	-0.0063296244
159	0x3db12fcf	0.08651697
160	0xbe172ff4	-0.14764386
161	0x3f8cd98c	1.100389
162	0x3cb81893	0.022472655
163	0xbd876bee	-0.06612383
164	0x3e82582f	0.25457904
165	0xbee86372	-0.4538837
166	0x3d43a1ba	0.047761656
167	0xbd90c584	-0.07068923
168	0x3e6e1a5a	0.2325224
169	0xbe41faef	-0.1894338
170	0xbd2fcbb6	-0.042918883
171	0x3ec3b4c0	0.3822384
172	0xbe6f61b2	-0.23377112
173	0xbf9b7151	-1.2143956
174	0x3c2a3e07	0.010390765
175	0x3eb9d49c	0.3629502
176	0x3e2b7771	0.16744782
177	0xbe51f137	-0.20502172
178	0x3aaeb3b4	0.0013328702
179	0x3d84eb60	0.06490207
180	0xbe6b591c	-0.22983211
181	0xbea2da88	-0.3180735
182	0xbce31131	-0.027718158
183	0x3df1a385	0.11798767
184	0x3e1bb279	0.152048
185	0xbe44dda6	-0.19225177
186	0xbd656907	-0.056008365
187	0xbf0379fb	-0.51358
188	0xbdca71e7	-0.098850064
189	0x3f2f116d	0.68385965
190	0xbd4bb043	-0.049728643
191	0xbf04efa6	-0.51928174
192	0xbd86647d	-0.06562135
193	0x3e423a99	0.18967666
194	0xb9a21d5f	-0.0003092093
195	0xbe0ac523	-0.13551764
196	0x3dc1d72c	0.09464869
197	0xbd9ea367	-0.0774601
198	0xbc51bac1	-0.012800873
199	0xbe1dfa21	-0.15427448
200	0x3cd25ffa	0.02568053
201	0x3e775b1b	0.24155848
202	0xbd70c8cc	-0.058785245
203	0x3d87ce14	0.06631103
204	0x3de549a7	0.11195689
205	0x3ecc56a7	0.3990986
206	0x3cbda060	0.023147762
207	0x3ddc72ea	0.107641056
208	0x3d4129cf	0.047159012
209	0x3e9d5669	0.30729988
210	0x3c871887	0.016491188
211	0x3e7f4ca8	0.24931586
212	0x3bed38fa	0.007239458
213	0x3f4bada5	0.79561836
214	0xbd5c1ee9	-0.053740416
215	0x3e5ea2fe	0.21741864
216	0xbce3e445	-0.027818808
217	0x3e802a64	0.2503234
218	0x3c88aa84	0.01668287
219	0x3e7854ee	0.24251148
220	0x3e591dc9	0.21202768
221	0xbe49625e	-0.1966643
222	0x3d4fadeb	0.05070297
223	0x3e4da826	0.20083675
224	0x3e936ea0	0.28795338
225	0x3e94d8d6	0.29071683
226	0x3d3a90cf	0.045548256
227	0x3e5bae84	0.21453291
228	0x3e2f78f4	0.17135984
229	0xbeed329e	-0.4632768
230	0x3c1edcde	0.0096962135
231	0x3e981530	0.29703665
232	0x3ee13760	0.4398756
233	0x3eca234b	0.3948005
234	0x3dc78223	0.097416185
235	0x3e56e649	0.20986284
236	0x3e1593bd	0.14607139
237	0xbf499cac	-0.7875469
238	0x3e1116c2	0.14168838
239	0x3e3e0519	0.18556632
240	0x3eb8d52d	0.3610014
241	0xbeed7961	-0.46381667
242	0xbae33dcc	-0.0017337142
243	0x3d82a145	0.06378416
244	0xbdfd613b	-0.12372061
245	0xbe96e570	-0.29471922
246	0x3ceef648	0.02917017
247	0x3d83aa69	0.064289875
248	0x3ea04ee9	0.31310204
249	0xbeb7da89	-0.35908917
250	0xbade5732	-0.0016963242
251	0xbe2ed638	-0.17073905
252	0xbea0e192	-0.31422096
253	0xbeaf4db2	-0.34238964
254	0x3d1369bb	0.035989504
255	0xbe4ef276	-0.20209679

fc1.bias f4 [400]
0	0xbf0592d0	-0.52177143
1	0xbf0fca14	-0.5616772
2	0xbe6c32ad	-0.23066206
3	0x3e296fab	0.16546504
4	0xbe9362d9	-0.28786352
5	0x3e67f686	0.22652635
6	0x3eb87128	0.3602383
7	0x3eb18bcc	0.3467697
8	0xbf82bb8c	-1.0213485
9	0x3e84b085	0.25915924
10	0xbcfd9a77	-0.030957444
11	0x3e4e281c	0.20132488
12	0xbd926add	-0.07149289
13	0xbf3f975a	-0.7484032
14	0xbf478a89	-0.7794576
15	0x3d58979c	0.05287896
16	0x3e4f7225	0.20258386
17	0xbe9daa32	-0.3079391
18	0x3e656b74	0.22404271
19	0xbd96cd9c	-0.073634356
20	0x3e8636a9	0.26213577
21	0x3d184114	0.03717144
22	0x3e6cfd02	0.2314339
23	0xbf070bf1	-0.52752596
24	0x3d27049f	0.04077589
25	0xbe0f09fe	-0.13968655
26	0x3ea5683d	0.3230609
27	0xbe8af3d5	-0.27139154
28	0xbefb305f	-0.49060342
29	0x3e382ff1	0.17987038
30	0xbe348a5f	-0.1763091
31	0xbe952fe1	-0.2913809
32	0x3a566d70	0.00081797596
33	0xbe58dd96	-0.21178278
34	0x3e95a903	0.29230508
35	0xbdce798b	-0.10081776
36	0x3e3d7907	0.185032
37	0xbe37ad96	-0.17937312
38	0xbed997c0	-0.4249859
39	0xbef75ae5	-0.48311535
40	0x3e4a4980	0.197546
41	0xbe8f82db	-0.28029522
42	0xbf2d119e	-0.67605007
43	0xbe9f4c98	-0.31113124
44	0xbd80c160	-0.06286883
45	0x3e1db3e7	0.15400659
46	0xbe56616c	-0.20935601
47	0xbef4c317	-0.47805092
48	0xbf206d33	-0.62666625
49	0x3d736072	0.05941815
50	0xb9b4aee9	-0.00034462594
51	0xbd853b14	-0.06505409
52	0xbecaddf6	-0.39622468
53	0x3e15943d	0.1460733
54	0x3e0ad0d4	0.13556224
55	0x3bfce788	0.0077180304
56	0x3e5a679e	0.2132859
57	0xbf04ae2f	-0.51828283
58	0x3f1b4edd	0.6066721
59	0x3ec73f47	0.38915464
60	0xbd6715a8	-0.056417137
61	0x3effcfa9	0.4996312
62	0xbf6ff22b	-0.93728894
63	0xbf6abf1d	-0.91697866
64	0xbf1937f9	-0.5985103
65	0xbc2ea52d	-0.010659498
66	0x3e765e65	0.24059446
67	0x3d675ca9	0.056484852
68	0xbf1370fc	-0.57594275
69	0x3e2a8f57	0.16656242
70	0x3b158793	0.0022816404
71	0x3d2e2437	0.042515006
72	0x3de41607	0.11137014
73	0x3eb9ba80	0.362751
74	0xbe1b3f2c	-0.15160817
75	0x3d568a09	0.052377734
76	0xbe32808d	-0.1743185
77	0xbebccf1a	-0.36876756
78	0xbe8fdd49	-0.28098515
79	0xbf06ef41	-0.5270882
80	0xbf2f8a1e	-0.68570125
81	0x3f194832	0.59875786
82	0xbef9b90d	-0.48773995
83	0x3e96b007	0.29431173
84	0x3f250365	0.64458305
85	0xbf05a940	-0.5221138
86	0x3cb4cb5a	0.022069622
87	0xbf02a720	-0.5103626
88	0xbf001db4	-0.50045323
89	0xbdfb66aa	-0.12275441
90	0x3e15519f	0.14581917
91	0xbeea7573	-0.45792732
92	0xbe8c63e8	-0.27419972
93	0xbdead064	-0.114655286
94	0xbd89ec4e	-0.06734525
95	0x3ca7edc4	0.020499118
96	0xbd6d0f5f	-0.057875987
97	0xbe850889	-0.25983074
98	0xbea06ec5	-0.3133451
99	0xbec6a04c	-0.38794172
100	0xbeebaad9	-0.46028784
101	0xbdde1202	-0.108432785
102	0x3cfe3278	0.031029925
103	0xbea70df8	-0.32627845
104	0xbe20ecb1	-0.1571529
105	0x3ec26934	0.3797089
106	0xbd822509	-0.0635472
107	0xbe3cf087	-0.18451129
108	0xbe235375	-0.15949805
109	0x3eae1154	0.33997595
110	0xbaaa427a	-0.0012989782
111	0xbf22b895	-0.635629
112	0x3d841f67	0.06451302
113	0xbf180449	-0.5938154
114	0xbeb84602	-0.35990912
115	0x3dd34779	0.10316367
116	0x3e584334	0.21119386
117	0xbdfe1f52	-0.124083176
118	0xbe5e0400	-0.21681213
119	0xbea62cba	-0.32456
120	0xbeb12ba2	-0.34603602
121	0xbe224a72	-0.15848711
122	0xbe330cf7	-0.17485414
123	0xbd056147	-0.032563474
124	0x3d8fc50d	0.07020006
125	0x3df2c914	0.11854759
126	0x3daf10a7	0.08548098
127	0x3e956bcf	0.29183814
128	0xbee75189	-0.45179394
129	0x3d106200	0.03524971
130	0x3f323b43	0.69621676
131	0x3e10094f	0.14066051
132	0xbda91989	-0.082568236
133	0xbf28f869	-0.66004044
134	0xbeb44c6c	-0.35214555
135	0x3a51793b	0.0007990782
136	0xbdd3fe64	-0.103512555
137	0xbe89b35d	-0.26894656
138	0x3a9441f4	0.001131116
139	0x3e9f70c0	0.3114071
140	0x3ed0bd8b	0.4076961
141	0xbe043f18	-0.12914693
142	0xbd77ffe6	-0.06054678
143	0xbdc13f4b	-0.094359
144	0x3e2e883b	0.17044155
145	0x3d37e820	0.044899106
146	0xbed96c9f	-0.42465684
147	0xbeb5e784	-0.35528195
148	0xbd9bd9db	-0.07609912
149	0xbe357cda	-0.17723408
150	0x3e63f6fa	0.22262183
151	0xbe0be4e1	-0.13661529
152	0xbeae4599	-0.34037474
153	0xbe7ebd91	-0.24877001
154	0x3e5390a7	0.20660649
155	0xbee25c82	-0.44211203
156	0x3c3f4ffe	0.0116767865
157	0xbe951d1d	-0.29123774
158	0x3e176a9f	0.14786766
159	0xbdf83c6c	-0.121208996
160	0xbf31b9b7	-0.69424003
161	0x3ec554a2	0.38541132
162	0x3e40c83e	0.18826386
163	0xbda111b9	-0.078647085
164	0xbd27f09d	-0.04100095
165	0x3e037332	0.12836912
166	0xbe3b7bea	-0.18308988
167	0xbb773dc7	-0.003772603
168	0x3e729bdf	0.23692273
169	0x3eb5f54b	0.35538706
170	0x3ef2e158	0.4743755
171	0xbeedbfc9	-0.46435383
172	0xbecd3d9e	-0.40086073
173	0xbf30799f	-0.6893558
174	0x3e8c12bc	0.27358043
175	0x3e990d82	0.29893118
176	0xbeee1a63	-0.46504506
177	0xbefefa3e	-0.49800295
178	0x3ec1cc97	0.37851402
179	0xbed7fe7f	-0.42186353
180	0xbea36b1f	-0.31917664
181	0x3e31f609	0.17379011
182	0xbe11d435	-0.14241107
183	0x3d110a83	0.035410415
184	0x3d6f8fbe	0.058486693
185	0x3ec4a519	0.3840721
186	0xbeaf2b8d	-0.34212914
187	0xbf0b9970	-0.54531
188	0xbed39def	-0.4133143
189	0x3db78d15	0.08962456
190	0xbe7ee543	-0.24892144
191	0x3ecbdd08	0.3981707
192	0x3d1c70c0	0.038193464
193	0xbe151e9e	-0.14562461
194	0xbe3087bc	-0.17239279
195	0xbf120bb5	-0.57049114
196	0xbef72a5f	-0.48274514
197	0xbdbdbd9c	-0.09264681
198	0xbde4607a	-0.11151214
199	0xbd81ecf4	-0.06344023
200	0xbeeb38a9	-0.45941666
201	0xbf218d2f	-0.63106054
202	0x3cbfe370	0.02342388
203	0xbe15efd9	-0.14642276
204	0x3bb075d3	0.0053851395
205	0xbe107c01	-0.14109804
206	0xbecc725b	-0.39930996
207	0x3dce49df	0.100726835
208	0xbe0d69ae	-0.13809845
209	0xbe2de7d8	-0.16982973
210	0xbed95881	-0.42450336
211	0x3ee1f6f4	0.44133723
212	0xbf336534	-0.700763
213	0xbedad5c7	-0.42741224
214	0x3e4e80da	0.2016634
215	0xbef9613d	-0.48707
216	0x3c972351	0.018449457
217	0x3e9d13d5	0.30679193
218	0x3e8df883	0.27728662
219	0xbf14ac8b	-0.5807578
220	0x3e858c4e	0.26083606
221	0xbe86d3dc	-0.2633351
222	0xbd863ace	-0.06554185
223	0xbef70392	-0.4824491
224	0xbdab753b	-0.08371969
225	0xbeb00da4	-0.34385407
226	0x3c17d841	0.009267868
227	0xbda22560	-0.07917285
228	0xbdb5d283	-0.088780425
229	0xbeb2487e	-0.34820932
230	0x3ed2cb3d	0.41170684
231	0x3e5f9dde	0.21837565
232	0xbda292a2	-0.07938124
233	0x3ef3bb6d	0.47603932
234	0xbf277a5b	-0.65421075
235	0xbeee94b0	-0.46597815
236	0xbf23683a	-0.6383091
237	0x3b64ece0	0.0034931228
238	0x3e733caa	0.2375361
239	0xbeee880f	-0.4658818
240	0xbf3656ed	-0.7122639
241	0x3d832ff6	0.06405632
242	0xbf273dcf	-0.6532869
243	0x3dae128f	0.084996335
244	0xbde5d389	-0.11221988
245	0xbe878cf4	-0.26474726
246	0xbf1b601d	-0.6069353
247	0x3df94232	0.12170829
248	0xbde55e6d	-0.11199651
249	0xbd6075c3	-0.054799806
250	0xbedfabc1	-0.43685725
251	0x3e90c5c4	0.28275883
252	0x3e378c3a	0.17924586
253	0x3e085d03	0.13316731
254	0x3d921146	0.07132201
255	0xbe999c9f	-0.30002305

bn1.weight f4 [400]
0	0x3f37ea36	0.7184175
1	0x3f0a986e	0.5413884
2	0x3f192d7f	0.59835047
3	0x3e976910	0.29572344
4	0x3d85e9c0	0.06538725
5	0x3f538b54	0.8263447
6	0x3f1e3532	0.6179992
7	0x3c300180	0.010742545
8	0x3e109838	0.14120567
9	0x3e65ec60	0.22453451
10	0x3cdbea60	0.026845157
11	0x3e6814d8	0.22664201
12	0x3eb9972a	0.36248142
13	0x3c47dac0	0.01219815
14	0x3e8a0e44	0.2696401
15	0x3f00b1ab	0.502711
16	0x3f7bd5c6	0.9837307
17	0x3f1d474c	0.61436915
18	0x3f50d9f6	0.8158258
19	0x3f28b79e	0.6590518
20	0x3e083864	0.13302761
21	0x3ea59db0	0.3234687
22	0x3db946d0	0.090467095
23	0x3f15256c	0.58260226
24	0x3f042f1d	0.5163439
25	0x3ee61bce	0.44943088
26	0x3f5942c0	0.8486748
27	0x3f249142	0.64284146
28	0x3e336988	0.17520726
29	0x3e017270	0.1264131
30	0x3e85cfd2	0.26135117
31	0x3e044290	0.12916017
32	0x3f119ba0	0.5687809
33	0x3e9d7ad4	0.30757773
34	0x3f448952	0.76772034
35	0x3f0ceb1d	0.55046254
36	0x3da65cb8	0.081231534
37	0x3f3e7d05	0.74409515
38	0x3f5c9450	0.86163807
39	0x3dab0208	0.08349997
40	0x3f68e4f9	0.90974385
41	0x3f09a68c	0.53769755
42	0x3f421f9a	0.7582947
43	0x3f788f94	0.9709408
44	0x3f728dc3	0.9474756
45	0x3e0bf960	0.13669348
46	0x3e8c0d46	0.27353877
47	0x3f64c620	0.89364815
48	0x3f2e3444	0.680485
49	0x3f05c5f1	0.5225516
50	0x3f234eb0	0.6379194
51	0x3f00577e	0.501335
52	0x3f6cca2d	0.92495996
53	0x3f07b75b	0.53014153
54	0x3dada190	0.08478081
55	0x3a27ac00	0.00063961744
56	0x3ea651b2	0.32484204
57	0x3f0708b7	0.5274767
58	0x3f53ab64	0.82683396
59	0x3f1bb437	0.6082186
60	0x3dd3fb18	0.10350627
61	0x3f28a62a	0.65878546
62	0x3f6ed581	0.9329453
63	0x3f5184d9	0.81843334
64	0x3f0f0abe	0.55875766
65	0x3ceb83c0	0.028749347
66	0x3eca75e0	0.39543056
67	0x3e99129e	0.29897016
68	0x3f6791c0	0.9045677
69	0x3f5486fb	0.83018464
70	0x3eb56994	0.35432112
71	0x3d19f2c0	0.03758502
72	0x3ea7ced4	0.32774985
73	0x3f54dfd2	0.8315402
74	0x3dcb82b0	0.09937036
75	0x3e7a7d74	0.24461919
76	0x3f542ded	0.8288258
77	0x3e4131a8	0.18866599
78	0x3daaac40	0.08333635
79	0x3cf48820	0.029850066
80	0x3f22a901	0.6353913
81	0x3f724027	0.9462914
82	0x3f7b3205	0.981232
83	0x3dfd4fd8	0.123687446
84	0x3ea3ea94	0.32014906
85	0x3eb2c8b0	0.34918737
86	0x3f0abf09	0.54197747
87	0x3eaae3a2	0.33376795
88	0x3e0f04c0	0.13966656
89	0x3effb086	0.49939364
90	0x3c80ee40	0.015738606
91	0x3f74f6ca	0.9568907
92	0x3f3ed1a7	0.74538654
93	0x3e2772fc	0.16352457
94	0x3e0e65a4	0.1390596
95	0x3f1c75e1	0.6111737
96	0x3ea6b3dc	0.32559097
97	0x3a65ac00	0.0008761287
98	0x3f5b7999	0.8573242
99	0x3ee5283a	0.44757253
100	0x3ed7c63a	0.42143422
101	0x3f4bdc77	0.7963328
102	0x3e340230	0.1757896
103	0x3d72e4c0	0.059300184
104	0x3e62d02c	0.22149724
105	0x3d4ac4c0	0.04950404
106	0x3e1093f4	0.1411894
107	0x3f71f07c	0.94507575
108	0x3f64ae31	0.89328295
109	0x3f73143b	0.94952744
110	0x3f716273	0.94290847
111	0x3d9d9a48	0.076954424
112	0x3e02adf4	0.1276167
113	0x3f2e5c0b	0.68109196
114	0x3e8716d2	0.26384598
115	0x3de94bf8	0.11391443
116	0x3f2b259f	0.6685428
117	0x3e9724de	0.29520315
118	0x3f7365a8	0.9507699
119	0x3e305c48	0.17222703
120	0x3f2ccf49	0.6750379
121	0x3f591874	0.8480294
122	0x3f758c51	0.9591723
123	0x3e9ef4d2	0.31046158
124	0x3f01b160	0.5066128
125	0x3cad67e0	0.021167696
126	0x3e9253b6	0.2857949
127	0x3e8e6a66	0.2781555
128	0x3d737e60	0.059446692
129	0x3f56bf89	0.8388601
130	0x3ebf64dc	0.37381637
131	0x3ef5b432	0.4798904
132	0x3cbb49a0	0.022862256
133	0x3f6c4d44	0.923054
134	0x3e1306f4	0.14358121
135	0x3f06ebbf	0.5270347
136	0x3f750163	0.9570524
137	0x3e2d77f0	0.16940284
138	0x3da35f18	0.07977122
139	0x3edef5c2	0.43546873
140	0x3eafbfe2	0.34326082
141	0x3e5c0038	0.21484458
142	0x3f665ecb	0.8998839
143	0x3ee078fc	0.43842304
144	0x3f52c4db	0.8233163
145	0x3f3ca283	0.73685473
146	0x3f7ffad9	0.9999214
147	0x3eb2b288	0.34901834
148	0x3efbcd76	0.49180192
149	0x3f1e0a5d	0.61734563
150	0x3f60c6c7	0.8780331
151	0x3f5202d0	0.8203554
152	0x3cee01a0	0.02905351
153	0x3eaac76e	0.33355278
154	0x3b1af800	0.0023646355
155	0x3e8130a4	0.25232422
156	0x3f367c0a	0.7128302
157	0x3e2ece6c	0.17070931
158	0x3f56aae9	0.8385454
159	0x3f18efe0	0.5974102
160	0x3d9e4e18	0.07729739
161	0x3f40c4f7	0.75300545
162	0x3f389318	0.7209945
163	0x3c32e380	0.010918498
164	0x3f546543	0.82967013
165	0x3f676fd4	0.9040501
166	0x3f41040c	0.753968
167	0x3f2e9eef	0.68211263
168	0x3f1d5e14	0.61471677
169	0x3f513f3c	0.81737113
170	0x3f74d231	0.95633227
171	0x3f33cffd	0.7023924
172	0x3dbeb3b0	0.093116164
173	0x3f397df8	0.7245784
174	0x3f412a0a	0.7545477
175	0x3f712478	0.9419627
176	0x3ea3befc	0.31981647
177	0x3f31e6cb	0.6949279
178	0x3e2d64fc	0.16933054
179	0x3e5ca434	0.21547014
180	0x3e758348	0.23975861
181	0x3f446c6d	0.76727945
182	0x3ef764cc	0.4831909
183	0x3d2f3100	0.04277134
184	0x3c723c00	0.014784813
185	0x3f33b104	0.7019198
186	0x3f5f6980	0.87270355
187	0x3f3cd9aa	0.7376963
188	0x3f4acdb4	0.7922013
189	0x3ef0308c	0.46912038
190	0x3f292b62	0.6608182
191	0x3f7006bd	0.9376028
192	0x3f3822ba	0.7192799
193	0x3ed0e4a6	0.40799445
194	0x3f4d2fb5	0.8015092
195	0x3e810154	0.25196326
196	0x3eae4b0c	0.3404163
197	0x3f46cbe5	0.7765487
198	0x3f61eb64	0.882498
199	0x3e399b28	0.18125594
200	0x3f078d88	0.52950335
201	0x3f31c6f5	0.6944421
202	0x3f71e930	0.9449644
203	0x3e3c6fac	0.18401974
204	0x3e84d1a4	0.25941193
205	0x3e001c9c	0.12510914
206	0x3ea8e636	0.32988137
207	0x3f2de73e	0.6793097
208	0x3f398cb3	0.72480315
209	0x3f4735ef	0.7781667
210	0x3f5b3acb	0.85636586
211	0x3f54c6e9	0.8311601
212	0x3f1ff27c	0.62479377
213	0x3f15839c	0.58403945
214	0x3f596e01	0.8493348
215	0x3ea8d952	0.32978302
216	0x3eeb0eba	0.45909673
217	0x3f5fb9b1	0.8739272
218	0x3f72ed94	0.94893765
219	0x3f4f2c2c	0.80926776
220	0x3f5d4860	0.8643856
221	0x3d614d00	0.055005074
222	0x3f788a08	0.9708562
223	0x3e89b122	0.26892954
224	0x3f46f57f	0.7771835
225	0x3e946db8	0.2898996
226	0x3f7e19ae	0.99257934
227	0x3f582717	0.84434646
228	0x3ece5666	0.40300292
229	0x3f0e06d2	0.55479157
230	0x3eea1daa	0.45725757
231	0x3f50f7c2	0.8162805
232	0x3e8ba936	0.27277535
233	0x3e84eb46	0.2596075
234	0x3eb62c18	0.35580516
235	0x3ee12c54	0.43979132
236	0x3f28cc03	0.659363
237	0x3f48f385	0.7849658
238	0x3d7ae560	0.061253905
239	0x3f17b130	0.5925474
240	0x3f208b43	0.62712497
241	0x3f7ac8d1	0.9796267
242	0x3f67a2d7	0.9048285
243	0x3ebe60a4	0.37183106
244	0x3e0bf700	0.13668442
245	0x3f0f6c71	0.56024843
246	0x3e7ebf84	0.24877745
247	0x3f3813a2	0.7190496
248	0x3d4ed6f0	0.05049795
249	0x3f68602d	0.9077175
250	0x3d380810	0.044929564
251	0x38bc4000	8.9764595e-05
252	0x3e1117dc	0.14169258
253	0x3f5e184b	0.8675582
254	0x3f4b4c3e	0.7941321
255	0x3e55c4f4	0.20875913

bn1.bias f4 [400]
0	0x00000000	0.0
1	0x00000000	0.0
2	0x00000000	0.0
3	0x00000000	0.0
4	0x00000000	0.0
5	0x00000000	0.0
6	0x00000000	0.0
7	0x00000000	0.0
8	0x00000000	0.0
9	0x00000000	0.0
10	0x00000000	0.0
11	0x00000000	0.0
12	0x00000000	0.0
13	0x00000000	0.0
14	0x00000000	0.0
15	0x00000000	0.0
16	0x00000000	0.0
17	0x00000000	0.0
18	0x00000000	0.0
19	0x00000000	0.0
20	0x00000000	0.0
21	0x00000000	0.0
22	0x00000000	0.0
23	0x00000000	0.0
24	0x00000000	0.0
25	0x00000000	0.0
26	0x00000000	0.0
27	0x00000000	0.0
28	0x00000000	0.0
29	0x00000000	0.0
30	0x00000000	0.0
31	0x00000000	0.0
32	0x00000000	0.0
33	0x00000000	0.0
34	0x00000000	0.0
35	0x00000000	0.0
36	0x00000000	0.0
37	0x00000000	0.0
38	0x00000000	0.0
39	0x00000000	0.0
40	0x00000000	0.0
41	0x00000000	0.0
42	0x00000000	0.0
43	0x00000000	0.0
44	0x00000000	0.0
45	0x00000000	0.0
46	0x00000000	0.0
47	0x00000000	0.0
48	0x00000000	0.0
49	0x00000000	0.0
50	0x00000000	0.0
51	0x00000000	0.0
52	0x00000000	0.0
53	0x00000000	0.0
54	0x00000000	0.0
55	0x00000000	0.0
56	0x00000000	0.0
57	0x00000000	0.0
58	0x00000000	0.0
59	0x00000000	0.0
60	0x00000000	0.0
61	0x00000000	0.0
62	0x00000000	0.0
63	0x00000000	0.0
64	0x00000000	0.0
65	0x00000000	0.0
66	0x00000000	0.0
67	0x00000000	0.0
68	0x00000000	0.0
69	0x00000000	0.0
70	0x00000000	0.0
71	0x00000000	0.0
72	0x00000000	0.0
73	0x00000000	0.0
74	0x00000000	0.0
75	0x00000000	0.0
76	0x00000000	0.0
77	0x00000000	0.0
78	0x00000000	0.0
79	0x00000000	0.0
80	0x00000000	0.0
81	0x00000000	0.0
82	0x00000000	0.0
83	0x00000000	0.0
84	0x00000000	0.0
85	0x00000000	0.0
86	0x00000000	0.0
87	0x00000000	0.0
88	0x00000000	0.0
89	0x00000000	0.0
90	0x00000000	0.0
91	0x00000000	0.0
92	0x00000000	0.0
93	0x00000000	0.0
94	0x00000000	0.0
95	0x00000000	0.0
96	0x00000000	0.0
97	0x00000000	0.0
98	0x00000000	0.0
99	0x00000000	0.0
100	0x00000000	0.0
101	0x00000000	0.0
102	0x00000000	0.0
103	0x00000000	0.0
104	0x00000000	0.0
105	0x00000000	0.0
106	0x00000000	0.0
107	0x00000000	0.0
108	0x00000000	0.0
109	0x00000000	0.0
110	0x00000000	0.0
111	0x00000000	0.0
112	0x00000000	0.0
113	0x00000000	0.0
114	0x00000000	0.0
115	0x00000000	0.0
116	0x00000000	0.0
117	0x00000000	0.0
118	0x00000000	0.0
119	0x00000000	0.0
120	0x00000000	0.0
121	0x00000000	0.0
122	0x00000000	0.0
123	0x00000000	0.0
124	0x00000000	0.0
125	0x00000000	0.0
126	0x00000000	0.0
127	0x00000000	0.0
128	0x00000000	0.0
129	0x00000000	0.0
130	0x00000000	0.0
131	0x00000000	0.0
132	0x00000000	0.0
133	0x00000000	0.0
134	0x00000000	0.0
135	0x00000000	0.0
136	0x00000000	0.0
137	0x00000000	0.0
138	0x00000000	0.0
139	0x00000000	0.0
140	0x00000000	0.0
141	0x00000000	0.0
142	0x00000000	0.0
143	0x00000000	0.0
144	0x00000000	0.0
145	0x00000000	0.0
146	0x00000000	0.0
147	0x00000000	0.0
148	0x00000000	0.0
149	0x00000000	0.0
150	0x00000000	0.0
151	0x00000000	0.0
152	0x00000000	0.0
153	0x00000000	0.0
154	0x00000000	0.0
155	0x00000000	0.0
156	0x00000000	0.0
157	0x00000000	0.0
158	0x00000000	0.0
159	0x00000000	0.0
160	0x00000000	0.0
161	0x00000000	0.0
162	0x00000000	0.0
163	0x00000000	0.0
164	0x00000000	0.0
165	0x00000000	0.0
166	0x00000000	0.0
167	0x00000000	0.0
168	0x00000000	0.0
169	0x00000000	0.0
170	0x00000000	0.0
171	0x00000000	0.0
172	0x00000000	0.0
173	0x00000000	0.0
174	0x00000000	0.0
175	0x00000000	0.0
176	0x00000000	0.0
177	0x00000000	0.0
178	0x00000000	0.0
179	0x00000000	0.0
180	0x00000000	0.0
181	0x00000000	0.0
182	0x00000000	0.0
183	0x00000000	0.0
184	0x00000000	0.0
185	0x00000000	0.0
186	0x00000000	0.0
187	0x00000000	0.0
188	0x00000000	0.0
189	0x00000000	0.0
190	0x00000000	0.0
191	0x00000000	0.0
192	0x00000000	0.0
193	0x00000000	0.0
194	0x00000000	0.0
195	0x00000000	0.0
196	0x00000000	0.0
197	0x00000000	0.0
198	0x00000000	0.0
199	0x00000000	0.0
200	0x00000000	0.0
201	0x00000000	0.0
202	0x00000000	0.0
203	0x00000000	0.0
204	0x00000000	0.0
205	0x00000000	0.0
206	0x00000000	0.0
207	0x00000000	0.0
208	0x00000000	0.0
209	0x00000000	0.0
210	0x00000000	0.0
211	0x00000000	0.0
212	0x00000000	0.0
213	0x00000000	0.0
214	0x00000000	0.0
215	0x00000000	0.0
216	0x00000000	0.0
217	0x00000000	0.0
218	0x00000000	0.0
219	0x00000000	0.0
220	0x00000000	0.0
221	0x00000000	0.0
222	0x00000000	0.0
223	0x00000000	0.0
224	0x00000000	0.0
225	0x00000000	0.0
226	0x00000000	0.0
227	0x00000000	0.0
228	0x00000000	0.0
229	0x00000000	0.0
230	0x00000000	0.0
231	0x00000000	0.0
232	0x00000000	0.0
233	0x00000000	0.0
234	0x00000000	0.0
235	0x00000000	0.0
236	0x00000000	0.0
237	0x00000000	0.0
238	0x00000000	0.0
239	0x00000000	0.0
240	0x00000000	0.0
241	0x00000000	0.0
242	0x00000000	0.0
243	0x00000000	0.0
244	0x00000000	0.0
245	0x00000000	0.0
246	0x00000000	0.0
247	0x00000000	0.0
248	0x00000000	0.0
249	0x00000000	0.0
250	0x00000000	0.0
251	0x00000000	0.0
252	0x00000000	0.0
253	0x00000000	0.0
254	0x00000000	0.0
255	0x00000000	0.0

bn1.running_mean f4 [400]
0	0x00000000	0.0
1	0x00000000	0.0
2	0x00000000	0.0
3	0x00000000	0.0
4	0x00000000	0.0
5	0x00000000	0.0
6	0x00000000	0.0
7	0x00000000	0.0
8	0x00000000	0.0
9	0x00000000	0.0
10	0x00000000	0.0
11	0x00000000	0.0
12	0x00000000	0.0
13	0x00000000	0.0
14	0x00000000	0.0
15	0x00000000	0.0
16	0x00000000	0.0
17	0x00000000	0.0
18	0x00000000	0.0
19	0x00000000	0.0
20	0x00000000	0.0
21	0x00000000	0.0
22	0x00000000	0.0
23	0x00000000	0.0
24	0x00000000	0.0
25	0x00000000	0.0
26	0x00000000	0.0
27	0x00000000	0.0
28	0x00000000	0.0
29	0x00000000	0.0
30	0x00000000	0.0
31	0x00000000	0.0
32	0x00000000	0.0
33	0x00000000	0.0
34	0x00000000	0.0
35	0x00000000	0.0
36	0x00000000	0.0
37	0x00000000	0.0
38	0x00000000	0.0
39	0x00000000	0.0
40	0x00000000	0.0
41	0x00000000	0.0
42	0x00000000	0.0
43	0x00000000	0.0
44	0x00000000	0.0
45	0x00000000	0.0
46	0x00000000	0.0
47	0x00000000	0.0
48	0x00000000	0.0
49	0x00000000	0.0
50	0x00000000	0.0
51	0x00000000	0.0
52	0x00000000	0.0
53	0x00000000	0.0
54	0x00000000	0.0
55	0x00000000	0.0
56	0x00000000	0.0
57	0x00000000	0.0
58	0x00000000	0.0
59	0x00000000	0.0
60	0x00000000	0.0
61	0x00000000	0.0
62	0x00000000	0.0
63	0x00000000	0.0
64	0x00000000	0.0
65	0x00000000	0.0
66	0x00000000	0.0
67	0x00000000	0.0
68	0x00000000	0.0
69	0x00000000	0.0
70	0x00000000	0.0
71	0x00000000	0.0
72	0x00000000	0.0
73	0x00000000	0.0
74	0x00000000	0.0
75	0x00000000	0.0
76	0x00000000	0.0
77	0x00000000	0.0
78	0x00000000	0.0
79	0x00000000	0.0
80	0x00000000	0.0
81	0x00000000	0.0
82	0x00000000	0.0
83	0x00000000	0.0
84	0x00000000	0.0
85	0x00000000	0.0
86	0x00000000	0.0
87	0x00000000	0.0
88	0x00000000	0.0
89	0x00000000	0.0
90	0x00000000	0.0
91	0x00000000	0.0
92	0x00000000	0.0
93	0x00000000	0.0
94	0x00000000	0.0
95	0x00000000	0.0
96	0x00000000	0.0
97	0x00000000	0.0
98	0x00000000	0.0
99	0x00000000	0.0
100	0x00000000	0.0
101	0x00000000	0.0
102	0x00000000	0.0
103	0x00000000	0.0
104	0x00000000	0.0
105	0x00000000	0.0
106	0x00000000	0.0
107	0x00000000	0.0
108	0x00000000	0.0
109	0x00000000	0.0
110	0x00000000	0.0
111	0x00000000	0.0
112	0x00000000	0.0
113	0x00000000	0.0
114	0x00000000	0.0
115	0x00000000	0.0
116	0x00000000	0.0
117	0x00000000	0.0
118	0x00000000	0.0
119	0x00000000	0.0
120	0x00000000	0.0
121	0x00000000	0.0
122	0x00000000	0.0
123	0x00000000	0.0
124	0x00000000	0.0
125	0x00000000	0.0
126	0x00000000	0.0
127	0x00000000	0.0
128	0x00000000	0.0
129	0x00000000	0.0
130	0x00000000	0.0
131	0x00000000	0.0
132	0x00000000	0.0
133	0x00000000	0.0
134	0x00000000	0.0
135	0x00000000	0.0
136	0x00000000	0.0
137	0x00000000	0.0
138	0x00000000	0.0
139	0x00000000	0.0
140	0x00000000	0.0
141	0x00000000	0.0
142	0x00000000	0.0
143	0x00000000	0.0
144	0x00000000	0.0
145	0x00000000	0.0
146	0x00000000	0.0
147	0x00000000	0.0
148	0x00000000	0.0
149	0x00000000	0.0
150	0x00000000	0.0
151	0x00000000	0.0
152	0x00000000	0.0
153	0x00000000	0.0
154	0x00000000	0.0
155	0x00000000	0.0
156	0x00000000	0.0
157	0x00000000	0.0
158	0x00000000	0.0
159	0x00000000	0.0
160	0x00000000	0.0
161	0x00000000	0.0
162	0x00000000	0.0
163	0x00000000	0.0
164	0x00000000	0.0
165	0x00000000	0.0
166	0x00000000	0.0
167	0x00000000	0.0
168	0x00000000	0.0
169	0x00000000	0.0
170	0x00000000	0.0
171	0x00000000	0.0
172	0x00000000	0.0
173	0x00000000	0.0
174	0x00000000	0.0
175	0x00000000	0.0
176	0x00000000	0.0
177	0x00000000	0.0
178	0x00000000	0.0
179	0x00000000	0.0
180	0x00000000	0.0
181	0x00000000	0.0
182	0x00000000	0.0
183	0x00000000	0.0
184	0x00000000	0.0
185	0x00000000	0.0
186	0x00000000	0.0
187	0x00000000	0.0
188	0x00000000	0.0
189	0x00000000	0.0
190	0x00000000	0.0
191	0x00000000	0.0
192	0x00000000	0.0
193	0x00000000	0.0
194	0x00000000	0.0
195	0x00000000	0.0
196	0x00000000	0.0
197	0x00000000	0.0
198	0x00000000	0.0
199	0x00000000	0.0
200	0x00000000	0.0
201	0x00000000	0.0
202	0x00000000	0.0
203	0x00000000	0.0
204	0x00000000	0.0
205	0x00000000	0.0
206	0x00000000	0.0
207	0x00000000	0.0
208	0x00000000	0.0
209	0x00000000	0.0
210	0x00000000	0.0
211	0x00000000	0.0
212	0x00000000	0.0
213	0x00000000	0.0
214	0x00000000	0.0
215	0x00000000	0.0
216	0x00000000	0.0
217	0x00000000	0.0
218	0x00000000	0.0
219	0x00000000	0.0
220	0x00000000	0.0
221	0x00000000	0.0
222	0x00000000	0.0
223	0x00000000	0.0
224	0x00000000	0.0
225	0x00000000	0.0
226	0x00000000	0.0
227	0x00000000	0.0
228	0x00000000	0.0
229	0x00000000	0.0
230	0x00000000	0.0
231	0x00000000	0.0
232	0x00000000	0.0
233	0x00000000	0.0
234	0x00000000	0.0
235	0x00000000	0.0
236	0x00000000	0.0
237	0x00000000	0.0
238	0x00000000	0.0
239	0x00000000	0.0
240	0x00000000	0.0
241	0x00000000	0.0
242	0x00000000	0.0
243	0x00000000	0.0
244	0x00000000	0.0
245	0x00000000	0.0
246	0x00000000	0.0
247	0x00000000	0.0
248	0x00000000	0.0
249	0x00000000	0.0
250	0x00000000	0.0
251	0x00000000	0.0
252	0x00000000	0.0
253	0x00000000	0.0
254	0x00000000	0.0
255	0x00000000	0.0

bn1.running_var f4 [400]
0	0x3f800000	1.0
1	0x3f800000	1.0
2	0x3f800000	1.0
3	0x3f800000	1.0
4	0x3f800000	1.0
5	0x3f800000	1.0
6	0x3f800000	1.0
7	0x3f800000	1.0
8	0x3f800000	1.0
9	0x3f800000	1.0
10	0x3f800000	1.0
11	0x3f800000	1.0
12	0x3f800000	1.0
13	0x3f800000	1.0
14	0x3f800000	1.0
15	0x3f800000	1.0
16	0x3f800000	1.0
17	0x3f800000	1.0
18	0x3f800000	1.0
19	0x3f800000	1.0
20	0x3f800000	1.0
21	0x3f800000	1.0
22	0x3f800000	1.0
23	0x3f800000	1.0
24	0x3f800000	1.0
25	0x3f800000	1.0
26	0x3f800000	1.0
27	0x3f800000	1.0
28	0x3f800000	1.0
29	0x3f800000	1.0
30	0x3f800000	1.0
31	0x3f800000	1.0
32	0x3f800000	1.0
33	0x3f800000	1.0
34	0x3f800000	1.0
35	0x3f800000	1.0
36	0x3f800000	1.0
37	0x3f800000	1.0
38	0x3f800000	1.0
39	0x3f800000	1.0
40	0x3f800000	1.0
41	0x3f800000	1.0
42	0x3f800000	1.0
43	0x3f800000	1.0
44	0x3f800000	1.0
45	0x3f800000	1.0
46	0x3f800000	1.0
47	0x3f800000	1.0
48	0x3f800000	1.0
49	0x3f800000	1.0
50	0x3f800000	1.0
51	0x3f800000	1.0
52	0x3f800000	1.0
53	0x3f800000	1.0
54	0x3f800000	1.0
55	0x3f800000	1.0
56	0x3f800000	1.0
57	0x3f800000	1.0
58	0x3f800000	1.0
59	0x3f800000	1.0
60	0x3f800000	1.0
61	0x3f800000	1.0
62	0x3f800000	1.0
63	0x3f800000	1.0
64	0x3f800000	1.0
65	0x3f800000	1.0
66	0x3f800000	1.0
67	0x3f800000	1.0
68	0x3f800000	1.0
69	0x3f800000	1.0
70	0x3f800000	1.0
71	0x3f800000	1.0
72	0x3f800000	1.0
73	0x3f800000	1.0
74	0x3f800000	1.0
75	0x3f800000	1.0
76	0x3f800000	1.0
77	0x3f800000	1.0
78	0x3f800000	1.0
79	0x3f800000	1.0
80	0x3f800000	1.0
81	0x3f800000	1.0
82	0x3f800000	1.0
83	0x3f800000	1.0
84	0x3f800000	1.0
85	0x3f800000	1.0
86	0x3f800000	1.0
87	0x3f800000	1.0
88	0x3f800000	1.0
89	0x3f800000	1.0
90	0x3f800000	1.0
91	0x3f800000	1.0
92	0x3f800000	1.0
93	0x3f800000	1.0
94	0x3f800000	1.0
95	0x3f800000	1.0
96	0x3f800000	1.0
97	0x3f800000	1.0
98	0x3f800000	1.0
99	0x3f800000	1.0
100	0x3f800000	1.0
101	0x3f800000	1.0
102	0x3f800000	1.0
103	0x3f800000	1.0
104	0x3f800000	1.0
105	0x3f800000	1.0
106	0x3f800000	1.0
107	0x3f800000	1.0
108	0x3f800000	1.0
109	0x3f800000	1.0
110	0x3f800000	1.0
111	0x3f800000	1.0
112	0x3f800000	1.0
113	0x3f800000	1.0
114	0x3f800000	1.0
115	0x3f800000	1.0
116	0x3f800000	1.0
117	0x3f800000	1.0
118	0x3f800000	1.0
119	0x3f800000	1.0
120	0x3f800000	1.0
121	0x3f800000	1.0
122	0x3f800000	1.0
123	0x3f800000	1.0
124	0x3f800000	1.0
125	0x3f800000	1.0
126	0x3f800000	1.0
127	0x3f800000	1.0
128	0x3f800000	1.0
129	0x3f800000	1.0
130	0x3f800000	1.0
131	0x3f800000	1.0
132	0x3f800000	1.0
133	0x3f800000	1.0
134	0x3f800000	1.0
135	0x3f800000	1.0
136	0x3f800000	1.0
137	0x3f800000	1.0
138	0x3f800000	1.0
139	0x3f800000	1.0
140	0x3f800000	1.0
141	0x3f800000	1.0
142	0x3f800000	1.0
143	0x3f800000	1.0
144	0x3f800000	1.0
145	0x3f800000	1.0
146	0x3f800000	1.0
147	0x3f800000	1.0
148	0x3f800000	1.0
149	0x3f800000	1.0
150	0x3f800000	1.0
151	0x3f800000	1.0
152	0x3f800000	1.0
153	0x3f800000	1.0
154	0x3f800000	1.0
155	0x3f800000	1.0
156	0x3f800000	1.0
157	0x3f800000	1.0
158	0x3f800000	1.0
159	0x3f800000	1.0
160	0x3f800000	1.0
161	0x3f800000	1.0
162	0x3f800000	1.0
163	0x3f800000	1.0
164	0x3f800000	1.0
165	0x3f800000	1.0
166	0x3f800000	1.0
167	0x3f800000	1.0
168	0x3f800000	1.0
169	0x3f800000	1.0
170	0x3f800000	1.0
171	0x3f800000	1.0
172	0x3f800000	1.0
173	0x3f800000	1.0
174	0x3f800000	1.0
175	0x3f800000	1.0
176	0x3f800000	1.0
177	0x3f800000	1.0
178	0x3f800000	1.0
179	0x3f800000	1.0
180	0x3f800000	1.0
181	0x3f800000	1.0
182	0x3f800000	1.0
183	0x3f800000	1.0
184	0x3f800000	1.0
185	0x3f800000	1.0
186	0x3f800000	1.0
187	0x3f800000	1.0
188	0x3f800000	1.0
189	0x3f800000	1.0
190	0x3f800000	1.0
191	0x3f800000	1.0
192	0x3f800000	1.0
193	0x3f800000	1.0
194	0x3f800000	1.0
195	0x3f800000	1.0
196	0x3f800000	1.0
197	0x3f800000	1.0
198	0x3f800000	1.0
199	0x3f800000	1.0
200	0x3f800000	1.0
201	0x3f800000	1.0
202	0x3f800000	1.0
203	0x3f800000	1.0
204	0x3f800000	1.0
205	0x3f800000	1.0
206	0x3f800000	1.0
207	0x3f800000	1.0
208	0x3f800000	1.0
209	0x3f800000	1.0
210	0x3f800000	1.0
211	0x3f800000	1.0
212	0x3f800000	1.0
213	0x3f800000	1.0
214	0x3f800000	1.0
215	0x3f800000	1.0
216	0x3f800000	1.0
217	0x3f800000	1.0
218	0x3f800000	1.0
219	0x3f800000	1.0
220	0x3f800000	1.0
221	0x3f800000	1.0
222	0x3f800000	1.0
223	0x3f800000	1.0
224	0x3f800000	1.0
225	0x3f800000	1.0
226	0x3f800000	1.0
227	0x3f800000	1.0
228	0x3f800000	1.0
229	0x3f800000	1.0
230	0x3f800000	1.0
231	0x3f800000	1.0
232	0x3f800000	1.0
233	0x3f800000	1.0
234	0x3f800000	1.0
235	0x3f800000	1.0
236	0x3f800000	1.0
237	0x3f800000	1.0
238	0x3f800000	1.0
239	0x3f800000	1.0
240	0x3f800000	1.0
241	0x3f800000	1.0
242	0x3f800000	1.0
243	0x3f800000	1.0
244	0x3f800000	1.0
245	0x3f800000	1.0
246	0x3f800000	1.0
247	0x3f800000	1.0
248	0x3f800000	1.0
249	0x3f800000	1.0
250	0x3f800000	1.0
251	0x3f800000	1.0
252	0x3f800000	1.0
253	0x3f800000	1.0
254	0x3f800000	1.0
255	0x3f800000	1.0

fc2.weight f4 [300, 400]
0	0xbca3c812	-0.019992862
1	0xbd5dc5ff	-0.054143902
2	0xbcb26a13	-0.021779096
3	0xbcd9e223	-0.026597088
4	0x3b0a152f	0.0021069755
5	0x3c8ae5a2	0.0169552
6	0xbc9402eb	-0.018067798
7	0xbc299dc1	-0.010352553
8	0xbd043fe6	-0.0322875
9	0xbc3c80c5	-0.01150531
10	0xbd861820	-0.0654757
11	0x3d3e3c96	0.046444498
12	0xbac78833	-0.0015223086
13	0x3d347387	0.044055488
14	0x3c171e87	0.009223587
15	0xbd71cf10	-0.05903536
16	0xbcca0580	-0.024660826
17	0x3bef3244	0.0072996933
18	0xbc192380	-0.009346843
19	0x3b7b5ec0	0.0038356036
20	0xbcc7c905	-0.024387846
21	0x3d3cb76f	0.046073373
22	0x3bffe36c	0.007809093
23	0x3d185a86	0.037195705
24	0xbb859352	-0.0040764
25	0x3d0240c1	0.031800035
26	0xbcefb205	-0.029259691
27	0xbca794fb	-0.020456782
28	0xbd88aa36	-0.0667309
29	0xbdb1ec76	-0.086876795
30	0xbb6d4ce3	-0.0036209158
31	0xbd81df25	-0.063413896
32	0x3caa139d	0.020761305
33	0x3c2a7afc	0.010405298
34	0xbd3a7d1c	-0.04552947
35	0xbc4fcc6e	-0.012683017
36	0xbd609145	-0.05482604
37	0xbc474b8b	-0.012164007
38	0x3cd882f7	0.026429636
39	0x3ca150b8	0.01969181
40	0xbc14e86f	-0.00908862
41	0xbcad4437	-0.021150691
42	0xbd510a52	-0.051035233
43	0x3d08636a	0.033297934
44	0xbd227374	-0.039660886
45	0x3d1a0078	0.037598103
46	0x3d116151	0.0354932
47	0xb99601ed	-0.00028611664
48	0xbd14b9cb	-0.03631
49	0x3c4de5b1	0.01256697
50	0x3d0fe021	0.035125855
51	0x3d2b094f	0.041756924
52	0x3c3f56a5	0.0116783725
53	0x3c037cd3	0.008025366
54	0xbd41f56c	-0.047353193
55	0x3c4db84c	0.012556147
56	0x3c932921	0.017963948
57	0x3d17139d	0.03688394
58	0x3bf55e12	0.0074880207
59	0x3c2cb67e	0.010541556
60	0x3b4b1e14	0.003099327
61	0x3b994eb8	0.0046785735
62	0xbd94a543	-0.07258084
63	0xbd5838ba	-0.052788474
64	0xbcf9f077	-0.03051017
65	0xbbd2375a	-0.00641529
66	0x3c86e89d	0.01646834
67	0xba9b29ee	-0.0011838058
68	0x3d38ff64	0.045165434
69	0xbce48e7f	-0.027899979
70	0x3b254871	0.002522018
71	0x3d33bfed	0.043884207
72	0x3c9f27d3	0.01942817
73	0xbd9a3e6f	-0.075314395
74	0xbc2dc5d9	-0.010606253
75	0xbbfe3a14	-0.0077583883
76	0x3a63f5fd	0.0008696018
77	0xbb81823f	-0.003952294
78	0xbd7be0f5	-0.061493833
79	0xbd8c3642	-0.06846286
80	0xbc3b2538	-0.011422448
81	0xbd0a7978	-0.033807248
82	0xbb4f9780	-0.0031675994
83	0xbca50ab3	-0.020146703
84	0xbd657d4d	-0.0560277
85	0x3c4e7171	0.012600289
86	0x3c827dc4	0.01592911
87	0xbb94b7a6	-0.004538494
88	0xbd57a56a	-0.052647986
89	0xbcd8eebf	-0.02648103
90	0xbd71f27c	-0.05906914
91	0x3cb1f8c2	0.021725062
92	0xbcb2d6d9	-0.021830963
93	0xbc4c7858	-0.012479864
94	0xbce8779e	-0.02837735
95	0xbd3020f2	-0.04300017
96	0xbca7d821	-0.0204888
97	0xbcf3f067	-0.029777719
98	0xbd4cd0ee	-0.05000394
99	0xbc805e65	-0.01567001
100	0xbd1c3f9b	-0.038146596
101	0xbc8ddca9	-0.017317133
102	0x3c0207aa	0.007936398
103	0x3cf80473	0.030275559
104	0xbd27d626	-0.040975712
105	0x3cdaf419	0.026727723
106	0xbd71bcbb	-0.059017878
107	0x3d3643b4	0.04449816
108	0xbcd792e0	-0.026315153
109	0xbc9ee205	-0.019394884
110	0xbb618440	-0.0034411103
111	0x3c563bfc	0.013075825
112	0x3ca3a246	0.019974839
113	0x3d013301	0.03154278
114	0x3c947578	0.01812242
115	0xbd045ee8	-0.032317072
116	0xbc92b53c	-0.017908685
117	0x3d066cbd	0.032818545
118	0x3bfeb435	0.007772947
119	0x3ca1f479	0.019769894
120	0x3d205c1f	0.039150354
121	0x3b18ab51	0.0023295472
122	0x3c1e907d	0.009678003
123	0xbd0b86c3	-0.034064066
124	0x3c6e1726	0.014531886
125	0xbd7ad231	-0.06123561
126	0xbbf2f762	-0.0074147442
127	0x3cd1f3e1	0.025628986
128	0xbd288604	-0.041143432
129	0xbb859b06	-0.004077318
130	0xbd5a07cb	-0.05323009
131	0xbb9150e6	-0.0044346927
132	0xbcae1706	-0.021251213
133	0xbb98aa51	-0.004658975
134	0xbc84b380	-0.016198874
135	0x3d31b9c1	0.04339004
136	0x3c7dc670	0.015489206
137	0x3abef3c8	0.0014568502
138	0x3d21e301	0.03952313
139	0x3ca96cec	0.02068182
140	0xbda3d8e6	-0.080003545
141	0x3c34dac1	0.011038483
142	0xbc6a8d02	-0.014315845
143	0xbd6bdbfd	-0.057582844
144	0xbd15708c	-0.036484286
145	0xbc3f6393	-0.011681455
146	0x3a04c4ae	0.0005064708
147	0xbd40d53e	-0.047078364
148	0x3a2053a3	0.00061159785
149	0xbbacee25	-0.0052774125
150	0xbcb62e01	-0.022238733
151	0x3c4be837	0.012445501
152	0xbd6bb4d4	-0.057545498
153	0x3d37b39a	0.044849016
154	0x3cdc171d	0.02686649
155	0x3c3ba4e7	0.01145289
156	0xbd08c256	-0.03338846
157	0xbd81212c	-0.06305155
158	0xbceb8804	-0.02875138
159	0xbd6a9a9a	-0.057276346
160	0x3d284c9e	0.041088693
161	0xbc9bfec1	-0.019042375
162	0xbd598e6e	-0.053114347
163	0x3d14e2a2	0.036348946
164	0xbc9f4408	-0.01944162
165	0xbcd61d63	-0.02613706
166	0xbd99155f	-0.07474779
167	0xba735a4f	-0.00092831714
168	0xbd148c74	-0.03626676
169	0xbd7c0d51	-0.061536137
170	0xbcdb88dc	-0.026798658
171	0x3c077b90	0.008269206
172	0xbcdd8397	-0.027040286
173	0xba4e5243	-0.00078705343
174	0xbb979982	-0.004626454
175	0xbcfd0349	-0.030885356
176	0xbd5fb83b	-0.054619055
177	0xbc9e2068	-0.019302562
178	0xbd23a754	-0.0399545
179	0xbcd2e258	-0.025742695
180	0xbd51b883	-0.051201355
181	0xbccc46ed	-0.024936164
182	0xbd86ff3b	-0.0659165
183	0xba8a9ed2	-0.0010575897
184	0xbc372e84	-0.011180524
185	0x3c5863c7	0.0132073825
186	0xbd79d429	-0.060993347
187	0x3c1c0259	0.009522044
188	0x3d03cd61	0.032178286
189	0x3d3e3896	0.046440683
190	0xbd98304a	-0.074310854
191	0xbd95b4f4	-0.07309905
192	0x3c8eae7b	0.017417183
193	0xbcec1d52	-0.028822575
194	0xbb464f07	-0.0030259506
195	0x3d0435bf	0.03227782
196	0xbcbaef09	-0.022819059
197	0xb9fea7f9	-0.00048571805
198	0xbd01eb7e	-0.031718723
199	0xbbc5aa73	-0.006032282
200	0xbd0a66d6	-0.03378948
201	0xbc9c460b	-0.019076368
202	0x3c005e00	0.007834911
203	0x3c1cce7e	0.009570716
204	0x3cc9c47d	0.024629826
205	0xbd3ad9e6	-0.04561796
206	0xbd87a4eb	-0.066232525
207	0xbcdf420f	-0.027253179
208	0x3bd6ada1	0.00655146
209	0x3d43bf4c	0.047789857
210	0xbca691f6	-0.020333271
211	0x3d26ab53	0.04069073
212	0xbd258463	-0.040409457
213	0xbc9c58c5	-0.019085297
214	0x3bcec9c3	0.006310673
215	0xbd50b506	-0.050953887
216	0xbd5a9932	-0.053368755
217	0x3d076bda	0.03306184
218	0x3bec6bd0	0.0072150007
219	0xbd7cd8cb	-0.061730187
220	0x3cda759f	0.026667414
221	0xbcf82483	-0.030290848
222	0xbca36b70	-0.019948691
223	0xbc8ba395	-0.017045775
224	0xbd8203f9	-0.06348414
225	0xbd63f998	-0.055657953
226	0xbca47caa	-0.020078976
227	0xbcfc791b	-0.030819466
228	0xbcf25acf	-0.029584317
229	0xbd37e01b	-0.044891458
230	0xba84d0c3	-0.0010133017
231	0xbd99958a	-0.074992254
232	0xbd3ca54a	-0.04605607
233	0xbc816d57	-0.015799208
234	0xbbc78dcf	-0.006089903
235	0x3a2e9362	0.0006659535
236	0xbd2a583d	-0.041588057
237	0xbcd1efb2	-0.025626991
238	0xbccd3a68	-0.025052264
239	0xbd8f2ab7	-0.06990569
240	0x3d13d787	0.036094215
241	0xbc59d9b4	-0.013296533
242	0xbbdac192	-0.0066759074
243	0xbcafb53e	-0.021448728
244	0xbd5523d6	-0.05203613
245	0xbcd3680f	-0.025806455
246	0xbd6b2e0d	-0.057416964
247	0xbd093316	-0.033495985
248	0xbd0da5e8	-0.03458205
249	0xbc47b9af	-0.0121902665
250	0x3d017de7	0.03161421
251	0x3ca5b20a	0.020226497
252	0x3b6e27ba	0.0036339597
253	0x3ca41d3f	0.020033477
254	0x3cd14489	0.025545375
255	0xbd4292b6	-0.047503196

fc2.bias f4 [300]
0	0xbda2172a	-0.079145744
1	0x3c2a184c	0.010381769
2	0xbd5ff440	-0.054676294
3	0xbdab0bea	-0.08351882
4	0xbec0774d	-0.3759102
5	0x3d894557	0.06702679
6	0xbd1ae611	-0.037817065
7	0xbd2dcdcb	-0.042432588
8	0xbb22e13e	-0.0024853493
9	0xbef41848	-0.47674775
10	0xbe42732d	-0.18989249
11	0xbe99a067	-0.3000519
12	0x3c88de1c	0.016707473
13	0xbcf3ba50	-0.029751927
14	0x3c1a4c20	0.009417564
15	0xbef1a11c	-0.4719323
16	0x3cf3ce91	0.029761584
17	0xbe865e55	-0.26243845
18	0xbd5bc465	-0.053654093
19	0xbe285cf7	-0.16441713
20	0xbd86b635	-0.06577722
21	0xbf4c7923	-0.7987234
22	0xbe75efac	-0.24017209
23	0xbdf53c43	-0.11974385
24	0xbeb2d3d3	-0.34927234
25	0xbe303170	-0.17206359
26	0x3d621b22	0.055201657
27	0xbe363f35	-0.17797549
28	0x3d7b3bc8	0.06133631
29	0xbeb2fdcc	-0.34959257
30	0xbd935984	-0.07194808
31	0xbe9721d9	-0.2951801
32	0x3d2edac8	0.042689115
33	0x3d764542	0.060124643
34	0xbdb23f93	-0.08703532
35	0x3b6b1c88	0.003587516
36	0xbc2aa2cc	-0.01041479
37	0xbebc3a77	-0.36763355
38	0xbcf63817	-0.030056043
39	0x3beca0dc	0.0072213244
40	0x3d363e5e	0.04449307
41	0xbdb219fd	-0.08696363
42	0xbe8ba6f4	-0.27275813
43	0xbd3f1ace	-0.046656422
44	0xbd9b2009	-0.075744696
45	0xbbc99270	-0.00615149
46	0xbe8a5754	-0.2701975
47	0xbdb1787a	-0.08665557
48	0xbd70da32	-0.058801837
49	0x3cdeb079	0.027183758
50	0xbc91923a	-0.017769922
51	0xbe5c145c	-0.21492141
52	0x3dc87eb1	0.097897895
53	0xbdc3881d	-0.09547446
54	0xbc2a989c	-0.0104123615
55	0xbce7eb4a	-0.028310437
56	0xbe8c8710	-0.27446795
57	0xbd3d8f6a	-0.04627935
58	0x3c769c36	0.015051892
59	0xbe318ef3	-0.17339687
60	0xbd804ed3	-0.062650345
61	0xbbaa4a28	-0.0051968284
62	0xbdd085c6	-0.10181765
63	0xbee3d65b	-0.44499478
64	0xbd27b48e	-0.040943675
65	0xbe8e0922	-0.27741343
66	0xbe7261fe	-0.23670194
67	0xbe3bee11	-0.18352534
68	0xbddf46f2	-0.109022036
69	0x3d8fb582	0.07017042
70	0xbd27b39d	-0.040942777
71	0xbe36f3a4	-0.17866379
72	0x3ddc8e97	0.10769384
73	0xbd248d02	-0.040173538
74	0x3c44284c	0.011972498
75	0xbe7d6573	-0.24745731
76	0xbe02079e	-0.12698218
77	0xbb6c5cf1	-0.003606614
78	0x3a804fa2	0.0009789357
79	0xbdf55fb8	-0.119811475
80	0x3d2701ac	0.04077308
81	0xbd868589	-0.065684386
82	0x3e587008	0.21136487
83	0xbd873098	-0.066010654
84	0x3d93fde1	0.07226158
85	0xbe0bc5b6	-0.1364964
86	0xbe159c5a	-0.14610425
87	0xbe9eb7eb	-0.30999693
88	0xbe35de67	-0.17760621
89	0xbe283d1d	-0.16429563
90	0x3d7157dd	0.058921684
91	0xbdfa0802	-0.122085586
92	0x3c82efcd	0.015983487
93	0xbdf6a4ab	-0.12043127
94	0xbe21636f	-0.15760587
95	0x3d8f48e7	0.06996327
96	0xbe7d3cc4	-0.24730211
97	0x3e0e6c7d	0.13908572
98	0xbc351f60	-0.011054844
99	0xbe9028ff	-0.28156278
100	0xbed18a4c	-0.40925825
101	0xbee11248	-0.4395926
102	0xbebde0b4	-0.37085497
103	0xbdeb1d27	-0.1148017
104	0x3dff8348	0.12476212
105	0xbde96759	-0.11396665
106	0xbe6c082f	-0.23049997
107	0xbccf2f64	-0.025291152
108	0xbeff9cb8	-0.49924254
109	0x3e47fe29	0.19530548
110	0x3e0b4112	0.13599041
111	0xbdf8b8ff	-0.1214466
112	0xbde367c2	-0.111037746
113	0xbe93961a	-0.28825456
114	0xbd3e7e9f	-0.046507474
115	0xbc8121c2	-0.015763167
116	0xbaeaabbc	-0.0017903964
117	0xbc3d001a	-0.011535669
118	0xbeb26b9f	-0.34847733
119	0x3e6c340a	0.23066726
120	0xbd0cced3	-0.03437693
121	0xbd58d7eb	-0.05294029
122	0x3e63dd9c	0.22252506
123	0xbd0ab17a	-0.03386066
124	0xbd82e241	-0.06390811
125	0xbee89b6c	-0.45431077
126	0x3bc79a4c	0.0060913917
127	0xbde8102b	-0.11331209
128	0xbe42a98a	-0.19009987
129	0xbe873b7e	-0.26412576
130	0xbe74db87	-0.23911868
131	0xbf023065	-0.50855094
132	0xbe723fcc	-0.23657149
133	0xbd10d28f	-0.035357054
134	0xbd13eabd	-0.036112536
135	0xbd81a917	-0.063310795
136	0xbddc2be1	-0.10750557
137	0xbb441e7b	-0.0029925394
138	0x3d87dd91	0.06634057
139	0x3db60773	0.088881396
140	0xbe4d2971	-0.2003534
141	0xbe094b2d	-0.13407584
142	0xbe199688	-0.1499883
143	0xbdb13035	-0.08651773
144	0xbda80e5e	-0.08205865
145	0xbe982b56	-0.29720563
146	0xbeb3055e	-0.34965032
147	0xbd8f6c41	-0.0700307
148	0xbe6770a7	-0.22601567
149	0xbe6b301b	-0.2296757
150	0xbd5b2a0c	-0.053506896
151	0x3e206f37	0.15667425
152	0xbe2e668e	-0.17031309
153	0xbd652bab	-0.05594985
154	0xbca7fddb	-0.02050679
155	0xbcc8cf45	-0.024512896
156	0x3b9974ce	0.0046831137
157	0xbd12ea18	-0.03586778
158	0xbdc10859	-0.0942542
159	0x3e878c69	0.26474312
160	0xbda26aee	-0.079305515
161	0xbe965f5c	-0.29369628
162	0xbdbfd31b	-0.09366437
163	0xbebf22e7	-0.37331316
164	0x3d819cd4	0.06328741
165	0xbce629b1	-0.028096052
166	0xbe1a7c14	-0.15086395
167	0xbcacde4b	-0.021102091
168	0xbda7618c	-0.081729025
169	0xbe60f9a0	-0.21970224
170	0xbc83704b	-0.016044756
171	0xbe882ed3	-0.26598224
172	0xbc02e4b5	-0.007989098
173	0x3d882759	0.0664813
174	0xbe06da10	-0.13169122
175	0xbd9a8de3	-0.07546594
176	0xbdf089aa	-0.11745007
177	0xbd11bfae	-0.03558319
178	0xbebda962	-0.3704329
179	0x3dc89019	0.097931094
180	0xbe2a3655	-0.16622289
181	0xbd04e5a6	-0.032445572
182	0x3da6b8f6	0.08140747
183	0xbdbcb141	-0.09213496
184	0xbe30baad	-0.17258711
185	0x3e929ccf	0.2863526
186	0xbd253807	-0.040336635
187	0xbe0e4e5a	-0.13897076
188	0xbd29ac4b	-0.041424077
189	0xbd9cfc45	-0.07665304
190	0xbd972233	-0.0737957
191	0x3c640be3	0.01391885
192	0xbc64d623	-0.01396707
193	0x3a118a6d	0.0005551938
194	0xbe08887a	-0.13333312
195	0x3c8314fc	0.016001217
196	0xbd51dea3	-0.051237714
197	0xbd9a1111	-0.075227864
198	0xbd3dca61	-0.04633558
199	0x3e265887	0.16244708
200	0xbe95b5d0	-0.29240274
201	0xbd0d1b03	-0.03444959
202	0xbd47eb22	-0.048808224
203	0xbe4a4c02	-0.19755557
204	0xbd3e9f23	-0.046538483
205	0xbe2b5836	-0.16732869
206	0x3ca97e59	0.02069013
207	0x3db3e354	0.08783594
208	0xbda6cf8a	-0.08145054
209	0xbe81ac2a	-0.25326663
210	0xbeb11c91	-0.34592107
211	0xbdb850a7	-0.08999758
212	0xbdb00404	-0.08594516
213	0x3e4b4b67	0.19852982
214	0xbc70e0e1	-0.014702053
215	0xbe3b36d0	-0.18282628
216	0xbd39e354	-0.045382813
217	0xbe6ec4af	-0.23317216
218	0x3df51bdc	0.119682044
219	0xbe901fd4	-0.28149283
220	0xbe1b3425	-0.1515661
221	0xbe4a10b7	-0.19732939
222	0xbbadebfc	-0.0053076725
223	0xbca1d7b0	-0.019756168
224	0xbebf68a1	-0.37384513
225	0xbf040b45	-0.51579696
226	0xbd4f900e	-0.05067449
227	0x3c1754b0	0.0092365
228	0xbd518f35	-0.051161963
229	0xbe05b60e	-0.1305773
230	0x3c58e631	0.013238476
231	0x3d450485	0.048100013
232	0xbed60ea9	-0.4180806
233	0xbe91d7e3	-0.2848502
234	0xbcf0840f	-0.029359845
235	0xbc843094	-0.016136445
236	0xbe652690	-0.22377992
237	0xbd1454bd	-0.036213625
238	0xbe2c269d	-0.16811605
239	0x3cfc1eb1	0.030776354
240	0xbbf14a11	-0.0073635657
241	0x3e0b01ed	0.13574953
242	0x3e509cae	0.20372269
243	0xbf0778fa	-0.5291897
244	0x3d48198b	0.048852485
245	0x3c8d3853	0.017238772
246	0xbdbb0f86	-0.0913382
247	0x3b9e7523	0.004835741
248	0xbdc7213c	-0.09723136
249	0x3d052aa5	0.032511372
250	0xbe41050f	-0.18849586
251	0xbe3a307c	-0.18182558
252	0xbcba9b9d	-0.02277928
253	0xbd035dfe	-0.03207206
254	0x3d27735d	0.040881503
255	0xbe4167aa	-0.18887201
